DreamerOnPendelHotfixed/models/SmallConfig/world_model2.pth (torch, 598218 bytes, 52 tensors)

gru.weight_ih_l0 f4 [96, 130]
0	0xbe10fe37	-0.14159475
1	0x3ca4b04b	0.020103594
2	0xbb230185	-0.0024872732
3	0xbe001ecf	-0.12511753
4	0x3d8023f5	0.06256858
5	0xbc333402	-0.010937693
6	0x3e12b069	0.14325108
7	0x3dcdc113	0.100465916
8	0xbdb71a6c	-0.089405864
9	0xbd884b89	-0.06655032
10	0x3d2a0b0d	0.041514445
11	0xbe2113e6	-0.15730247
12	0xbd1fc4c2	-0.039006002
13	0x3d160aab	0.036631268
14	0x3e167c47	0.14695846
15	0xbdb6d541	-0.08927394
16	0x3d89f3ca	0.06735952
17	0xbdd96f5f	-0.106169455
18	0x3d8cdb98	0.06877822
19	0x3d1abb45	0.03777625
20	0xbe0b69a4	-0.13614517
21	0x3e16e4b4	0.14735681
22	0x3e0516e4	0.12997013
23	0xbe23d1d7	-0.15998016
24	0xbdeda405	-0.1160355
25	0x3e17d9d3	0.14829187
26	0x3dbe149a	0.09281273
27	0xbd9757e9	-0.073898144
28	0xbe0ba449	-0.13636889
29	0xbd9d430c	-0.07678804
30	0x3dd26042	0.10272266
31	0x3cf91a0a	0.030407924
32	0xbdb3f945	-0.08787779
33	0x3e1916ec	0.1495015
34	0xbcdd8d7c	-0.027045004
35	0x3e3115a0	0.17293406
36	0x3d5fcbc9	0.054637704
37	0xbd56cb93	-0.052440237
38	0xbcffb699	-0.031214999
39	0xbdf6e11e	-0.120546564
40	0xbd002977	-0.031289544
41	0x3d2e9cad	0.042629886
42	0xbd5a0b3c	-0.05323337
43	0x3d97643a	0.073921636
44	0x3e2044b5	0.1565121
45	0xbd28882e	-0.041145496
46	0xbdf8decb	-0.121518694
47	0x3da3d38a	0.07999332
48	0xb785dc49	-1.5957414e-05
49	0x3cda4d16	0.026648086
50	0x3d368514	0.044560507
51	0xbdd45973	-0.103686236
52	0x3e2a13f3	0.16609173
53	0x3e2a12ab	0.16608684
54	0xbdd31dd0	-0.10308421
55	0xbe039c57	-0.12852608
56	0xbd6ef58d	-0.058339644
57	0xbd867b56	-0.06566493
58	0xbd33c4eb	-0.043888967
59	0x3e06c44f	0.13160823
60	0xbe1418e6	-0.14462623
61	0x3de65060	0.11245799
62	0xbe2045e9	-0.15651669
63	0xbd810e44	-0.06301549
64	0x3dd3df63	0.10345342
65	0xbdc61ffc	-0.09674069
66	0x3dc0f772	0.094221964
67	0xbe0e27bb	-0.13882343
68	0x3d59ca60	0.053171515
69	0xbde16ebb	-0.11007448
70	0x3e12a8ab	0.14322154
71	0x3c4a562b	0.012349646
72	0x3c2bb753	0.01048072
73	0x3e022d26	0.12712535
74	0x3d0a402c	0.033752605
75	0x3e0e8824	0.13919121
76	0xbcff0587	-0.031130565
77	0x3cf22073	0.029556489
78	0xbdbebc4d	-0.09313259
79	0xbd5899b7	-0.05288097
80	0xbca776ed	-0.02044245
81	0xbe202cbb	-0.15642063
82	0xbe1cbff1	-0.15307595
83	0x3e0407bc	0.12893575
84	0x3c77a247	0.0151143735
85	0x3e1766a7	0.14785253
86	0xbd2b7f3d	-0.04186939
87	0x3da578eb	0.08079704
88	0x3d574926	0.052559994
89	0x3d9734e3	0.07383134
90	0xbded02bb	-0.115727864
91	0x3dadf229	0.08493454
92	0xbdc09789	-0.09403903
93	0x3df0e527	0.11762457
94	0x3d1c8d8b	0.038220923
95	0x3d079640	0.033102274
96	0x3d16325f	0.03666913
97	0xbd8422f3	-0.064519785
98	0xbde55d64	-0.111994535
99	0xbe1994e9	-0.14998211
100	0x3c987019	0.01860814
101	0xbc69d1b0	-0.014271185
102	0xbd0cc877	-0.034370866
103	0x3e266918	0.16251028
104	0x3ad5e2ba	0.001631818
105	0xbbb62e61	-0.005559728
106	0xbd2af5f8	-0.04173848
107	0x3bf7f2b5	0.0075667747
108	0x3db6ab22	0.0891936
109	0x3dd39784	0.10331634
110	0x3d9e327b	0.07724472
111	0xbdf8d388	-0.121497214
112	0x3e0e3252	0.13886383
113	0x3e0ff594	0.14058524
114	0x3c0adbd6	0.008475265
115	0xbe08e315	-0.13367875
116	0x3e297122	0.16547063
117	0x3e3213dd	0.1739039
118	0x3c82a70d	0.015948797
119	0xbe23d821	-0.16000415
120	0x3ccffa38	0.025387868
121	0x3b7cce9d	0.00385753
122	0xbde1958e	-0.110148534
123	0x3dc3fdca	0.09569891
124	0x3df030f4	0.11728087
125	0x3d9f6088	0.07782084
126	0x3dd2a5eb	0.102855526
127	0x3dc3b9cf	0.095569246
128	0x3def6b02	0.11690332
129	0x3debb08f	0.11508285
130	0x3d932f77	0.071867876
131	0xbdd765c1	-0.10517455
132	0x3dc274a9	0.094949074
133	0xbe0cd479	-0.13752927
134	0x3df4241d	0.119209506
135	0x3e26fa5b	0.1630644
136	0xbdc34cc1	-0.09536124
137	0xbd260756	-0.04053434
138	0x3e00cafd	0.12577434
139	0xbd646a5a	-0.055765487
140	0x3e229040	0.1587534
141	0xbd9aa09d	-0.07550166
142	0x3d5ffbf4	0.05468364
143	0x3db27666	0.08713989
144	0xbe1ebc52	-0.15501526
145	0x3d5db311	0.05412585
146	0x3df581c9	0.11987645
147	0xbe0d5dfd	-0.13805385
148	0x3d2f398b	0.042779487
149	0xbd9adc95	-0.07561604
150	0xbe311a06	-0.17295083
151	0xbd60acfa	-0.054852463
152	0x3b64051f	0.0034793091
153	0x3db4ef30	0.08834684
154	0xbe1e867b	-0.15480988
155	0x3d7b7ed8	0.061400265
156	0x3db9c99f	0.09071659
157	0x3e3289c1	0.17435361
158	0xbd0c92c2	-0.034319647
159	0x3df45e12	0.11932005
160	0xbd71c976	-0.05903002
161	0x3dc22b79	0.09480948
162	0x3ddd9df2	0.10821141
163	0xbd192742	-0.037390955
164	0xbdc1a929	-0.09456093
165	0xbd9b8492	-0.07593645
166	0x3c754424	0.014969859
167	0xbdc7ac2f	-0.09749638
168	0xbe05ba42	-0.13059333
169	0x3e171108	0.1475259
170	0x3d71dfb0	0.059051216
171	0xbe1356bb	-0.14388554
172	0xbdc9be26	-0.09850721
173	0xbe291b9c	-0.16514438
174	0x3cb5604d	0.022140646
175	0xbe2dd100	-0.16974258
176	0x3d23a0e9	0.039948378
177	0x3c8eb519	0.017420338
178	0xbdc7bee3	-0.097532056
179	0xbdce48f6	-0.1007251
180	0xbd89a58e	-0.0672103
181	0xbdc5026c	-0.096196026
182	0xbd941356	-0.072302505
183	0xbe1fe829	-0.15615906
184	0x3c15dfc6	0.00914759
185	0xbc728a27	-0.014803446
186	0xbdc712e4	-0.097204
187	0xbdd15d06	-0.10222821
188	0x3e102199	0.14075316
189	0x3e034ae8	0.12821543
190	0x3ddb1765	0.106978215
191	0x3de9b4dd	0.1141145
192	0xbdd49c23	-0.10381343
193	0x3c443b66	0.011977052
194	0x3d434c99	0.04768047
195	0xbb995a2a	-0.004679938
196	0xbc99370f	-0.018703012
197	0x3e077886	0.1322957
198	0x39be30de	0.00036276033
199	0xbe1b4026	-0.1516119
200	0xbdd1c781	-0.102431305
201	0xbc8c1219	-0.017098473
202	0x3de1360f	0.10996639
203	0xbd946e07	-0.072475486
204	0xbc7f3f71	-0.01557909
205	0xbcfd6036	-0.030929666
206	0x3af371f8	0.0018573394
207	0xbe2adf4d	-0.16686745
208	0x3de0fe52	0.10986008
209	0x3e057f5c	0.13036865
210	0xba26c839	-0.0006362233
211	0xbd21f82c	-0.039543316
212	0xbdf20f39	-0.1181931
213	0xbe0b2edd	-0.13592096
214	0x3d813ef0	0.063108325
215	0xbe232c58	-0.15934885
216	0x3c0c7d0b	0.008574734
217	0xbc40b988	-0.011762984
218	0x3d55432b	0.05206601
219	0x3d1db792	0.038505144
220	0xbc817804	-0.015804298
221	0x3d6f90ba	0.05848763
222	0x3c37e948	0.011225052
223	0x3dee4696	0.11634557
224	0xbcab24d4	-0.020891584
225	0xbd33f97d	-0.043939102
226	0xbe1ed6c7	-0.15511619
227	0x3c7d180c	0.015447628
228	0x3d24d684	0.04024364
229	0x3e0cd864	0.13754421
230	0x3e06c878	0.1316241
231	0xbe02bd09	-0.12767424
232	0x3dd5e393	0.10443797
233	0x3dc3bf51	0.09557975
234	0x3b50f52c	0.0031884415
235	0xbd8712f7	-0.06595414
236	0x3ddc107a	0.1074533
237	0x3d0bc905	0.034127254
238	0x3d0bcdf2	0.03413195
239	0xbd7662ec	-0.060152933
240	0xbd52b236	-0.051439486
241	0xbd6c5c5e	-0.057705276
242	0x3dd93185	0.10605148
243	0x3e1d565a	0.15364972
244	0x3c86a2a3	0.016434973
245	0xbd9417dd	-0.07231114
246	0xbd932ad3	-0.071859024
247	0x3da349d1	0.07973064
248	0x3e2dc63c	0.16970152
249	0x3dc686a3	0.09693649
250	0xbde32adf	-0.110921614
251	0xbd9df9c8	-0.077136576
252	0x3d4cd5ba	0.050008513
253	0x3c774310	0.015091673
254	0xbdf5fd88	-0.12011248
255	0xbdd1e324	-0.10248402

gru.weight_hh_l0 f4 [96, 32]
0	0x3d1e9c0c	0.038723037
1	0x3d0f4348	0.034976274
2	0x3dd6829e	0.10474132
3	0xbe11e76c	-0.14248437
4	0xbe173558	-0.14766443
5	0xbe27859d	-0.16359563
6	0xbbaabf12	-0.0052107656
7	0xbd8777af	-0.06614625
8	0x3dd2641e	0.10273002
9	0xbe10dd77	-0.14146982
10	0xbdf87b02	-0.12132837
11	0x3e1198bc	0.1421842
12	0xbe355a79	-0.17710294
13	0x3e2486ac	0.16066998
14	0xbe1f76c1	-0.15572645
15	0x3d0530cd	0.032517243
16	0x3d3884ae	0.04504841
17	0xbe0449f5	-0.12918837
18	0x3e03ab25	0.12858255
19	0x3e102954	0.14078265
20	0xbd357474	-0.04430051
21	0x3e0346c1	0.12819959
22	0x3d1ed345	0.0387757
23	0x3da49aa2	0.08037306
24	0x3dd205a5	0.10254983
25	0x3c068ef9	0.008212798
26	0xbd413e25	-0.047178406
27	0x3b9e1bcf	0.0048250924
28	0x3d8431fc	0.06454846
29	0x3e0d7f69	0.13818134
30	0x3d9dd1fc	0.07706067
31	0x3df8c704	0.12147334
32	0xbe29abe5	-0.16569479
33	0xbe050f0d	-0.12994023
34	0xbccb65f4	-0.024828888
35	0x3e212b46	0.15739164
36	0xbe15c7c5	-0.14626987
37	0xbdf24c90	-0.118310094
38	0xbe13248c	-0.1436941
39	0x3e1edd15	0.15514024
40	0x3debb90f	0.115099065
41	0xbe250f25	-0.16119058
42	0x3d666d81	0.056256775
43	0x3b0b3a54	0.0021244483
44	0xbdf43c95	-0.119256176
45	0xbd5589e6	-0.052133463
46	0x3c1d1c00	0.009589195
47	0xbe2c9721	-0.16854526
48	0xbe1ea30d	-0.15491886
49	0xbe1cbfdc	-0.15307564
50	0x3e0d4723	0.13796668
51	0xbe050e86	-0.12993822
52	0xbda4069b	-0.080090724
53	0x3e36cc79	0.17851438
54	0x3db536de	0.08848356
55	0x3d7a3725	0.061087746
56	0x3d5ba75b	0.0536264
57	0x3e303875	0.17209037
58	0xbd3ba8fe	-0.04581546
59	0x3e22db89	0.15904059
60	0xbd5b174e	-0.053489022
61	0xbdf63a2c	-0.12022814
62	0xbdd542e1	-0.10413147
63	0x3da94bd7	0.082664184
64	0x3e24177d	0.16024585
65	0xbdef1047	-0.116730265
66	0x3e27689e	0.16348502
67	0x3aa511b4	0.0012593777
68	0x3c15b0d5	0.009136398
69	0x3de55a26	0.11198835
70	0x3df870ce	0.12130891
71	0x3e1bb60a	0.15206161
72	0x3bea894f	0.0071574817
73	0x3d0040a2	0.03131164
74	0xbd1ddeb9	-0.038542483
75	0xbc7ab5bc	-0.015302118
76	0xbdce4107	-0.10070997
77	0x3cdc20d2	0.026871119
78	0xbdf3f61b	-0.11912175
79	0x3e20880d	0.15676899
80	0xbe2edaff	-0.17075728
81	0x3b812898	0.0039416067
82	0x3d04bdba	0.0324075
83	0x3de910ae	0.113801345
84	0x3e2af34a	0.1669437
85	0x3cbc7c4c	0.023008488
86	0x3dd64ac0	0.10463476
87	0x3e0b39ff	0.13596343
88	0xbd9993cc	-0.07498893
89	0x3d4d3811	0.050102297
90	0xbb5f21fe	-0.003404736
91	0x3e1d17b8	0.15341079
92	0x3e40c289	0.1882421
93	0x3dd956cb	0.106122576
94	0x3c429665	0.011876677
95	0xbd3f246a	-0.046665587
96	0x3c922f95	0.017844955
97	0xbc8442a2	-0.016145054
98	0xbdb1899a	-0.086688235
99	0x3cda277e	0.02663016
100	0x3de1a965	0.110186376
101	0xbe263cd9	-0.16234149
102	0x3bc998d0	0.00615225
103	0x3bb14e3d	0.005410938
104	0xbd97d8e2	-0.07414414
105	0xbbb895a0	-0.005633071
106	0xbc4c6428	-0.012475051
107	0xbdb923c0	-0.09040022
108	0xbd35baa4	-0.044367447
109	0x3c5730fc	0.013134237
110	0xbd743134	-0.059617236
111	0x3d6b8d5e	0.057507865
112	0x3de16427	0.11005431
113	0x3df52a6b	0.11970981
114	0x3e156c49	0.14592089
115	0xbc616126	-0.013756072
116	0x3e4cb4f9	0.1999091
117	0x3e1ca21e	0.15296218
118	0xbd299467	-0.041401293
119	0x3d7f06e0	0.062262416
120	0xbe417d72	-0.1889551
121	0xbdc67d03	-0.09691813
122	0xbcb70d36	-0.022345167
123	0xbd6d68ec	-0.05796139
124	0x3e31fc8d	0.17381497
125	0xbcf870d1	-0.030327233
126	0x3d567439	0.052356932
127	0x3c0de1b5	0.00865977
128	0x3d8567b6	0.06513922
129	0x3d55414f	0.052064236
130	0x3ca7b762	0.020473186
131	0xbdac9e1a	-0.08428593
132	0x3d9e67b9	0.07734627
133	0xbe12b222	-0.14325765
134	0xbdb0c1ca	-0.08630712
135	0xbc841f33	-0.016128158
136	0x3e44b25f	0.19208668
137	0xbda62405	-0.08112339
138	0xbe3af849	-0.18258776
139	0xbd9d4471	-0.0767907
140	0x3de34663	0.110974096
141	0xbe19d3c1	-0.15022184
142	0xbd055ff1	-0.0325622
143	0x3d904ea9	0.07046253
144	0x3e294a54	0.1653226
145	0x3d412902	0.04715825
146	0xbdb26fc7	-0.08712726
147	0x3d76bafa	0.06023691
148	0xbdf13f44	-0.11779645
149	0x3dd60171	0.10449494
150	0x3d7eaf6f	0.062179025
151	0xbcaccac4	-0.02109278
152	0x3e16b082	0.1471577
153	0xbdf18250	-0.11792433
154	0xbdf956ce	-0.1217476
155	0xbcc4fabc	-0.02404534
156	0xbe17cfc6	-0.14825353
157	0x3b3c68e4	0.0028749043
158	0x3e39b20d	0.18134327
159	0x3dd13f94	0.10217205
160	0xbcb3e1f3	-0.021958327
161	0xbd1d32b9	-0.03837845
162	0x3ce1b822	0.027553622
163	0xbd418821	-0.047248963
164	0x3d0459b2	0.032312103
165	0x3d550c54	0.05201371
166	0x3e1f5fab	0.15563838
167	0x3db77108	0.08957106
168	0x3e2bdf5b	0.16784422
169	0x3cbd9bb3	0.023145532
170	0x3dde3896	0.10850637
171	0x3d8e5a82	0.06950857
172	0xbd33f01e	-0.043930165
173	0xbba00a10	-0.004884012
174	0x3da3fcaf	0.0800718
175	0xbc9935d7	-0.01870243
176	0x3db4cb43	0.088278316
177	0x3ca012cc	0.019540213
178	0x3d1cbcf8	0.038266152
179	0x3de479af	0.11156022
180	0x3d2e8c7e	0.042614453
181	0x3dd82918	0.10554713
182	0xbdb02463	-0.0860069
183	0xbdb98474	-0.090584666
184	0x3e0ad8db	0.13559286
185	0xbd41b403	-0.047290813
186	0xbdd389ba	-0.10329004
187	0xbe29ac6b	-0.16569678
188	0x3e192bb5	0.14958079
189	0xbe16e894	-0.14737159
190	0xbd56ded8	-0.052458614
191	0x3d936b6f	0.07198226
192	0x3d7e9cf2	0.062161393
193	0xbd92bd94	-0.071650654
194	0x3d98c501	0.074594505
195	0x3dd7e0ac	0.105409
196	0x3b559b15	0.0032593657
197	0xbb82a56f	-0.0039870064
198	0x3d6d5774	0.05794473
199	0x3dc35bd5	0.09539
200	0xbdb45897	-0.0880596
201	0xbcf91f58	-0.030410454
202	0x3e1ba770	0.15200591
203	0x3dd8cd77	0.10586064
204	0xbd97b34f	-0.07407247
205	0x3d66d67e	0.0563569
206	0xbd87730c	-0.0661374
207	0x3e0f9806	0.14022836
208	0xbcff3a1e	-0.031155642
209	0xbdcda062	-0.10040356
210	0x3d3c6ae3	0.046000373
211	0xbd80fe79	-0.06298537
212	0xbd9f8f8c	-0.07791051
213	0xbe232670	-0.15932631
214	0x3dc49164	0.095980436
215	0x3e0dc64d	0.13845177
216	0xbc9a4e13	-0.018836057
217	0xbe26a857	-0.16275154
218	0x3dc3334c	0.095312685
219	0xbd96de32	-0.07366599
220	0xbe2ee08c	-0.17077845
221	0x3d695911	0.056969706
222	0xbd36b600	-0.044607162
223	0xbd9b6e92	-0.07589449
224	0x3d7e96a6	0.06215539
225	0xbd46b93f	-0.04851651
226	0xbd10101d	-0.035171617
227	0xbdd92537	-0.10602801
228	0x3cc6ccbe	0.02426755
229	0xbcd829d8	-0.02638714
230	0x3e3d8060	0.18506002
231	0xbc000faf	-0.007816239
232	0x3e26ebb1	0.16300847
233	0x3dddc72c	0.10829005
234	0x3d78934a	0.06068734
235	0x3c223d1e	0.009902267
236	0xbd789ac9	-0.06069449
237	0x3db9819e	0.09057926
238	0xbd895aca	-0.0670677
239	0x3d02f289	0.03196958
240	0xbcfc0fec	-0.03076931
241	0x3e218653	0.15773897
242	0x3cefe44e	0.029283669
243	0x3c4c84ad	0.012482804
244	0xbc0a69c0	-0.008448064
245	0x3e3574dc	0.1772036
246	0x3e1e9364	0.15485913
247	0x3d3bc17c	0.045838818
248	0x3d6df9d9	0.0580996
249	0x3d59062d	0.052984405
250	0x3dba39c9	0.09093053
251	0x3e23937f	0.15974234
252	0x3e080573	0.13283329
253	0x3d93f326	0.07224111
254	0x3e01a7bc	0.12661642
255	0xbd659a76	-0.05605551

gru.bias_ih_l0 f4 [96]
0	0x3e2cfcb7	0.16893278
1	0xbc68e324	-0.014214311
2	0x3dd8b9f1	0.105823405
3	0x3e248a80	0.16068459
4	0x3e2ef6b3	0.17086296
5	0x3e0b6bc0	0.13615322
6	0xbd5b45b2	-0.053533264
7	0x3e07c4af	0.13258623
8	0x3db7b76a	0.0897053
9	0x3dd7b39f	0.10532307
10	0xbca1e858	-0.01976411
11	0x3e4a72c5	0.19770344
12	0x3e3a510a	0.18194976
13	0xbd09fb1d	-0.033686746
14	0x3ddb579f	0.10710072
15	0x3e1e9dc0	0.15489864
16	0x3d2dfeab	0.0424792
17	0x3d6cd572	0.057820745
18	0x3c907a63	0.017636484
19	0xbbe24242	-0.006904871
20	0x3d98b8bb	0.074571095
21	0xbcd7e531	-0.026354404
22	0xbe189863	-0.14901881
23	0xbd8f2710	-0.069898725
24	0xbdf215c9	-0.118205614
25	0xbd8165d6	-0.06318252
26	0xbe289421	-0.16462757
27	0xbd2f9f65	-0.04287662
28	0xbdf030f3	-0.11728086
29	0x3e09958c	0.13435954
30	0x3e0a2ef8	0.1349448
31	0x3e00ed37	0.1259049
32	0xbd359e2c	-0.044340298
33	0xbddc8eff	-0.10769462
34	0x3da727bd	0.08161876
35	0x3e0b88b7	0.13626371
36	0x3db47a65	0.088124074
37	0x3da9f9c1	0.0829959
38	0xbd4c178a	-0.049827136
39	0x3d781045	0.06056239
40	0xbe16b3af	-0.14716981
41	0x3d9ef8e8	0.07762319
42	0x3d0f8457	0.03503832
43	0xbc88496e	-0.016636577
44	0x3d2d82ec	0.042361185
45	0x3d1bc77e	0.038032047
46	0x3c84d558	0.016215011
47	0xbe2bd8cc	-0.1678192
48	0x3e111607	0.14168559
49	0xbd460e6c	-0.048353598
50	0xbd8ddbb8	-0.06926674
51	0x3ddc9d17	0.1077215
52	0x3e3c8bff	0.1841278
53	0x3e203822	0.15646413
54	0xbca61637	-0.020274265
55	0xbe260752	-0.1621373
56	0x3e3f83b2	0.18702582
57	0xbe038ad2	-0.12845924
58	0xbe0547f9	-0.13015737
59	0x3e123637	0.14278494
60	0xbe0461a3	-0.1292787
61	0xbdb20424	-0.08692196
62	0x3d1f8c38	0.038952082
63	0x3dc4c323	0.09607532
64	0xbd4f7044	-0.050644174
65	0x3cd59400	0.026071548
66	0x3e205bba	0.15659991
67	0xbdf137d5	-0.11778227
68	0xbd9c2ebb	-0.07626101
69	0x3cf44717	0.029819055
70	0x3e2adff1	0.1668699
71	0x3da7e219	0.081974216
72	0x3e1d6c7f	0.15373419
73	0x3dc26c63	0.094933294
74	0xbc9b233e	-0.018937703
75	0xbe384946	-0.17996702
76	0xbce5216f	-0.027970044
77	0x3d5393ad	0.051654506
78	0xbd098c07	-0.033580806
79	0xbd9e5148	-0.07730347
80	0xbe12bf8b	-0.1433088
81	0x3c3b97d7	0.011449776
82	0x3e04ed79	0.12981214
83	0xbe1e8cdc	-0.15483421
84	0xbb8c26c7	-0.0042770836
85	0x3d11700e	0.035507254
86	0x3d82fe3c	0.063961476
87	0xbdc3a25f	-0.09552454
88	0x3d64bac2	0.05584217
89	0x3dfaf8b8	0.122544706
90	0x3e3f45f3	0.18679027
91	0x3dc62cc8	0.0967651
92	0xbd5ef9cf	-0.054437455
93	0xbab73dab	-0.001398017
94	0xbe0e48da	-0.13894978
95	0x3d47131c	0.04860221

gru.bias_hh_l0 f4 [96]
0	0x3cf7a9ac	0.030232273
1	0x3c7a73b2	0.015286373
2	0x3db564f4	0.08857146
3	0x3cd01784	0.025401838
4	0xbe0e1d4e	-0.13878366
5	0x3d955f15	0.07293526
6	0xbc873e38	-0.01650916
7	0x3dc9e167	0.09857445
8	0xbe1df734	-0.15426332
9	0xbcebd022	-0.028785769
10	0xbd0d1c2e	-0.034450702
11	0xbdca6c60	-0.09883952
12	0xbdc42b5f	-0.09578585
13	0xbe0e12ea	-0.13874403
14	0xbe2f2d9f	-0.17107247
15	0xbc1954ac	-0.009358566
16	0xbda62d4a	-0.08114107
17	0xbdb264a1	-0.087106
18	0xbdd5b0fb	-0.10434147
19	0xbc09be77	-0.008407227
20	0xbd1a3b5f	-0.037654277
21	0x3d560711	0.052252833
22	0xbdd22913	-0.102617405
23	0x3e16bc74	0.14720327
24	0x3d512185	0.051057357
25	0x3dee447b	0.11634155
26	0x3c93d50f	0.01804593
27	0xbd55837c	-0.052127346
28	0x3d310e16	0.043226324
29	0xbdc6f660	-0.09714961
30	0xbe228469	-0.15870823
31	0xbcd9fa0d	-0.026608491
32	0x3c6f26e7	0.014596677
33	0xbdd9dae1	-0.10637451
34	0x3d2d1763	0.04225863
35	0x3e268367	0.16261064
36	0xbd1d60fc	-0.03842257
37	0xbe0019bb	-0.12509815
38	0x3e003b00	0.12522507
39	0x3d447570	0.04796356
40	0x3df9d287	0.12198358
41	0xbd0283e6	-0.03186407
42	0x3dd50804	0.104019195
43	0x3d291cae	0.041287117
44	0xbcf226ca	-0.029559512
45	0x3d938a65	0.07204131
46	0xbd97d5b5	-0.07413808
47	0xbd07e31e	-0.03317558
48	0xbdb80b19	-0.08986492
49	0x3d9d0327	0.07666617
50	0xbe0cb709	-0.13741697
51	0xbba6b232	-0.0050871605
52	0xbdcc6438	-0.09980053
53	0xbdd22398	-0.10260695
54	0x3e26d3ee	0.16291782
55	0xbe05dd32	-0.1307266
56	0xbda3f8ee	-0.08006464
57	0x3d0e043a	0.034672
58	0xbdf1391d	-0.117784716
59	0xbda73407	-0.0816422
60	0xbe029e1f	-0.12755631
61	0xbdb6009c	-0.08886835
62	0xbcbc5fda	-0.022994924
63	0x3e24165a	0.16024151
64	0xbe0ee85c	-0.13955826
65	0x3d0c1a48	0.03420475
66	0x3cdd6b0e	0.027028587
67	0xbe346916	-0.17618212
68	0xbe1d5241	-0.15363409
69	0xbe357319	-0.17719688
70	0xbddc164b	-0.107464395
71	0xbd52bebe	-0.051451437
72	0x3dbf3581	0.09336377
73	0x3db427a4	0.08796623
74	0xbe2c3411	-0.16816737
75	0xbdbdbee5	-0.09264926
76	0xbd5a7248	-0.053331643
77	0xbdbd8578	-0.09253973
78	0x3dafb153	0.08578744
79	0xbe1fb077	-0.1559466
80	0x3d26498c	0.040597484
81	0xbdaa26c0	-0.08308172
82	0xbd036bea	-0.032085337
83	0xbe3a68ea	-0.18204084
84	0x3e2c610c	0.16833895
85	0xbe0716c5	-0.1319228
86	0xbe1c50de	-0.15265223
87	0x3e017823	0.12643485
88	0xbd320d93	-0.043469977
89	0x3e06990f	0.13144325
90	0x3dcadb08	0.09905058
91	0xbdb45a42	-0.08806278
92	0x3d95b7b2	0.07310428
93	0xbe0ba851	-0.13638426
94	0x3e1cf982	0.15329555
95	0x3cfc67a8	0.030811146

gru.weight_ih_l1 f4 [96, 32]
0	0x3df0206f	0.11724936
1	0xbde9dad5	-0.11418692
2	0xbe1f33fc	-0.15547174
3	0xbe071d4e	-0.13194773
4	0xbe0c2761	-0.13686897
5	0x3cf91ef5	0.03041027
6	0xbe11d938	-0.14243019
7	0xbda6942b	-0.081337295
8	0x3d905ba1	0.07048727
9	0x3d83b750	0.064314485
10	0x3d3a46e2	0.045477755
11	0x3df8ae54	0.121426255
12	0x3e1ba47d	0.15199466
13	0x3e2b3e2d	0.16722937
14	0xbe03d73e	-0.12875077
15	0xbe0a1dcb	-0.13487928
16	0xbc7265aa	-0.014794746
17	0x3e2460af	0.16052507
18	0xbd90f1fa	-0.07077403
19	0xbb05df86	-0.002042742
20	0x3e1a6c96	0.15080485
21	0xbd8231b0	-0.063571334
22	0x3e07eb8b	0.13273446
23	0x3d80a8fb	0.062822305
24	0xbd35883c	-0.044319376
25	0xbe0daf1e	-0.13836333
26	0xbddf3fd4	-0.10900846
27	0xbd844703	-0.06458857
28	0x3da8b914	0.08238426
29	0x3e32e630	0.17470622
30	0x3e174b0c	0.14774722
31	0x3c90ffe2	0.01770014
32	0x3e0f3069	0.13983311
33	0xbd95249c	-0.07282373
34	0xbda67ef0	-0.0812968
35	0x3e04b91d	0.1296124
36	0x3d8e2827	0.06941252
37	0x3d3d4bb8	0.04621479
38	0xbc26af02	-0.010173561
39	0xbe2615b7	-0.16219221
40	0xbc36e4f6	-0.011162987
41	0x3c17869d	0.009248403
42	0xbe1af10b	-0.15131013
43	0x3d29a0ff	0.041413303
44	0xbe0becb6	-0.13664517
45	0x3e109131	0.14117886
46	0xbd91f609	-0.071270056
47	0x3e0a9918	0.13534963
48	0x3d90d9f4	0.07072821
49	0xbe0f9b50	-0.14024091
50	0x3d964223	0.07336833
51	0x3ab4cdc0	0.0013794228
52	0xbe2b3174	-0.16718084
53	0x3e0290d8	0.12750566
54	0x3e09cebc	0.13457769
55	0xbdf8576d	-0.1212605
56	0x3d94ffc8	0.07275349
57	0x3cdb831b	0.026795914
58	0x3c8295bb	0.015940538
59	0x3e4733a7	0.19453298
60	0xbd96eeaa	-0.0736974
61	0x3ca0a8e5	0.019611785
62	0x3e339021	0.1753545
63	0xbdde57c0	-0.10856581
64	0xbd7e65e3	-0.062108885
65	0xbd4b4e13	-0.049635004
66	0x3e12510c	0.1428873
67	0xbdb54871	-0.08851708
68	0x3ceb5c2d	0.028730476
69	0xbdc0bbd4	-0.09410825
70	0xbda6d5d7	-0.081462555
71	0x3d9de504	0.07709697
72	0xbe1274b5	-0.14302333
73	0x3d939363	0.07205846
74	0xbc5f4dd8	-0.013629399
75	0x3e495eca	0.19665065
76	0x3e0b254e	0.1358845
77	0x3dafb197	0.085787944
78	0x3c547741	0.0129678855
79	0x3d4720d4	0.04861529
80	0x3e377441	0.17915441
81	0x3d95b82c	0.073105186
82	0xbe28918e	-0.16461775
83	0x3d2cfb06	0.042231582
84	0x3c3e65f5	0.011620988
85	0xbe0ce4dd	-0.1375918
86	0xbe027ed4	-0.12743694
87	0x3e05c7a0	0.13064432
88	0xbdc1ef06	-0.09469418
89	0xbd1331e5	-0.035936255
90	0x3d437d84	0.047727123
91	0x3d7c26ed	0.06156056
92	0x3e220b2e	0.15824577
93	0xbe012fef	-0.12615941
94	0x3db9cffb	0.09072872
95	0x3dc987c1	0.09840346
96	0x3d53b423	0.051685464
97	0xbe1e1d13	-0.15440778
98	0xbdad6017	-0.08465593
99	0x3d14a8fd	0.036293972
100	0x3d389621	0.04506505
101	0x3dd55818	0.10417193
102	0x3e03124a	0.12799945
103	0x3d96da3c	0.07365844
104	0xbd94d246	-0.07266669
105	0x3d8ea0c5	0.06964258
106	0x3b66d49b	0.0035221938
107	0x3e00eefe	0.12591168
108	0xbb560f83	-0.0032663054
109	0x3db06afa	0.08614154
110	0x3d7e118d	0.062028456
111	0xbd67d50b	-0.056599658
112	0x3b6058f2	0.0034232703
113	0x3d441115	0.047867853
114	0x3df40287	0.119145446
115	0x3e024a69	0.12723698
116	0xbe094741	-0.13406087
117	0x3dec77c4	0.11546281
118	0x3e0c0049	0.13671984
119	0xbd5c1f48	-0.05374077
120	0x3d3dbf06	0.046324752
121	0xbe2c9014	-0.16851836
122	0xbdcc9179	-0.09988684
123	0x3dfc9afd	0.12334249
124	0xbdc40cbb	-0.09572741
125	0x3e16bb6f	0.14719938
126	0x3c5f836b	0.013642172
127	0x3de59363	0.112097524
128	0x3d99fef8	0.075193346
129	0xbd15d8fc	-0.036583886
130	0xbb7f71b7	-0.0038977691
131	0xbcb259df	-0.02177137
132	0x3b48980e	0.003060821
133	0xbe0fd6ef	-0.14046834
134	0x3e24c6a9	0.16091408
135	0x3de77e79	0.113034196
136	0xbd6a5ac7	-0.05721548
137	0xbe27ba32	-0.16379622
138	0x3d890891	0.06691087
139	0xbcbe9ea4	-0.023269005
140	0xbd204787	-0.039130714
141	0x3dd2cded	0.102931835
142	0x3db9284c	0.09040889
143	0xbd4b0d62	-0.04957331
144	0x3db3e724	0.08784321
145	0xbe23fa49	-0.16013445
146	0xbc1de8a9	-0.00963799
147	0xbe2f2d8e	-0.17107221
148	0x3d4b96ee	0.049704485
149	0xbd0c90f9	-0.034317944
150	0x3d08b3bf	0.033374544
151	0xbd89fe9e	-0.067380175
152	0x3cd26249	0.025681632
153	0xbe1756b0	-0.14779162
154	0x3deaac35	0.11458627
155	0xbde9c187	-0.114138655
156	0xbe1aec12	-0.15129116
157	0x3c68f434	0.014218379
158	0xbda848b5	-0.08216993
159	0xbe0cd00f	-0.13751243
160	0x3d933a2f	0.07188832
161	0xbd3ebe98	-0.046568483
162	0xbe101553	-0.14070635
163	0xbe268b83	-0.16264157
164	0x3e262d0b	0.1622812
165	0xbd2a147e	-0.04152345
166	0xbe213b5e	-0.15745303
167	0x3e1290d0	0.14313054
168	0x3e11f0cc	0.14252013
169	0x3c850ddf	0.016241966
170	0xbe09ab8d	-0.13444348
171	0xbd870b18	-0.06593913
172	0x3e110eb0	0.14165759
173	0xbd936c1f	-0.07198357
174	0xbcd4a940	-0.025959611
175	0xbd710041	-0.058838133
176	0xbde5d0a5	-0.112214364
177	0xbe165bae	-0.1468341
178	0xbe08d2cf	-0.13361667
179	0xbd0b6ad8	-0.03403744
180	0xbe0367ec	-0.12832612
181	0x3e04c88b	0.12967126
182	0x3cb8be2c	0.022551619
183	0xbccbf533	-0.024897194
184	0xbd154249	-0.036440168
185	0x3db64056	0.0889899
186	0x3dbc0088	0.09179789
187	0xbd59bf64	-0.05316104
188	0xbd9bda82	-0.076100364
189	0x3c168415	0.009186764
190	0x3e1dca2c	0.15409154
191	0xbc4fd71f	-0.012685566
192	0x3e03cf1d	0.12871976
193	0x3d7e8edb	0.062147956
194	0xbdb2e204	-0.08734515
195	0xbe001408	-0.12507641
196	0xbe158f57	-0.14605461
197	0xbb15d62d	-0.0022863254
198	0xbdbeb4a3	-0.093117975
199	0x3d40dfc7	0.04708841
200	0xbdebe703	-0.11518671
201	0x3e37350c	0.1789133
202	0x3e0e56e2	0.1390033
203	0x3e2d9c24	0.16954094
204	0xbd12093b	-0.035653334
205	0xbdb1e3fb	-0.08686062
206	0x3d8b0a93	0.06789126
207	0x3d2b7eec	0.04186909
208	0x3dcc6867	0.09980851
209	0x3d3ac640	0.045599222
210	0x3d3df969	0.046380434
211	0x3db87d8b	0.090083204
212	0xbe120d40	-0.14262867
213	0xbd39ddba	-0.04537747
214	0x3d8da355	0.06915919
215	0xbc7dca98	-0.015490197
216	0xbdc50bdd	-0.09621403
217	0xbde12142	-0.109926715
218	0x3d736310	0.059420645
219	0xbd5377a2	-0.051627763
220	0x3d85bd89	0.065302916
221	0x3d30afd4	0.043136433
222	0x3e279062	0.16363671
223	0xbd556334	-0.05209656
224	0x3d406ce4	0.046978846
225	0xbddd28d3	-0.10798802
226	0x3e2a0812	0.16604641
227	0x3d47fa2b	0.048822563
228	0xbe106497	-0.14100872
229	0x3c5198ca	0.012792775
230	0xbcb78f06	-0.022407066
231	0x3e30aba1	0.17252971
232	0xbd9b7b6c	-0.075919
233	0xbd5b33ed	-0.053516317
234	0x3d90c027	0.070679
235	0x3ca2eca9	0.019888239
236	0xbe00cf96	-0.12579188
237	0xbcab5bf4	-0.02091787
238	0x3da204e6	0.079110906
239	0xbd9f0170	-0.07763946
240	0xbd5cc897	-0.053902235
241	0x3e006b16	0.1254085
242	0xbd8eb27b	-0.06967636
243	0xbdb96d8a	-0.09054096
244	0xbe134687	-0.14382373
245	0xbd3f47e0	-0.046699405
246	0xbdbdf918	-0.092760265
247	0xbdbd2d66	-0.09237175
248	0x3dddf15d	0.10837052
249	0x3cd92f85	0.026511917
250	0xbd8356d5	-0.06413046
251	0xbdd51e82	-0.104062095
252	0xbe13e5ac	-0.14443082
253	0xbe11a533	-0.14223175
254	0xbda31f4e	-0.07964955
255	0x3d94e3c2	0.07270004

gru.weight_hh_l1 f4 [96, 32]
0	0x3c4fd598	0.012685202
1	0x3d26e97a	0.040750004
2	0xbde0b7f2	-0.10972585
3	0x3e1bbaf5	0.15208037
4	0x3be7406a	0.0070572393
5	0x3dc0e951	0.094195016
6	0x3e1e16ed	0.15438433
7	0xbe1df0e8	-0.1542393
8	0xbdab6e4d	-0.083706476
9	0x3e33801d	0.1752934
10	0x3c34bb09	0.011030921
11	0xbd423c6e	-0.04742091
12	0x3e01a56e	0.12660763
13	0x3d2a97f9	0.04164884
14	0x3c23484f	0.00996597
15	0x3e2c447d	0.16823001
16	0xbb8b9f9f	-0.0042609717
17	0xbbdb0f8b	-0.0066852025
18	0x3e395c17	0.18101536
19	0x3dcd6143	0.10028317
20	0xbe0c7880	-0.13717842
21	0xbe110c2c	-0.141648
22	0x3e445464	0.19172817
23	0x3e37c076	0.17944512
24	0x3dccbd69	0.099970646
25	0xbdc29461	-0.09500957
26	0xbdb3423c	-0.087528676
27	0x3d2d595e	0.042321555
28	0x3cc068e6	0.02348752
29	0xbda397c8	-0.07987934
30	0x3e2377c3	0.15963654
31	0x3d3d4d78	0.046216458
32	0xbda03cbb	-0.078240834
33	0xbdb86779	-0.09004111
34	0x3d9102ad	0.070805885
35	0xbcabfcc3	-0.02099455
36	0xbe061012	-0.13092068
37	0x3e33a056	0.17541632
38	0x3dfc09d2	0.123065606
39	0xbe01d5b9	-0.12679185
40	0x3d8edca4	0.069756776
41	0x3d47fb5d	0.048823703
42	0x3df945ac	0.12171492
43	0x3bb6736f	0.00556796
44	0xbce37873	-0.027767396
45	0x3e182496	0.14857706
46	0x3d5a17de	0.053245418
47	0x3e01b25a	0.12665692
48	0x3e32e470	0.17469954
49	0x3db43c79	0.08800597
50	0xbe11e2d3	-0.14246683
51	0x3dc90714	0.09815803
52	0xbde46b03	-0.11153223
53	0xbdee8281	-0.116459854
54	0x3d47eac8	0.04880789
55	0xbdf45532	-0.11930312
56	0xbe1ed592	-0.15511158
57	0x3d22c902	0.039742477
58	0xbd4b346d	-0.049610544
59	0xbe2d3f16	-0.16918597
60	0x3dceae2d	0.10091815
61	0x3e0745a8	0.13210166
62	0x3e0d77e9	0.13815273
63	0xbd997a4f	-0.07494032
64	0x3da1bb2e	0.0789703
65	0x3d6ce9e8	0.057840258
66	0x3d6a53ef	0.05720895
67	0xbe1e0fd1	-0.15435721
68	0xbd2fa90f	-0.042885836
69	0x3c86d682	0.016459707
70	0x3daa4f62	0.08315922
71	0xbc37c19e	-0.0112155955
72	0x3e098cf0	0.1343267
73	0x3d7b4b0c	0.061350867
74	0xbe16e601	-0.14736177
75	0x3da2b685	0.07944969
76	0x3d5b1d73	0.05349488
77	0xbe125972	-0.14291933
78	0xbd181cbc	-0.03713678
79	0x3c4c2f92	0.0124625135
80	0xbd3425c9	-0.043981347
81	0xbe233f52	-0.15942124
82	0xbdef102d	-0.11673007
83	0xbcc3ae34	-0.023886777
84	0x3dd0a911	0.10188497
85	0x3c803d89	0.015654342
86	0x3d98f28c	0.07468137
87	0xbe107592	-0.1410735
88	0x3cb21213	0.021737134
89	0xbdf996ab	-0.12186941
90	0x3d1c4b19	0.038157556
91	0xbe2f05cd	-0.17092057
92	0x3d340426	0.04394927
93	0x3c92c299	0.017915057
94	0x3d88dfaf	0.06683289
95	0x3d183e60	0.03716886
96	0xbba4d8ff	-0.0050307508
97	0xbb5e41e6	-0.003391379
98	0xbd36acb4	-0.044598296
99	0xbd2d2dca	-0.042279996
100	0xbd685b66	-0.05672779
101	0xbcdbce36	-0.026831727
102	0xbdae6319	-0.08514995
103	0x3db5852d	0.08863292
104	0xbdc3eb26	-0.095663354
105	0x3dffbdce	0.12487374
106	0xbe27e518	-0.16395986
107	0x3cddab49	0.027059214
108	0x3d97e596	0.07416837
109	0xbe2005e2	-0.15627244
110	0xbd6b8be1	-0.057506446
111	0x3e0103f1	0.1259916
112	0xbd91ff04	-0.071287185
113	0xbc1affbe	-0.009460388
114	0xbe0ee6e0	-0.1395526
115	0xbd4426d4	-0.047888592
116	0x3db4ab96	0.0882179
117	0x3dfae82f	0.12251317
118	0xbd94151d	-0.072305895
119	0x3d86709c	0.06564447
120	0xbe0a1f05	-0.13488396
121	0xbe0cea30	-0.1376121
122	0xbdd817be	-0.105514035
123	0xbd896876	-0.067093775
124	0x3ca1f75f	0.019771276
125	0xbd7d925d	-0.06190716
126	0x3e1b30e2	0.15155366
127	0x3d161db8	0.036649436
128	0xbe0bfc29	-0.1367041
129	0xbe3cfc3a	-0.18455592
130	0xbcf620a4	-0.030044861
131	0xbe008352	-0.12550095
132	0xbd1484d2	-0.03625948
133	0x3c8ea1ed	0.017411197
134	0x3dc54693	0.096326016
135	0xbe2899ef	-0.16464971
136	0x3c1e98c1	0.009679974
137	0xbc786b54	-0.015162308
138	0x3e393552	0.18086746
139	0xbe0a669d	-0.13515706
140	0xbe0120fe	-0.12610242
141	0xbdc8ef48	-0.09811264
142	0x3d35695f	0.044289943
143	0xbdd7af49	-0.1053148
144	0x3dd1c36a	0.102423504
145	0x3e21133d	0.15729995
146	0x3e0ba2f6	0.13636383
147	0x3cf592c6	0.029977214
148	0x3df1398c	0.11778554
149	0xbd787db5	-0.06066676
150	0xbdb4c5c7	-0.088267855
151	0xba9cb4c7	-0.0011955731
152	0xbd579be0	-0.05263889
153	0x3d136cba	0.03599236
154	0x3dd80d6d	0.10549436
155	0x3defbdb0	0.11706102
156	0x3e1a2cde	0.15056178
157	0xbd8596f4	-0.06522933
158	0x3e2abfc7	0.1667472
159	0xbdb47e5b	-0.08813163
160	0x3da9fc49	0.08300073
161	0xbdec88e7	-0.115495495
162	0xbd2b7f92	-0.041869707
163	0x3d683242	0.056688555
164	0x3deb0cda	0.114770606
165	0xbd7a5aba	-0.06112168
166	0x3e08e710	0.13369393
167	0x3dd854ff	0.10563087
168	0xbd3a82f0	-0.045535028
169	0xbd5932c7	-0.05302694
170	0x3dae5998	0.085131824
171	0xbe32c70f	-0.17458747
172	0x3be25d85	0.006908121
173	0xbc660a1a	-0.014040494
174	0xbde8394e	-0.11339055
175	0x3dad8bb9	0.084739156
176	0xbd9c3c4f	-0.076286905
177	0x3e315545	0.17317684
178	0x3c0e9bdf	0.008704155
179	0xbdd740af	-0.10510384
180	0xbcebb44a	-0.028772492
181	0xbc3f4d98	-0.011676215
182	0x3da62855	0.081131615
183	0x3c20c7aa	0.009813229
184	0x3daff2cd	0.085912324
185	0xbe093df0	-0.13402534
186	0xbcf9c9cc	-0.030491732
187	0x3d89081a	0.066909984
188	0xbe006588	-0.12538731
189	0x3dcda4c3	0.100411914
190	0x3d7daa04	0.061929718
191	0xbe380aae	-0.17972824
192	0xbdbcae73	-0.09212961
193	0x3c4aeb64	0.012385223
194	0x3d670142	0.056397684
195	0x3d658819	0.056037996
196	0x3c59318b	0.013256441
197	0x3de91202	0.11380388
198	0xbe002f5a	-0.12518063
199	0xbdd46f90	-0.10372841
200	0x3b15195c	0.002275071
201	0xbe29a465	-0.16566618
202	0xbe298c76	-0.16557488
203	0x3d8d3a36	0.068958685
204	0xbd6ccae0	-0.057810664
205	0x3d7a8430	0.06116122
206	0x3dcd19f7	0.10014718
207	0x3e0725f2	0.13198069
208	0xbdf51ea0	-0.11968732
209	0xbda750a9	-0.081696816
210	0x3e09c2aa	0.13453165
211	0xbe1b6eb0	-0.15178943
212	0x3ca71b91	0.020398887
213	0xbe3580c1	-0.17724897
214	0x3d1f9434	0.038959697
215	0xbe3f8722	-0.18703893
216	0x3d3e211c	0.046418294
217	0x3d8ca57d	0.06867502
218	0x3d96e30e	0.07367526
219	0xbe4c9b3a	-0.19981089
220	0x3cdd7294	0.027032174
221	0xbe2789b3	-0.16361122
222	0x3e3c2aee	0.18375751
223	0x3d396a4a	0.04526738
224	0x3e077d78	0.13231456
225	0x3e426cba	0.18986788
226	0x3e236f7b	0.15960495
227	0xbd580a18	-0.052744
228	0xbdb30dde	-0.08742879
229	0xbe256806	-0.16152963
230	0x3df0d329	0.117590256
231	0xbe25629d	-0.16150899
232	0xbdac2921	-0.08406282
233	0x3dc339d6	0.09532516
234	0xbe047f2f	-0.12939142
235	0xbe1c3d57	-0.15257774
236	0xbd9a7efe	-0.07543753
237	0x3e0a249c	0.13490528
238	0x3dafa3e6	0.08576183
239	0xbd1073a9	-0.035266552
240	0x3e0baef3	0.13640957
241	0xbc521a03	-0.0128235845
242	0x3e2f25aa	0.17104211
243	0x3de63429	0.112404175
244	0xbdf09b09	-0.117483206
245	0xbe1dff5f	-0.15429448
246	0x3d48e063	0.049042117
247	0xbd7f15ef	-0.062276777
248	0xbbf5b227	-0.007498044
249	0xbd635039	-0.05549643
250	0xbe13c1ee	-0.14429447
251	0x3e397567	0.18111192
252	0x3d7dd1ee	0.061967783
253	0x3e307f44	0.17236048
254	0x3dcffee7	0.10156041
255	0xbd086b09	-0.0333052

gru.bias_ih_l1 f4 [96]
0	0xbdea9014	-0.11453262
1	0x3d7abc3c	0.06121467
2	0xbdc9fa46	-0.09862189
3	0x3c6d6660	0.01448974
4	0xbe0821c0	-0.13294125
5	0xbe10c91c	-0.14139217
6	0x3dfb2b37	0.12264102
7	0x3d186748	0.03720787
8	0xbc24c2af	-0.010056182
9	0x3e03c3a8	0.12867606
10	0xbe204c15	-0.15654023
11	0xbd89ef7c	-0.06735131
12	0x3e37df31	0.17956235
13	0xbdc6ac40	-0.09700823
14	0xbe241132	-0.16022184
15	0x3d5362bd	0.051607836
16	0x3d8f4b1e	0.06996749
17	0x3e0993d3	0.13435297
18	0xbcfccdcb	-0.030859848
19	0x3e17bf8a	0.1481916
20	0xbdc47a04	-0.09593585
21	0x3e377bd8	0.17918336
22	0xbd2e0bd9	-0.042491768
23	0xbdc3ba97	-0.095570736
24	0x3bdf6368	0.00681727
25	0xbe0e5e50	-0.13903165
26	0x3d603e31	0.05474681
27	0x3e230072	0.15918139
28	0xbdf8846e	-0.12134634
29	0xbe2f4aeb	-0.17118423
30	0x39ed3a14	0.00045247434
31	0x3df0253e	0.117258534
32	0x3d8bc3e4	0.068244725
33	0xbda42021	-0.080139406
34	0x3d32fcf7	0.043698277
35	0x3c42f20c	0.011898529
36	0xbd00ab9d	-0.031413663
37	0x3dfc0f2a	0.1230758
38	0xbe174bef	-0.1477506
39	0x3e033154	0.12811786
40	0xbe027601	-0.12740327
41	0xbe00c8a7	-0.12576543
42	0xbca19787	-0.019725574
43	0xbd3b5c71	-0.045742456
44	0xbe1620d3	-0.14660959
45	0x3de96d38	0.11397785
46	0xbcd852da	-0.026406694
47	0x3dd6c1b3	0.10486164
48	0xbda30653	-0.079601906
49	0x3deaacd7	0.11458748
50	0x3e31d8a8	0.17367804
51	0xbdfe0bd9	-0.124046035
52	0x3d8c58f2	0.068529025
53	0x3d3477fa	0.04405973
54	0xbc1cf667	-0.009580231
55	0xbe0df030	-0.13861156
56	0x3cf40316	0.029786628
57	0xbdeb522c	-0.114902824
58	0x3e296cdb	0.16545431
59	0xbdabdd10	-0.08391774
60	0x3d1da176	0.03848406
61	0xbdfe60a6	-0.12420778
62	0x3e1e4ae7	0.1545826
63	0x3d82f134	0.06393662
64	0x3a20c812	0.00061333284
65	0x3c8afe70	0.016967028
66	0xbd91c6bb	-0.07117983
67	0xbd3ab49f	-0.04558241
68	0x3e28283f	0.16421603
69	0xbd854836	-0.06507914
70	0xbd5961b9	-0.05307171
71	0xbdda3f39	-0.1065659
72	0xbdb4b98f	-0.08824455
73	0x3d77720f	0.06041151
74	0x3dc364b8	0.09540695
75	0x3d36b0a4	0.04460205
76	0x3e21875f	0.15774296
77	0x3e06cc8f	0.1316397
78	0xbd87cc33	-0.06630745
79	0x3e1f1b07	0.15537654
80	0xbda9bd0d	-0.08288012
81	0x3e2d1cb3	0.16905479
82	0xbc042792	-0.008066075
83	0xbe1f032d	-0.15528555
84	0xbe238b09	-0.15971006
85	0xbd08450e	-0.03326898
86	0x3e06fd89	0.13182653
87	0x3e25f79f	0.16207741
88	0x3dc9a965	0.098467626
89	0x3aa644d5	0.0012685308
90	0xbe0d8078	-0.13818538
91	0xbdf8c268	-0.12146455
92	0x3dfbcb07	0.12294584
93	0xbdaf3c1b	-0.08556386
94	0xbd4fc4b2	-0.050724693
95	0xbda7a098	-0.08184928

gru.bias_hh_l1 f4 [96]
0	0xbe13bf2d	-0.14428397
1	0x3cacb3ca	0.021081824
2	0x3e3867e2	0.18008378
3	0x3dd044c8	0.10169369
4	0x3e1df700	0.15426254
5	0xbe197030	-0.14984202
6	0xbdf642c5	-0.12024454
7	0x3d470655	0.048590023
8	0x3d70ba56	0.058771454
9	0xbc4f81c7	-0.012665219
10	0x3dd8685d	0.10566781
11	0x3e06277a	0.13100997
12	0x3d493e63	0.049131762
13	0xbd47f91f	-0.048821565
14	0x3d33f23b	0.04393218
15	0x3e0870d0	0.13324285
16	0xbde364d3	-0.11103215
17	0xbe0d9703	-0.13827138
18	0x3e2605d9	0.16213168
19	0x3dd16641	0.102245815
20	0xbbfc7bcb	-0.007705187
21	0x3be25a5f	0.0069077457
22	0xbbb91cb6	-0.0056491746
23	0xbda4c034	-0.08044472
24	0x3e1b2538	0.15150917
25	0x3e39942e	0.18122932
26	0xbe14e072	-0.14538744
27	0x3dfc67b0	0.12324464
28	0xbe1124b8	-0.14174163
29	0xbdfe84fc	-0.124277085
30	0x3cc73229	0.02431591
31	0xbbc28b79	-0.0059370366
32	0x3dd66609	0.104686804
33	0xbdee5bda	-0.11638613
34	0x3d54924d	0.051897336
35	0xbdd8a781	-0.10578824
36	0x3cc8f3cb	0.024530312
37	0xbd4b8c19	-0.049694154
38	0xbe027e03	-0.12743382
39	0xbcbc1941	-0.02296126
40	0xbc80fb0f	-0.015744714
41	0xbe29a8f9	-0.16568364
42	0xbd74adf8	-0.059736222
43	0x3e225782	0.15853694
44	0xbd6391ed	-0.055559088
45	0x3cd813aa	0.026376564
46	0x3dc8f2bd	0.09811924
47	0x3dc0293f	0.09382867
48	0x3dba7f14	0.091062695
49	0xbe2f20af	-0.17102312
50	0xbd1771e2	-0.03697384
51	0x3de6633c	0.11249396
52	0x3de86d0d	0.11348925
53	0x3e153149	0.14569582
54	0xbd4de465	-0.050266642
55	0xbe275916	-0.16342577
56	0xbcfc092b	-0.03076609
57	0x3dc1265b	0.09431144
58	0xbdd93378	-0.1060552
59	0x3d8f4b15	0.06996743
60	0x3d63953b	0.05556224
61	0xbdd0c48d	-0.10193739
62	0x3dc0b279	0.09409041
63	0x3e24c2ee	0.16089985
64	0x3dcf57f3	0.10124197
65	0x3d8ee87a	0.06977935
66	0xbd6cdb4b	-0.05782632
67	0x3cce5ad1	0.025189789
68	0xbd3ffefc	-0.04687403
69	0x3e224f06	0.15850458
70	0xbdd00254	-0.10156694
71	0x3e0a39f3	0.13498668
72	0xbe149716	-0.1451076
73	0x3d002029	0.03128067
74	0x3dc45ed4	0.095883995
75	0xbd70a8c6	-0.058754705
76	0x3da69199	0.08133239
77	0x3d29dcfd	0.041470516
78	0x3d85c16f	0.06531035
79	0x3d9c8a42	0.07643558
80	0xbd54d69e	-0.051962487
81	0xbe059777	-0.1304606
82	0xbbdd5941	-0.0067550247
83	0x3dcd59cd	0.10026894
84	0xbe14543c	-0.14485258
85	0x3e19ef5f	0.15032719
86	0xbdf6da5f	-0.1205337
87	0xbc75bcb4	-0.014998604
88	0xbdc60486	-0.096688315
89	0x3d72e434	0.059299663
90	0xbe2c2f67	-0.16814958
91	0xbd963b09	-0.07335479
92	0x3e43a9b4	0.19107705
93	0x3ddcd419	0.10782642
94	0x3d487220	0.048936963
95	0xbe35f0cc	-0.17767638

fc1.weight f4 [64, 128]
0	0xbe0372e7	-0.128368
1	0x3d00f568	0.031484038
2	0xbe5b2cd6	-0.21403822
3	0xbd4e4499	-0.05035839
4	0xbbcd979f	-0.006274178
5	0xbddcc5ab	-0.1077989
6	0x3db0ab63	0.086264394
7	0xbe207355	-0.15668996
8	0xbd3473a1	-0.044055585
9	0x3dfb66a0	0.122754335
10	0x3e697ff3	0.22802715
11	0xbd7b723d	-0.061388243
12	0x3e28ff33	0.16503601
13	0x3e52e976	0.20596871
14	0xbe5189d8	-0.2046274
15	0xbe6a00ec	-0.22851914
16	0x3e33cf84	0.1755963
17	0xbda39d61	-0.07989002
18	0xbe4bbdca	-0.19896618
19	0xbd202ae1	-0.039103393
20	0xbe288a4a	-0.16459003
21	0x3db0f482	0.08640386
22	0x3df0b867	0.11753922
23	0x3d5c3f1a	0.053771116
24	0xbded99ee	-0.116016254
25	0x3c53920a	0.012913236
26	0x3dde355a	0.1085002
27	0x3cbc1199	0.02295761
28	0x3e3631f5	0.17792495
29	0x3e192987	0.14957248
30	0x3e0b0c53	0.1357892
31	0xbc658821	-0.014009506
32	0x3e4b729d	0.1986794
33	0x3df4fca3	0.11962249
34	0xbd510a1e	-0.05103504
35	0x3e0191c7	0.12653266
36	0x3e0c02fb	0.13673012
37	0xbe20f6e7	-0.15719186
38	0x3e34413a	0.17603007
39	0xbc5a5f40	-0.013328373
40	0x3d5e0003	0.05419923
41	0x3d016c86	0.031597637
42	0xbd1f9130	-0.03895682
43	0xbdc1f46c	-0.09470448
44	0xbdc102a5	-0.094243325
45	0xbc67ecf2	-0.014155613
46	0x3df85cb2	0.12127055
47	0x3e14c26b	0.1452729
48	0x3dc92988	0.098223746
49	0xbd731bc8	-0.059352666
50	0x3ce26776	0.027637225
51	0xbe49012d	-0.19629355
52	0xbe39d0c1	-0.1814604
53	0xbe4d7215	-0.2006305
54	0x3e239bd5	0.15977414
55	0xbd84dcbb	-0.064874135
56	0x3d348a8b	0.044077437
57	0xbe34bce7	-0.17650186
58	0x3becdba8	0.0072283335
59	0xbe119851	-0.1421826
60	0x3e308a14	0.17240173
61	0x3de95ce4	0.113946706
62	0xbe49d271	-0.19709183
63	0x3c8cdc54	0.017194904
64	0xbe2a8259	-0.16651286
65	0xbe587113	-0.21136884
66	0x3e39a81a	0.18130532
67	0xbe2de5fd	-0.16982265
68	0x3d2fcd9f	0.042920705
69	0xbde69e0c	-0.11260614
70	0xbe3e91fc	-0.18610376
71	0xbda06543	-0.07831814
72	0x3e1506f9	0.14553441
73	0xbc1e8e20	-0.00967744
74	0xbdf20751	-0.11817802
75	0x3e0be91a	0.1366314
76	0xbda3613b	-0.079775296
77	0x3e4ec722	0.2019315
78	0x3e603d33	0.21898346
79	0x3d837a0f	0.06419765
80	0xbe432fd8	-0.1906122
81	0x3dfa0ca6	0.12209444
82	0x3dd5c8c4	0.10438684
83	0x3da25e98	0.079281986
84	0xbb79ce52	-0.0038117361
85	0xbd88e82a	-0.06684907
86	0xbe18d85d	-0.14926286
87	0xbe4a8ea7	-0.1978098
88	0x3e269e2b	0.16271274
89	0x3e42b5e2	0.19014695
90	0xbe1b13bc	-0.15144247
91	0x3ddc37bb	0.10752817
92	0x3e3e01e2	0.18555406
93	0x3e5a9b64	0.2134834
94	0x3de24775	0.110487856
95	0x3d96caee	0.073629245
96	0x3e0f3b3b	0.13987438
97	0x3d2e5400	0.042560577
98	0xbe7050e2	-0.23468354
99	0xbdd60f3f	-0.10452127
100	0xbe0c249b	-0.13685839
101	0x3c377e48	0.011199541
102	0xbdeddbe7	-0.11614209
103	0x3de3d678	0.11124891
104	0xbddeed42	-0.10885097
105	0xbcd41b4e	-0.025891926
106	0xbe1a32db	-0.15058462
107	0x3e0b3bb3	0.13596992
108	0x3e2fa8bf	0.17154215
109	0xbd63623b	-0.0555136
110	0xbdbc6279	-0.0919847
111	0x3c7539c4	0.014967386
112	0x3e2c65b4	0.16835672
113	0x3ddbb379	0.10727591
114	0xbe435ebe	-0.1907911
115	0x3e12e553	0.14345293
116	0x3d99e87c	0.07515046
117	0xbd8664e0	-0.06562209
118	0x3d8aede8	0.06783658
119	0x3e13d685	0.14437301
120	0xbd847edd	-0.0646951
121	0xbd478ca2	-0.048718102
122	0xbcd42e81	-0.025901081
123	0x3e508870	0.20364547
124	0x3dd8f55b	0.10593673
125	0x3db8ba7b	0.09019943
126	0xbe48cb9a	-0.19608918
127	0x3c199c2a	0.009375611
128	0x3de14a91	0.110005505
129	0xbd9e5829	-0.07731659
130	0x3bde644b	0.006786858
131	0x3dfae6a6	0.12251024
132	0xbdecd0d3	-0.115632676
133	0x3e017747	0.12643157
134	0x3cdbe3ad	0.026841963
135	0xbdb9c054	-0.09069887
136	0xbe0a3320	-0.13496065
137	0xbe4f074a	-0.20217624
138	0x3d2eb2f5	0.042651135
139	0x3de217ad	0.11039672
140	0xbc4ffc7e	-0.012694476
141	0x3d7e9c89	0.062161002
142	0x3dc0b8cb	0.094102465
143	0x3e37a72c	0.17934865
144	0x3d83a804	0.06428531
145	0xbe68fdcd	-0.22753067
146	0xbc9cdbaf	-0.019147722
147	0xbdba22e8	-0.09088689
148	0x3e24acb0	0.160815
149	0x3dc87602	0.09788133
150	0xbdd5d72c	-0.104414314
151	0xbe449fb9	-0.19201554
152	0xbdc14321	-0.09436632
153	0x3d4fcce3	0.050732505
154	0xbd837e14	-0.06420532
155	0xbca9a8b8	-0.020710334
156	0x3e4e8e3b	0.20171444
157	0xbe2562e2	-0.16151002
158	0x3e020d11	0.12700297
159	0xbe0136d3	-0.1261857
160	0xbdcf26ca	-0.1011482
161	0x3d7a124d	0.06105261
162	0xbd5f139c	-0.05446206
163	0xbe5ce67b	-0.21572296
164	0x3de0cb81	0.10976315
165	0x3cbe03c2	0.023195151
166	0xbd257973	-0.040399026
167	0x3e667653	0.22506075
168	0xbe5671c9	-0.20941843
169	0x3d0d929e	0.034563653
170	0xbb10e3db	-0.0022108469
171	0x3c1943ec	0.009354573
172	0x3d856aa5	0.065144815
173	0xbe5d05e6	-0.21584281
174	0xbe3d7709	-0.1850244
175	0xbd943589	-0.072367735
176	0x3e1f0e1d	0.15532728
177	0x3e3b8e5e	0.18316028
178	0xbdc035e3	-0.09385278
179	0xbdf41992	-0.1191894
180	0x3daa6170	0.08319366
181	0x3ce03544	0.027369149
182	0xbe4f0a5f	-0.202188
183	0x3d87b65d	0.0662658
184	0x3da41f58	0.08013791
185	0xbe52917d	-0.20563312
186	0x3d7ca8c0	0.06168437
187	0x3e43660b	0.19081895
188	0x3cc68228	0.024231985
189	0xbe6815e9	-0.22664608
190	0xbd702a76	-0.058634244
191	0xbe1aebde	-0.15129039
192	0xbdc7c952	-0.09755196
193	0x3e3c2832	0.18374708
194	0xbe325e83	-0.17418866
195	0xbd9c405a	-0.076294616
196	0x3e50a30a	0.20374694
197	0x3c5564d9	0.013024532
198	0x3e578d62	0.21050027
199	0x3e0ed8fa	0.13949957
200	0xbdb5f171	-0.08883942
201	0x3d051a12	0.032495566
202	0x3e467ece	0.1938431
203	0xbe34b919	-0.17648734
204	0xbe005523	-0.12532477
205	0xbd51e21f	-0.051241037
206	0xbe336ae8	-0.1752125
207	0xbddcc753	-0.107802056
208	0xbd9078d6	-0.070542976
209	0x3e622b22	0.22086766
210	0x3d305f3b	0.04305957
211	0xbe370558	-0.17873132
212	0xbdc7ecc4	-0.09761956
213	0x3e291224	0.16510826
214	0xbc0f3a6a	-0.008741954
215	0xbcdd0859	-0.02698152
216	0xbe45e78e	-0.19326612
217	0xbe2b835c	-0.16749328
218	0xbe1ae617	-0.15126835
219	0xbe48970b	-0.19588868
220	0xbe496ccc	-0.19670409
221	0xbe314d65	-0.1731468
222	0x3db7cf0d	0.08975039
223	0x3db39bc2	0.08769943
224	0x3d41340c	0.047168776
225	0x3e0d1090	0.1377585
226	0x3e63dd86	0.22252473
227	0xbddb4d2b	-0.10708078
228	0x3e3fdf47	0.18737517
229	0xbe3abdf0	-0.18236518
230	0x3d722821	0.0591203
231	0x3e460d25	0.19340952
232	0xbde5c13c	-0.11218497
233	0xbd628c43	-0.055309545
234	0x3cf97e30	0.030455679
235	0x3d2439c2	0.040094145
236	0xbe22e4d2	-0.159076
237	0xbd19effc	-0.037582383
238	0xbdb50749	-0.0883928
239	0x3dd1374c	0.10215625
240	0x3abb8fda	0.0014309839
241	0xbbdc1d88	-0.0067173876
242	0x3d2f78ee	0.042839937
243	0x3dc6d16a	0.09707911
244	0xbe1132e1	-0.14179565
245	0xbe1dcefc	-0.1541099
246	0x3e58e5f9	0.21181478
247	0x3e0ec190	0.13941026
248	0x3cd595ea	0.026072461
249	0xbd63d5a2	-0.055623658
250	0x3e050b4b	0.12992589
251	0x3d895fd5	0.06707732
252	0xbdbdf4e6	-0.09275226
253	0x3e32ce4e	0.17461511
254	0xbcedcdae	-0.02902874
255	0x3e07b028	0.13250792

fc1.bias f4 [64]
0	0xb9b09860	-0.00033682864
1	0xbc638dbd	-0.0138887735
2	0xbcc272f4	-0.023736455
3	0xbaa338d6	-0.0012452852
4	0xbc4d8f4e	-0.0125463735
5	0xbaa352be	-0.0012460572
6	0x3cb4f6bf	0.022090314
7	0xbbd93b9b	-0.00662942
8	0xbc68dca7	-0.014212764
9	0x3c5b0072	0.013366805
10	0x3a638e4f	0.00086805684
11	0xba69292c	-0.000889438
12	0x3b3a4fe8	0.0028428975
13	0xbbfd3d73	-0.0077282726
14	0xbcbb0c8c	-0.022833131
15	0xbc4da56d	-0.012551648
16	0xbc239f69	-0.009986737
17	0xbb56917a	-0.003274052
18	0x3c10e9fe	0.008844851
19	0xbc812480	-0.015764475
20	0x3bf02da1	0.007329658
21	0xbc46331a	-0.0120971445
22	0xbc3abc2f	-0.0113974055
23	0x3ca1d3ae	0.019754257
24	0xbc57e5f4	-0.013177384
25	0xbc52128a	-0.012821803
26	0x38b13bbe	8.4511455e-05
27	0xba960fa8	-0.0011448758
28	0xbc759db2	-0.014991211
29	0x3b417c74	0.0029523643
30	0x3c200f89	0.009769329
31	0x3c052079	0.008125418
32	0xbb1ad672	-0.0023626355
33	0xbc85279a	-0.016254235
34	0x3c83922f	0.016060917
35	0xbc2f99eb	-0.010717849
36	0xbc50641f	-0.012719183
37	0x3bc52227	0.006016034
38	0xbc85ac63	-0.016317552
39	0x39be416e	0.00036288373
40	0xbca8ce4f	-0.020606188
41	0x3c1150e0	0.00886938
42	0xbcbe8afe	-0.023259636
43	0xbc35da3d	-0.011099395
44	0xbcc1632c	-0.02360686
45	0x3bf631d7	0.0075132656
46	0x3c204c51	0.00978382
47	0x3b81b50e	0.003958351
48	0xbba6c8fa	-0.0050898762
49	0xbc2a61bc	-0.010399278
50	0xbc867300	-0.016412258
51	0xbcb225e7	-0.021746589
52	0xb9ba397b	-0.0003551951
53	0x3b88cf3b	0.0041750944
54	0x3c3fcfac	0.011707228
55	0x3b44f068	0.003005052
56	0xbba8057a	-0.005127606
57	0x3c099604	0.008397583
58	0xbc21e5df	-0.009881466
59	0x3c6897ef	0.01419638
60	0xbc7ffb3f	-0.015623867
61	0xbc4d0495	-0.0125132995
62	0x3c74de15	0.014945527
63	0xbcca779d	-0.02471524
