Project testing/world_model.pth (torch, 972613 bytes, 36 tensors)

gru.weight_ih_l0 f4 [192, 325]
000000 12 2f 00 be 8b 85 bd bd 1b 6f b0 bd d4 14 7e 3d
       -0.12517956 -0.09253987 -0.08614942 0.062031582
000010 45 92 a8 bd af 2c ce bd 75 8c ba 3b 4e a0 80 3c
       -0.08231024 -0.100671165 0.0056930133 0.01570144
000020 0a 90 a7 bd ce 00 7d 3d 59 bf 12 3d a8 d3 2e 3c
       -0.0818177 0.061768346 0.035827015 0.01067058
000030 92 02 e4 3d e6 26 9f 3d 80 fa 88 3d 31 e7 db 3d
       0.11133303 0.07771091 0.06688404 0.10737456
000040 1c 2f 84 bd 57 a3 bf 3d bd 74 1a bc 13 a6 42 bd
       -0.06454298 0.093573265 -0.009427247 -0.047521662
000050 89 0e ad bb 58 34 df 3d 3d b3 34 bd 17 c3 84 bd
       -0.0052812737 0.10898656 -0.044116247 -0.06482523
000060 dc 09 14 3d 59 14 45 bd cd a1 b6 bc 63 17 dd 3d
       0.036142215 -0.04811511 -0.02229395 0.10795476
000070 a9 01 8b bd 7d a0 33 bd 25 2c 5c 3d 86 c0 6e 3d
       -0.06787426 -0.043854225 0.053753037 0.058289073
000080 a3 da e9 bd 5d 8b cf 3d 4d 2f 8d bc 1f 03 1b bd
       -0.11418655 0.10134003 -0.017234469 -0.037844773
000090 d9 e7 1b bc bb a3 f2 3d 93 34 5a bc ea 2a 07 3d
       -0.009515726 0.11847635 -0.013318199 0.03299991
0000a0 e2 55 a3 3d 17 60 31 bc a2 62 e7 3d 5c b9 f0 3d
       0.07975365 -0.010826132 0.112981096 0.117541045
0000b0 9c 8c 5f bd fa 27 8d bd c4 e6 c3 bd 51 a4 71 bd
       -0.054577455 -0.068923905 -0.095654994 -0.058994595
0000c0 9e 76 e1 bd c6 f1 6e 3d 0c 91 d0 bd 97 a7 5b bd
       -0.110089526 0.058336042 -0.101839155 -0.053626623
0000d0 7f 16 b4 3d 10 b1 63 3d 95 79 8e bc cc 82 a1 bd
       0.08793353 0.05558878 -0.01739196 -0.07886276
0000e0 fe 19 75 3d 34 54 4c bd a6 1a c6 bd 2a b7 f0 bd
       0.05983924 -0.04988499 -0.096730515 -0.11753686
0000f0 83 28 e3 bd 1c 9d 9b bd 50 52 e3 bd c2 b7 2f bc
       -0.11091711 -0.075983256 -0.11099684 -0.010724964
000100 6b ba f1 bd 18 3a 7d 3b 9e 1c 3b 3d d0 3b 8a bc
       -0.118031345 0.0038639363 0.04568159 -0.016874224
000110 ad 5d e6 bc b0 a5 1c 3d 47 e0 14 3d 50 0b 80 3d
       -0.02812084 0.03824395 0.0363467 0.06252158
000120 e1 c5 47 3d 62 8c bd ba 8d fd 0e bd da 10 2e 3c
       0.048772696 -0.0014461393 -0.034909774 0.010624135
000130 23 f9 b8 bd 58 76 d1 3c 8c 6b 77 3d ac be 9b 3c
       -0.09031894 0.025569126 0.0604053 0.019011818
000140 ca 25 d4 3d 6b 79 de 3d e8 33 80 bc 7f 0a bb 3d
       0.1035877 0.108630024 -0.01564975 0.09132861
000150 82 9a f9 3d 53 6e 2e 3c ed 8d 2b bc 06 aa e9 3d
       0.12187673 0.0106464205 -0.010470849 0.114093825
000160 9f 58 4c bd 57 7e 80 bb 59 40 02 3e bb c4 95 3d
       -0.049889203 -0.003921311 0.12719859 0.07312914
000170 2a 56 7a bd 39 91 bc 3d a8 a8 aa 3d 5d a3 eb 3d
       -0.06111733 0.092073865 0.0833295 0.115057684
000180 3c 73 88 3c 03 8c a1 bd 1d ee f0 3d 33 e1 b2 bc
       0.01665651 -0.07888033 0.117641665 -0.021835899
000190 f0 0b 91 3a 12 c3 7a bc 59 9d d7 bd c9 cc cc 3d
       0.001106618 -0.015305297 -0.105280586 0.09999997
0001a0 fc 01 a3 3d 32 18 85 3d 98 ec 81 3d 6e d1 0d 3d
       0.07959363 0.064987555 0.06343955 0.034623556
0001b0 65 46 c0 3d 9c 36 b4 3c 21 f9 64 bc d7 94 2a bd
       0.09388427 0.021998696 -0.013975413 -0.04164585
0001c0 be 69 34 bd e1 1a 30 3b 6d d9 97 3d fd 7e 29 bd
       -0.044046156 0.002687149 0.074145176 -0.04138087
0001d0 10 42 ce 3c da a3 8d bd b9 56 dc bd 0d 41 53 3c
       0.025177985 -0.06916018 -0.107587285 0.012893927
0001e0 7e 28 4a 3d 24 7d d3 bd 67 0e 3b 3c bf 6e dc 3d
       0.049355023 -0.10326603 0.011417008 0.10763311
0001f0 97 a3 48 bd b0 16 3e 3d e6 85 ab bd 4b e0 46 3d
       -0.048984136 0.046408355 -0.083751485 0.048553746
000200 88 90 64 3d 2f a6 a4 bd 46 5f 17 bd 90 f3 cb 3d
       0.0558019 -0.080395095 -0.036956094 0.09958565
000210 83 17 da 39 31 7f 94 3d 14 73 9f bd de b2 94 3d
       0.00041597718 0.07250822 -0.07785621 0.07260679
000220 25 43 bb 3d eb fc e8 3c 19 22 2b 3d 0d 67 e3 3d
       0.09143666 0.028440913 0.041780565 0.1110364
000230 5f 6a 02 3d b1 f7 1d 3b fc 1b 4a 3d 29 0f 9b 3d
       0.031839725 0.0024103934 0.049343094 0.07571251
000240 ac c6 c2 3d cf 17 e1 bd 8b 41 c2 3d 9a f5 8b 3d
       0.0951055 -0.10990869 0.094851576 0.06833954
000250 1a ca da 3d 8e 33 ae 3d 95 53 ec bb ea 2d 89 bd
       0.10683079 0.08505927 -0.007212112 -0.066982105
000260 be 9b 81 3c f7 a3 be bd a5 bb c5 bc 78 be e0 bd
       0.015821334 -0.093086176 -0.024137327 -0.10973829
000270 4f 35 a4 bd f9 15 b9 bd 06 e3 54 3d 00 9e fa bd
       -0.0801798 -0.09037394 0.05197432 -0.12237167
000280 9e 78 d1 3c 78 0f f4 bd cb 8a e4 3d b7 ee cb bd
       0.02557021 -0.11917013 0.11159285 -0.099576406
000290 92 c4 50 3d 81 d3 14 bd 6e d5 92 3c 70 51 a5 3b
       0.050968714 -0.03633452 0.017924037 0.0050451085
0002a0 63 c3 29 3c e9 43 6b 3d c9 62 e7 3d 85 81 50 3c
       0.010361525 0.05743781 0.11298139 0.012726192
0002b0 40 cb 0a 3d 14 66 01 bc 4d 0c a2 bb 28 9d 4f bd
       0.03388524 -0.0078978725 -0.004945314 -0.050686985
0002c0 a6 ab 9d 3d b7 93 27 3d cf 44 3e bd 37 fe 6d 3c
       0.07698755 0.040912356 -0.04645234 0.014525942
0002d0 77 d5 df 3d 85 2a 0a bc fd d6 6c bd 20 81 96 bd
       0.10929387 -0.008432989 -0.057822216 -0.073488474
0002e0 fc 68 a1 bd fe 14 0a bd 08 d3 df 3c fb b8 d6 3d
       -0.07881352 -0.033711426 0.027322307 0.10484501
0002f0 85 25 97 bd 50 7a d8 bd 92 5d b6 3d 7f d7 39 bd
       -0.07380203 -0.10570204 0.08904566 -0.04537153
000300 24 9f 54 bd 82 a1 ab ba 07 44 ce 3d c2 4d 81 3d
       -0.05190958 -0.0013094398 0.10071569 0.06313659
000310 c4 42 8b 3d 80 79 de bd ee 98 c0 bd 76 8d c9 bb
       0.06799844 -0.10863018 -0.09404169 -0.0061508967
000320 56 cd c6 3d e0 6d e3 bd 2b e9 ac bd e2 ef c0 bd
       0.097071335 -0.11104941 -0.08442911 -0.09420754
000330 0c bc 7e 3d 38 a7 8f 3d 4b 95 b4 bd b2 b3 87 bd
       0.062191054 0.07014316 -0.08817538 -0.06626071
000340 f2 0b 63 3d 5f a9 48 3d cf 8a 08 3d a7 e7 23 bc
       0.055431314 0.04898965 0.033335503 -0.010003961
000350 4d ae f6 3d c5 6a b2 bc 99 b4 20 3d a0 58 5f bd
       0.12044964 -0.021779427 0.03923473 -0.05452788
000360 f6 2a fc bd 57 8d ba 3d dd ac d9 3d a8 39 06 3c
       -0.12312882 0.0910899 0.10628674 0.008192457
000370 b6 72 fc 3c d6 9d e5 bd a8 cb 70 3c ab 15 d7 3c
       0.030816417 -0.112117454 0.014696993 0.02625545
000380 06 21 07 bb 66 55 f8 3c f8 d4 fe 3d 2e f4 13 bd
       -0.0020619049 0.030314159 0.12442964 -0.03612154
000390 d6 53 b5 3d a5 02 d1 3d 35 4a 04 3d 24 16 06 bd
       0.08853881 0.102055825 0.03229733 -0.03273596
0003a0 ee a9 fb bd 80 3f 0f 3d 87 43 d8 bd 30 92 9e bd
       -0.12288271 0.034972668 -0.10559755 -0.07742727
0003b0 a1 12 a3 3d 18 a4 a1 3d 6f 8a 88 bd 3e d9 db bd
       0.079625376 0.078926265 -0.06667029 -0.10734795
0003c0 8c 51 0b 3c 3a bc ef 3d 51 5a f3 3d db 06 94 3d
       0.008503329 0.11705823 0.11882461 0.0722787
0003d0 43 36 89 bd 45 c6 95 bd 72 0a 88 bd ae 86 ad bc
       -0.06699803 -0.073132075 -0.06642617 -0.021182384
0003e0 fc b7 db bd dc 30 97 bd 71 3b f4 bc b8 f5 86 bd
       -0.107284516 -0.07382366 -0.0298135 -0.06589836
0003f0 86 08 97 3d a3 cd 4e 3d 1e 9a e4 bd 47 da 6a bd
       0.073746726 0.05048908 -0.11162208 -0.05733707

gru.weight_hh_l0 f4 [192, 64]
000000 a9 fb 0c bd ee 2a 82 bc a9 0d 98 bd b3 0e 78 3c
       -0.03441969 -0.015889611 -0.074244805 0.015140223
000010 a9 3b 24 3d eb 49 7d bc 8b da 9c bd 9d f1 bb 3d
       0.04009596 -0.015459518 -0.07658871 0.091769435
000020 cd 07 84 bd 29 c8 8d 3d 3c 3a 83 bb c7 3a c3 bd
       -0.064468004 0.06922943 -0.004004745 -0.09532695
000030 96 20 9f bd a9 4f bd 3c 30 c1 ac bc 48 e7 07 3c
       -0.07769887 0.023109274 -0.021088213 0.008294888
000040 01 49 fa bd 12 24 92 3c 4a 7b 14 3d 32 6b 62 3d
       -0.12220956 0.017839465 0.03625039 0.05527801
000050 ba e7 b7 bc e4 24 f5 bc 59 11 fe 3d 6b 1c f7 3d
       -0.022449363 -0.029924817 0.124056526 0.12065967
000060 81 9a 8d bd be e6 81 bd b4 1e 7b bd 60 c4 ec 3d
       -0.06914235 -0.06342839 -0.061308578 0.11560893
000070 43 0d 5d bd 9b 89 90 3b 23 4b 92 3d 32 35 cf bb
       -0.053967725 0.004410935 0.071432374 -0.00632348
000080 9f 81 ad bd 24 f8 af 3d 5e c4 0b bd 20 62 cc bd
       -0.08471989 0.08592251 -0.034122817 -0.09979653
000090 63 88 d2 3d c0 d8 e5 bd bf 36 10 3d 59 2c 14 bd
       0.1027992 -0.112229824 0.03520846 -0.036175106
0000a0 a3 f9 19 3d f9 2d 43 3d 9c d3 44 3d 6e cb b4 bd
       0.037591588 0.047651265 0.04805337 -0.08827864
0000b0 ad cf 15 3c 4d c1 ab 3c a2 a5 c5 bd 4b 47 54 3d
       0.009143752 0.020966196 -0.096507326 0.051825803
0000c0 14 ca 0d bd 62 0d 81 bd c4 c6 ed 3c c5 83 c8 bd
       -0.034616545 -0.06301381 0.029025443 -0.09790758
0000d0 20 7e 63 bd e1 3d e9 bd b6 e4 c1 3d 17 84 07 3d
       -0.055540204 -0.113887556 0.09467451 0.033084955
0000e0 96 44 b2 bd 8f d5 58 3c 63 eb 6b 3c 7f d7 98 bd
       -0.08704488 0.01323451 0.014399382 -0.074629776
0000f0 e4 e1 d3 3c 2e 33 c9 bd 5f 0b 5d 3d 18 cd 52 bd
       0.025864549 -0.09824215 0.053965922 -0.051465124
000100 27 33 6d 3c 2e 91 0d 3e dd 4f dc 3d 7d 44 0a bd
       0.014477528 0.13824913 0.1075742 -0.03375672
000110 44 ca 31 3d d0 d9 f0 bd 60 c7 2f 3d 35 e6 a4 3d
       0.043405786 -0.117602944 0.04291475 0.08051721
000120 67 67 81 3d 10 da f3 3d 6d 3e 93 bd a8 f2 b5 3d
       0.063185506 0.119068265 -0.07189641 0.08884174
000130 f0 56 97 bd 67 fb d2 bd ef db 0e bd dc f1 55 bc
       -0.07389629 -0.103018574 -0.034877714 -0.013058152
000140 23 b4 af 3d 7f ad 9b bd 93 9b 7b bd bd 9b c8 3d
       0.0857928 -0.07601451 -0.061427664 0.0979533
000150 21 d2 b5 3c 2b b8 ba bb 3b cb 82 bd ed 58 ec bb
       0.022194924 -0.005698224 -0.063864194 -0.007212749
000160 61 4c 91 bd 93 b5 a3 3c 35 6c fd 3d ee cf 99 bd
       -0.07094646 0.019984042 0.123741545 -0.075103626
000170 94 76 b4 3d 8f ac 88 3d 90 76 c5 3c 40 56 6e bd
       0.088116795 0.06673538 0.024104387 -0.058187723
000180 29 5d f9 3d eb b3 89 3d 2a 72 ee bc f1 68 91 3d
       0.12175972 0.0672377 -0.029107172 0.07100094
000190 aa 82 bf bd bd 99 9a bd 89 74 ba 3d 22 24 99 3d
       -0.09351094 -0.075488545 0.091042586 0.07477595
0001a0 7c 3a 9b bc 92 e8 05 bd 16 68 9f bd 07 fe a1 bc
       -0.018948786 -0.0326925 -0.07783525 -0.01977445
0001b0 95 0c d6 bd 9c 5a 66 3d ae 4f a2 3d 71 82 db b9
       -0.104516186 0.056238756 0.07925354 -0.00041868121
0001c0 2d 11 28 bd 45 11 5a 3d c4 78 4b bd c6 0e 69 bd
       -0.041032005 0.053239126 -0.049675718 -0.056898855
0001d0 a5 4a fa bd ae 26 8d 3d ee 9c d3 bd 13 cd e5 bd
       -0.122212686 0.06892143 -0.10332666 -0.112207554
0001e0 05 48 e3 bd 4a bd 79 3d 84 75 1a 3b 67 9e ac bd
       -0.11097721 0.060971536 0.002356858 -0.0842865
0001f0 99 c3 f6 bd e0 7e ca bd c8 dc 86 3b 8e db 9a 3d
       -0.12049026 -0.09887481 0.0041156746 0.07561408
000200 0d 65 8b 3d 55 36 c7 3d 43 c9 02 bd b1 40 54 3d
       0.06806383 0.0972716 -0.03193022 0.051819507
000210 f1 d2 30 bc 1a 07 59 3d 11 7a 89 bc 9a 7f e7 bd
       -0.01079248 0.05298529 -0.016781839 -0.11303635
000220 3c 10 91 bd 3c aa 8d bd 40 ad 04 be b1 91 92 3c
       -0.070831746 -0.06917235 -0.12956715 0.017891737
000230 09 bc 41 bd 3b 49 df 3d 8b 7d 87 3d ab 81 2c bd
       -0.047298465 0.109026395 0.06615742 -0.04211585
000240 15 3e 95 3d b4 01 43 bc d4 75 a3 bd c2 71 9a bd
       0.07287232 -0.0119022615 -0.07981458 -0.07541229
000250 95 7c 02 3d 90 b3 a5 3d dd e2 ab 3d d0 c2 b5 3d
       0.031857092 0.080908895 0.0839288 0.08875048
000260 38 1b 0f bd 2b 04 e5 bd 37 36 d4 3c 34 a1 5f 3d
       -0.034938067 -0.111824356 0.025904758 0.054597095
000270 12 1a 9f bd 8f 1a 6f bd 05 aa d8 3c 76 f2 e0 3c
       -0.077686444 -0.058374938 0.02644826 0.027459364
000280 a0 9b 85 3d 26 b0 bd bd e2 0c e4 bc 5e 45 71 bd
       0.06523824 -0.09262113 -0.027838174 -0.058904044
000290 20 c4 b9 3c 8d 8c 84 bb 7b 3e a8 3c 6c 25 bd 3c
       0.022676528 -0.0040450753 0.020537606 0.023089133
0002a0 5f 5f a1 bd 48 58 e9 3d 1a 96 ff 3d 05 f7 bd 3d
       -0.07879519 0.113937914 0.124798015 0.09275631
0002b0 82 6a 79 3d 56 af b5 bc 48 70 34 bd 0e 1e 1d bd
       0.06089259 -0.022178333 -0.044052392 -0.03835874
0002c0 84 e5 8c 3d b5 9d 8a ba b0 1d e7 bd a0 cc 08 3c
       0.06879714 -0.0010575565 -0.11284959 0.008349568
0002d0 cd b3 c1 3d c6 53 b3 bc 5f f6 22 3c 76 c6 26 3d
       0.094581224 -0.021890532 0.009946435 0.04071661
0002e0 4a 41 f6 3d 7d 4f 75 3c b8 24 b6 bc 07 3d 98 bd
       0.12024172 0.014972565 -0.022234306 -0.07433515
0002f0 84 a2 f8 3b cb 9b 5e 3d 05 a8 e3 3d 78 72 4c bc
       0.0075877327 0.054347795 0.111160316 -0.012478463
000300 69 5b f5 bd 48 eb e1 bd 03 63 5b bd 5f 3e 80 3d
       -0.11980326 -0.110312045 -0.05356122 0.06261896
000310 45 eb 1a bd d8 37 d1 3d d7 c5 ae 3d 70 7d 6a 3d
       -0.037822027 0.102157295 0.08533829 0.057248533
000320 45 87 1c bd 8f 6e d5 bc c2 8e b4 bd 6b d6 07 3e
       -0.03821494 -0.026053695 -0.088162914 0.13265388
000330 77 6d b6 3d 2c 0e a5 3d 1b d4 37 bd 1e 8a d4 bd
       0.089075975 0.08059344 -0.044880014 -0.10377906
000340 00 d7 8c 3d 8e 48 4f 3c b4 c7 83 bd 9c aa 4d bd
       0.068769455 0.012651576 -0.06434575 -0.050211534
000350 6b d9 98 3c 6b 67 0e bc b2 5e d7 bd 5c 10 5a 3d
       0.01865836 -0.008691649 -0.105161086 0.053238258
000360 a1 29 b0 3d 36 13 a2 b9 25 2f ce bc d9 ff 81 bd
       0.0860169 -0.0003091336 -0.025168965 -0.06347627
000370 73 da 50 3c da cb 35 bd 6b 93 29 3d 34 d4 a3 bd
       0.012747395 -0.04438386 0.041400354 -0.07999459
000380 8e 6b 43 3d 01 00 31 bd 6f 74 7c bd 5e 63 ef bc
       0.047709994 -0.043212894 -0.061634477 -0.029222187
000390 8b be ef bc 86 96 d4 3d ab 73 ba 3c b3 3e 09 3b
       -0.029265663 0.103802726 0.022760233 0.0020941913
0003a0 d3 40 37 bd d8 4d da bd 17 46 bc bd 99 fc b6 3c
       -0.044739556 -0.10659379 -0.09193056 0.022337245
0003b0 c2 b4 12 bd f4 5c 69 bd cb 3e a4 bd 91 e1 5d 3d
       -0.035816915 -0.056973413 -0.08019789 0.054170195
0003c0 ac 30 f5 3d fb db 82 3d 27 5f b3 3d ea 17 ad bc
       0.11972174 0.06389614 0.08758383 -0.021129567
0003d0 7a 77 7f 3d c5 52 38 bd 23 85 f3 3d 4c 9b e2 bd
       0.0623698 -0.04500081 0.11890628 -0.11064777
0003e0 79 56 e6 bd ae 08 6f 3d 72 cb 03 3e 17 67 ba bd
       -0.11246962 0.058357887 0.12870577 -0.09101694
0003f0 c3 e1 14 bd f0 6c ed 3d df 9c da 3c fc 2e 79 3d
       -0.036348116 0.11593044 0.02668613 0.060835823

gru.bias_ih_l0 f4 [192]
000000 78 6b 04 3d 37 bd 2a 3d 46 77 d7 3d 12 df c1 3c
       0.032329053 0.041684356 0.105207965 0.023665939
000010 05 61 2a 3d 4d 8d 7c 3d 1a 00 48 bd f4 82 9a bd
       0.04159643 0.061658192 -0.04882822 -0.075445086
000020 b5 4e 36 3d 88 00 b7 bd ad 4c b4 bc fe 22 77 bd
       0.044508655 -0.08935648 -0.022009218 -0.060336106
000030 a7 99 ee bc fa f2 16 3d b3 dd af bd 4e ba b6 3c
       -0.029126002 0.036852814 -0.08587208 0.022305634
000040 98 1c 0a 3e 6b e1 c6 bc 87 d2 11 bd f7 1d 26 3d
       0.1348747 -0.02427741 -0.035601165 0.04055592
000050 1d d4 19 3d 7b 52 b2 bd 7c ef 8d 3d b7 51 a4 bc
       0.037555803 -0.08707138 0.06930444 -0.020058496
000060 3c 19 9c 3d b1 e3 a9 bd ba ba e7 3d 83 7a 9b bd
       0.076220006 -0.08295382 0.11314912 -0.07591727
000070 fe e1 52 3d 67 55 ef bc b9 5a 55 bd 05 96 98 3c
       0.051485054 -0.029215528 -0.052088473 0.018626222
000080 d2 c0 ef bc c8 5b ac 3d 74 c4 90 bd 3e 84 08 bc
       -0.029266749 0.084159434 -0.070687205 -0.00833231
000090 37 01 98 bd 7a 68 8b 3d 41 58 52 bd d1 b7 df 3d
       -0.07422107 0.06807037 -0.051353697 0.10923732
0000a0 91 f3 35 3c c6 3d 87 3d 16 f4 ec 3d 2f 47 fe bd
       0.011105434 0.06603579 0.11569993 -0.12415921
0000b0 44 ad b4 bc 06 eb 85 3c 45 77 53 3d c1 93 ca 3d
       -0.022055276 0.01634742 0.051627416 0.09891463
0000c0 5d 12 42 bd c0 21 47 b9 e4 df 6e 3d 85 47 9a bd
       -0.047380794 -0.00018990692 0.058318987 -0.075331725
0000d0 de ba ee bd 16 76 43 3a f8 d8 b8 3d 14 30 f3 bd
       -0.11656736 0.0007456256 0.090257585 -0.118744045
0000e0 f6 00 cb 3d ae 08 ac 3d dc e2 ee 3c e5 11 9d 3c
       0.09912293 0.08400093 0.02916091 0.019173572
0000f0 22 2f 9f 3d f7 96 d3 3d 37 99 d9 bc e9 90 d9 3d
       0.07772662 0.10331529 -0.026562316 0.106233425
000100 c0 9c 1b bd b2 cf bc 3b 75 53 d1 bd 46 0c 2e 3b
       -0.037991285 0.005762064 -0.10220996 0.0026557609
000110 17 a9 0c bc 67 fc e8 bd 6b 40 85 bd e3 2a 8f 3d
       -0.008585236 -0.11376267 -0.065064274 0.06990602
000120 1e 6e 19 bb f8 2d af bd 45 da e8 bb 2f 75 ae bd
       -0.0023411582 -0.0855369 -0.007106098 -0.08518445
000130 0d c8 8d bd d0 96 f3 bd cb 5a 6d 3d 0b 41 b9 3b
       -0.06922922 -0.118939996 0.057947915 0.0056535057
000140 44 44 e3 bc 61 4a b3 bd b3 9b dd bc 74 e0 18 bd
       -0.027742513 -0.08754421 -0.027051782 -0.03732343
000150 29 37 dc 3c 9e 0d b4 3d a3 77 92 bc 24 ce dd bb
       0.026881771 0.0879166 -0.017879313 -0.0067689586
000160 0c 31 26 bd 44 9b 26 bd 76 64 72 3c 94 83 a9 bd
       -0.04057412 -0.040675417 0.01479446 -0.0827705
000170 bd 4f 80 3c 2a 7a 02 3d 69 91 f0 3d de 4e a0 3d
       0.015663022 0.031854786 0.11746485 0.07827543
000180 a7 8e 88 bc 8b 58 0c 3d 04 1b d3 bd 12 25 5b 3c
       -0.016669584 0.03426413 -0.10307887 0.0133755375
000190 56 bc 7b 3c e5 fa b8 3d 62 85 4a 3d 13 db d6 3d
       0.015364727 0.09032229 0.04944361 0.10491004
0001a0 60 98 a1 3d 52 56 d8 bd 3d 63 36 bc 44 24 47 bd
       0.07890391 -0.10563339 -0.011132059 -0.04861857
0001b0 c7 8d 50 3d f7 f0 ec 3d 69 28 98 3d 14 03 18 3c
       0.05091646 0.11569398 0.074295826 0.009278078
0001c0 31 ec 25 3d 2c 26 b5 3d db 73 f5 bd c3 f2 6a bc
       0.040508453 0.08845171 -0.11984988 -0.0143401055
0001d0 66 d6 37 bd f0 73 7f 3c 04 4b 3e 3d 38 e5 b2 bd
       -0.0448822 0.0155916065 0.04645826 -0.08735126
0001e0 fc 85 89 3d 47 4a 2b bd 13 cf 61 bd 64 40 ef 3d
       0.067150086 -0.041818883 -0.055129122 0.116822034
0001f0 90 2d a3 bd d9 24 01 bd 2f 6e 92 3d b6 7d c1 bd
       -0.07967675 -0.03152928 0.07149922 -0.094478056
000200 02 a7 bc bd bd d1 d9 3d 27 47 e3 bd d2 dc 46 bc
       -0.09211542 0.106357075 -0.110975556 -0.012137609
000210 20 2d 76 3c 61 a6 8b 3d d5 34 ce bd 66 85 ca 3d
       0.015025407 0.06818844 -0.10068671 0.09888725
000220 48 94 c8 bd 85 89 f9 bd 4f c6 84 3c 52 a6 f4 3d
       -0.097939074 -0.12184433 0.016207842 0.119457856
000230 c6 40 c4 3d a5 98 c8 bd 25 68 42 3d e7 91 df bd
       0.09582667 -0.0979474 0.0474626 -0.109165005
000240 32 89 91 bd 0e d0 02 be 71 ce d6 3c 59 47 ce 3d
       -0.07106246 -0.12774679 0.026221486 0.10072202
000250 ea 60 eb bc 78 76 73 bd df aa 5f bd 11 90 a8 3d
       -0.028732736 -0.059439152 -0.054606315 0.082306035
000260 72 29 e4 3d 87 d1 d9 3d ae 7d bf 3c 9b f4 4d 3d
       0.111407176 0.10635667 0.023375358 0.050282102
000270 da d8 ea 3d 5c 7f 30 bd 98 2d 0e bd a0 6b f3 bb
       0.114671424 -0.04309021 -0.03471145 -0.0074286014
000280 4f 8f 83 3d 4e 2a 6b bc 32 11 d4 bd 67 4f b4 3c
       0.06423818 -0.014353348 -0.10354842 0.022010518
000290 61 a0 a7 3c 3e 90 f2 bc cb 6b 80 bd f4 59 73 bd
       0.020462217 -0.029609796 -0.0627056 -0.059411958
0002a0 96 7c d8 bc af fb 2c 3c b3 f7 87 bd 60 c3 22 3b
       -0.026426595 0.010558053 -0.06639042 0.002483569
0002b0 e4 2a 02 3c 8d 38 b9 3d ec 8c c0 bd 4d 5d 2b 3d
       0.007944796 0.09043989 -0.09401879 0.041837025
0002c0 55 95 f9 3c fd 20 ed bd 48 e7 b4 bd 56 b0 26 3c
       0.030466715 -0.11578558 -0.08833176 0.010173878
0002d0 f0 78 68 3b 4d b2 ff bd c5 b8 2d bc d9 6d 11 bd
       0.0035472475 -0.1248518 -0.0106031345 -0.03550515
0002e0 e8 f7 58 bd f5 db fe bd 34 54 e7 bd 8a 19 57 3d
       -0.052970797 -0.12444297 -0.11295357 0.05251459
0002f0 78 9f 85 bd b8 66 90 bd 39 c3 dc 3d 1e 39 b2 bd
       -0.06524557 -0.07050842 0.10779423 -0.087023005

gru.bias_hh_l0 f4 [192]
000000 52 11 fb 3c 97 9f 74 bd 44 31 f8 3d f3 64 b6 bd
       0.030647907 -0.05972251 0.12118772 -0.08905973
000010 44 ce cd 3d 93 71 ac 3d 01 f1 f0 bd 4b fb e9 3a
       0.10049108 0.084201 -0.11764718 0.001785138
000020 90 a2 a3 3d 59 dc e0 bd f7 7e e2 bd 00 f5 b9 3c
       0.07989991 -0.10979528 -0.11059373 0.022699833
000030 22 d1 8e 3c af 65 ae 3d 6d 33 fd 3d 67 10 af 3d
       0.017433707 0.08515488 0.12363324 0.085480504
000040 c5 85 c3 bd 5a 9f 43 3d c5 fb 51 bd fb 62 aa bc
       -0.09546999 0.04775939 -0.051265497 -0.02079915
000050 bc b5 b7 bd b2 77 c3 3c 00 06 b4 3d c1 a4 c7 bd
       -0.0897021 0.023860786 0.08790207 -0.09748221
000060 a0 9c c0 3c dd f5 a9 bc 41 a7 ca bd 69 10 0c bd
       0.023512185 -0.02074712 -0.098951824 -0.034195337
000070 35 5c 03 bd 0d 42 a1 3d f3 d2 26 bd 53 2b 91 bd
       -0.032070357 0.07873926 -0.04072852 -0.070883416
000080 5c 7e 5b 3d 12 b8 83 3d 0b 04 6b 3b f6 dc 98 bd
       0.053587303 0.06431593 0.0035860564 -0.0746402
000090 2b fa 69 bd 92 69 eb bd 59 de e3 3c 7e cf 5b bc
       -0.057123344 -0.11494745 0.027815985 -0.013416169
0000a0 cb a8 4d 3d c7 57 0b bd f2 2b 24 3d 5a b5 f6 3d
       0.0502098 -0.034019258 0.040080972 0.12046309
0000b0 a7 9f 90 3d 70 be a5 bc 40 30 e0 bd 13 74 4e bd
       0.07061701 -0.02023241 -0.10946703 -0.050403666
0000c0 da 24 d0 bc 8d 69 a6 bd ea ba fc 3c 6f 42 66 3d
       -0.025408197 -0.08125601 0.030850846 0.0562157
0000d0 a8 3f 73 bd 6d 5c 41 3d 84 21 7c bd 58 22 57 3d
       -0.05938688 0.047207285 -0.0615554 0.052522987
0000e0 20 d2 ae 3d 99 6b 38 bd e5 13 b4 3c 91 52 e1 bd
       0.08536172 -0.045024488 0.021982143 -0.110020764
0000f0 e0 36 d1 bd 00 8d e4 3a b7 2d b9 3d 82 50 ff 3d
       -0.10215545 0.0017437041 0.090419225 0.124665275
000100 6e c3 a6 3c 5b 4e a1 3d ab e7 84 3d 8e 4e a5 bd
       0.02035686 0.07876273 0.064895 -0.08071624
000110 62 7e e1 bd e4 34 dd bd 09 20 4f 3d 09 15 81 3c
       -0.11010434 -0.10801104 0.05056766 0.0157571
000120 64 32 76 3d 52 6c 99 3d c2 1f 93 bd d2 3e dd bd
       0.06010665 0.074913636 -0.07183792 -0.10802998
000130 06 b7 ff bd 4b cc 27 3c e4 ca af 3c 33 9f 3c 3c
       -0.12486081 0.010241578 0.02145905 0.011512565
000140 a3 51 d7 bd b3 1a a0 3d 55 0d 20 bd 4d 04 50 3d
       -0.10513618 0.078175925 -0.039075214 0.05078535
000150 0d 76 8d 3d bd 88 84 3c 52 03 83 3d bf 33 2d 3c
       0.06907282 0.016178483 0.06397118 0.010571419
000160 06 db 33 bd 54 38 59 bd c5 6e ad 3d 73 f6 de 3d
       -0.04391005 -0.053032234 0.08468393 0.1088685
000170 e7 ed 85 3d 99 12 95 3d 01 d1 e1 3d 87 f9 c3 bd
       0.06539517 0.07278938 0.110261925 -0.09569078
000180 e8 49 d6 3c 27 99 b7 3c 52 b8 94 bd 4c 10 ef bd
       0.026158288 0.022411896 -0.07261719 -0.1167303
000190 e6 bb c3 bd 45 47 bd bd f2 19 10 3d 45 7e bd 3d
       -0.09557323 -0.09242109 0.035180993 0.092525996
0001a0 ca ed f9 bd 91 91 b8 bd 00 e5 27 bd b7 37 dd 3d
       -0.12203558 -0.090121396 -0.040989876 0.108016424
0001b0 0b 36 53 3c f2 da 38 3d 52 4f 30 3d 6b 21 b3 3d
       0.012891303 0.045130678 0.043044396 0.08746608
0001c0 09 4a 46 bd 2a cf a1 3d c7 92 7b 3d b9 36 8b 3d
       -0.04841045 0.079008415 0.061419275 0.06797547
0001d0 fb f7 cf 3d cd 93 01 3e 59 f0 dc bd 94 ce 9b 3d
       0.101547204 0.12654038 -0.1078803 0.07607761
0001e0 5a 83 19 bd e5 2e 2b 3d 16 f3 9b 3d 53 4e ea 3c
       -0.037478782 0.04179277 0.07614724 0.028601801
0001f0 2c c5 55 3b 8b 14 dc bd 1b e5 cc bd f4 e8 9c bc
       0.0032618744 -0.10746106 -0.10004636 -0.01915405
000200 96 00 e2 bd 37 6e a0 3d e9 ab 6d 3d 7a a4 97 3d
       -0.11035268 0.07833522 0.058025274 0.07404418
000210 24 67 fd bb 0b 27 68 3d 49 f6 6e 3d 1f 13 b8 3b
       -0.0077332426 0.05667786 0.058340345 0.005617514
000220 04 f0 99 3d 03 e8 f7 bd 99 fa 02 bd 08 d2 e8 bd
       0.075164825 -0.121047996 -0.03197727 -0.11368185
000230 d1 62 59 bc b2 eb 96 3d a1 07 f0 3b 4c 90 67 bd
       -0.013268189 0.07369174 0.007325128 -0.056534097
000240 d2 31 8f bd c0 c2 ca bd 66 b2 e2 3d 7c 64 dc 3c
       -0.06991924 -0.09900427 0.11069183 0.026903383
000250 9c 79 f1 bd 66 ce 43 3b ca df 86 bd f9 c4 7d bd
       -0.11790773 0.0029877662 -0.06585653 -0.061955426
000260 b5 6e 74 bb d4 22 c9 bd 6f 63 a2 3b 51 cb cc 3c
       -0.0037297432 -0.09821096 0.004955701 0.024999293
000270 d8 98 58 bd cd 02 34 bb 8c 53 d0 3d a9 be 2a bd
       -0.05288014 -0.002746749 0.10172185 -0.041685734
000280 30 fe c5 3d 85 03 9c bd e7 29 17 3d f3 68 0f 3c
       0.09667623 -0.07617859 0.036905196 0.008753049
000290 dc 35 07 bc 69 e1 6d bb a9 35 fd bc 16 68 92 bd
       -0.008252587 -0.0036297685 -0.030909376 -0.07148759
0002a0 a7 a2 d2 3d 43 88 d8 3d cd 60 10 3d 21 bf 42 bd
       0.1028493 0.10572865 0.035248566 -0.047545556
0002b0 82 07 ca bd fe ae 35 bd 37 7b 4d 3d c3 9f d8 bd
       -0.09864713 -0.04435634 0.050166335 -0.10577347
0002c0 7d ae 94 3d 55 d9 de bc ea 13 ee bd 58 d8 b0 3d
       0.072598435 -0.027203241 -0.11624892 0.08635014
0002d0 1c ec 5a 3d 0c 17 c1 bd b4 d7 e3 3d d9 f5 f8 3d
       0.053447828 -0.09428224 0.111251265 0.12156267
0002e0 b7 99 94 bc 7d 58 ca 3c 8e 9a f6 3d 7d dc 27 3c
       -0.018139703 0.024700398 0.12041198 0.01024544
0002f0 6d b2 bc 3d 30 d0 d0 bd c9 83 b4 3d 20 d6 4b 3d
       0.092137195 -0.101959586 0.088141985 0.049764752

gru.weight_ih_l1 f4 [192, 64]
000000 09 7f f9 bb 5f 64 92 3a cd b8 fc bd 90 27 d5 3d
       -0.0076140207 0.0011168829 -0.123399355 0.104079366
000010 cd d7 50 bd a4 20 d2 bd ca 69 c8 3d 42 13 d1 bd
       -0.050987054 -0.10260132 0.09785803 -0.10208751
000020 42 10 f0 bd 30 f7 52 bd bf ce 83 bd 2e 58 19 3d
       -0.11721851 -0.051505268 -0.06435918 0.03743761
000030 8a 9c a0 3d 0a f9 b3 3c 71 26 7d bd f1 50 11 bd
       0.078423575 0.021969337 -0.06180424 -0.035477582
000040 b4 f9 f0 bd 7b 3d c4 3c ca cd 88 3c 72 62 59 3d
       -0.11766377 0.023955097 0.01669969 0.0530724
000050 eb ff d4 3d af c3 98 3c 0c 61 ab bd 07 66 b4 bd
       0.10400375 0.018647997 -0.083681196 -0.08808523
000060 ad 2e 66 3d 3e 86 01 3e a0 88 ff 3c d4 84 65 bd
       0.056196857 0.12648866 0.031193078 -0.056034878
000070 f0 1b 49 3d 6b f0 d6 3d 3a a5 61 3d 95 1b d1 bd
       0.04909891 0.10495075 0.055089213 -0.10210339
000080 8e 4f 46 3d 52 95 93 3d 2d 41 24 bd a4 03 31 3d
       0.048415713 0.07206215 -0.04010122 0.043216363
000090 92 75 87 3c c5 22 26 3d 8b 04 91 bd 53 3e 3f bd
       0.016535554 0.040560503 -0.07080945 -0.046690296
0000a0 87 5f 03 3d 95 e0 aa bd 0b 8d 33 3c b2 7b 0f 3d
       0.032073524 -0.08343617 0.01095892 0.035030074
0000b0 02 65 7e ba b6 b9 08 bd 53 82 83 bd 8d 8a b6 3d
       -0.00097043824 -0.033380233 -0.06421342 0.08913145
0000c0 68 18 b7 bd 33 e0 a2 bc 66 bd 7b 3b e9 7a 32 3d
       -0.08940202 -0.019882297 0.003841245 0.043574248
0000d0 c5 18 61 bd 0d e4 d4 3b 3c c6 22 bc ef c5 e5 3d
       -0.054955263 0.0064969123 -0.009934958 0.112193935
0000e0 cb a7 e0 bc 35 e6 b4 bd e8 5a 33 3c 6a 58 c9 bd
       -0.02742376 -0.08832971 0.010946967 -0.09831317
0000f0 c5 40 80 bd c5 f4 14 ba 5c 25 67 3c a2 cb 5a bd
       -0.06262354 -0.00056822255 0.014108028 -0.053416856
000100 7a eb d8 bd e2 d9 ea bd f2 2e 74 bd e7 60 93 3c
       -0.105917886 -0.11467339 -0.059615083 0.017990543
000110 f2 6e d1 3a cf e4 86 bd fd b7 d0 bd f9 93 bb 3d
       0.0015978499 -0.065866105 -0.10191343 0.09159083
000120 8e fa cd 3c cd 71 ea bd 22 28 86 bd 34 f7 e8 3c
       0.025143888 -0.11447487 -0.065506235 0.028438188
000130 33 24 18 3d 0d 2f 3e bd 80 b5 32 bd f2 5e c3 3a
       0.037143897 -0.04643159 -0.043630123 0.0014905615
000140 23 50 3a 3d 5a 1e 7a 3d c2 f3 f9 bd 9d 6a 17 3c
       0.04548658 0.0610641 -0.12204696 0.009241727
000150 c6 63 d5 3b b3 4e 90 3a 78 e5 b1 3d fe ab 72 bd
       0.006512138 0.0011009782 0.08686346 -0.059246056
000160 20 45 b2 3d be ae 82 3c 14 ca ef 3d 79 8c a4 bd
       0.08704591 0.015952464 0.11708465 -0.080346055
000170 f1 19 d9 bd 21 e4 b9 3d 23 5c ea bd 1e ab e0 3c
       -0.10600651 0.09076715 -0.11443355 0.027425345
000180 e8 7b d2 3d ab 33 3e 3d 51 c3 96 bc 66 f5 47 bd
       0.102775395 0.046435993 -0.018403681 -0.048818015
000190 62 01 64 bd a8 12 52 bc de 6c a2 bd d9 ca f5 bd
       -0.05566538 -0.012821831 -0.07930921 -0.12001581
0001a0 39 14 ae bc 82 4b 4f 3d 2e 2c ee bd 95 e3 3f bd
       -0.021249877 0.05060912 -0.1162952 -0.0468479
0001b0 8a 48 4a 3d 8f 46 67 3d 5f 19 cc bd ee 93 18 3b
       0.049385585 0.056463774 -0.09965777 0.0023281532
0001c0 8a 79 ac bd 01 13 18 bd ed 1a db bb 75 c5 3d 3d
       -0.08421619 -0.0371275 -0.0066865594 0.046330888
0001d0 d8 01 45 3d cb 39 60 3c 48 84 7f 3c 95 aa b3 bd
       0.04809746 0.013685654 0.015595503 -0.0877277
0001e0 5f 5c ac bc f8 f7 e4 3d 3c 30 f2 3d b6 7e e2 3c
       -0.02104014 0.11180109 0.11825606 0.027648311
0001f0 3f 8d de bd 2e 10 65 bd f0 df b5 bd a5 57 d1 3d
       -0.10866784 -0.055923633 -0.08880603 0.10221795
000200 e7 f8 a5 3d c7 99 74 bd d2 4a a7 bd d8 c9 90 bc
       0.08104115 -0.059716966 -0.08168568 -0.017674372
000210 d8 cb 80 3d f9 de 94 bd 03 7f 89 bd ef d1 87 3c
       0.0628888 -0.07269091 -0.06713679 0.016579596
000220 9e 26 c5 bd 31 2a d6 bd 3c 01 e9 bd 0c 8a fc bc
       -0.09626506 -0.10457266 -0.113771886 -0.030827545
000230 9d e3 a7 bc 07 eb fb bd 31 ef 00 bc 3a 1f b4 bd
       -0.020494277 -0.12300687 -0.007869528 -0.087950185
000240 a0 5c e4 bd af b0 c9 3d 92 f1 cc bd fc 92 b8 3b
       -0.11150479 0.09848153 -0.100070134 0.0056327563
000250 78 b1 5b bd ba f1 40 3d 8e 33 85 3d b8 c9 95 bd
       -0.053636044 0.04710553 0.06503974 -0.073138654
000260 64 07 84 bc 6e e6 92 bd ab b8 e2 bd 72 58 a2 3d
       -0.016116805 -0.07172857 -0.11070379 0.07927026
000270 57 2b f0 bd 31 55 f9 bd f4 b5 a1 bd 40 15 39 bd
       -0.117270164 -0.12174452 -0.07896033 -0.04518628
000280 67 ee e7 bd c7 44 4d bd 4b ef 0b bd a7 1a b5 3d
       -0.113247685 -0.05011442 -0.034163754 0.08842974
000290 5f c5 21 3c be a4 2e 3d 5d a9 b0 bc a7 ca 38 bd
       0.009873717 0.04263758 -0.021565134 -0.04511514
0002a0 92 d9 d7 bd 58 80 23 bc 9d 67 8b bd 6b f5 4b 3d
       -0.10539545 -0.00997933 -0.06806872 0.049794596
0002b0 60 a8 b2 bb 90 f4 a6 bd 62 1f ef 3c 24 97 7f 3d
       -0.005452201 -0.08152115 0.02918977 0.0624
0002c0 3f 9e 61 ba cf 79 e9 bd b0 5f e5 bd d4 3b cd bc
       -0.00086066494 -0.11400186 -0.111998916 -0.025052942
0002d0 70 5d 94 bd 24 54 de 3d 8d 2c d3 3d 01 4d 4b bc
       -0.07244384 0.10855892 0.10311232 -0.012408496
0002e0 44 5c 5d 3c 00 07 d1 3d 56 cf ac bd cc 9e 8a bd
       0.013510767 0.10206413 -0.08437984 -0.06768569
0002f0 f3 24 5b bd 8f 0b b8 3c d7 18 5f 3d 4f 6c eb 3d
       -0.053502034 0.022466449 0.05446705 0.114952676
000300 46 bc f7 3d 3b 2f 99 bc b6 db 33 bd 6a 25 f6 bd
       0.12096457 -0.018699279 -0.043910705 -0.12018855
000310 a3 40 80 3c c9 20 8a 3d 37 9b 96 bc d0 bf a7 3d
       0.015655821 0.067445345 -0.01838456 0.08190882
000320 90 09 bb 3d a8 2b f8 bd 58 eb 8c 3d d5 c0 f7 bc
       0.09132683 -0.12117702 0.06880826 -0.030243317
000330 0f 63 6d bd 04 b2 0c bd b4 84 89 bd 3d 2e 8f 3d
       -0.057955798 -0.034349456 -0.06714764 0.06991241
000340 0a 0a 78 bd dc 24 9a bd 31 65 e1 bd f8 70 bd 3d
       -0.06055645 -0.075265616 -0.11005629 0.09250063
000350 fa 68 df 3d ab 2f 0b 3d 08 89 be bd 96 28 c3 bd
       0.109086946 0.033981007 -0.093034804 -0.095292255
000360 cd 35 e8 bd e8 37 43 bd 29 b4 15 3d 4d b5 a3 3c
       -0.11338387 -0.04766074 0.036548767 0.019983912
000370 d9 54 cc 3d 45 c9 ca bd fa 0a ec bd fa fd 73 3c
       0.09977121 -0.0990167 -0.11525531 0.014892096
000380 b0 0b 08 3d 68 47 fb 3c 37 3f e3 bc 4f 62 bd 3c
       0.03321427 0.030673698 -0.027740104 0.023118166
000390 35 f8 a3 3d 3b a4 22 bb 35 5c 07 3d ff 14 bb bd
       0.08006326 -0.0024817127 0.03304692 -0.09134864
0003a0 4b 18 aa 3d 12 21 3e bd 67 4f b2 bb c8 31 8e 3d
       0.08305415 -0.046418257 -0.0054415944 0.06943089
0003b0 31 a1 a7 3b f5 5d f2 bc 17 bb bc 3d e9 e2 5b bb
       0.005115651 -0.029585818 0.09215372 -0.0033551997
0003c0 67 c1 f7 bd d6 eb ba 3d fd fe 95 3c 87 12 fd bc
       -0.120974354 0.091270134 0.018310064 -0.030892624
0003d0 af 6f c3 bc 8f 99 da bc 2c bb 1a 3d 4e f8 cb 3d
       -0.023856966 -0.02668455 0.037776157 0.0995947
0003e0 a5 45 6f bd 09 95 cb 3c 80 a5 3a 3c 57 c0 b3 3d
       -0.058416028 0.024851339 0.011391997 0.0877692
0003f0 37 1f 21 bd 9e f8 6b 3d 41 e8 47 3d 98 01 65 3c
       -0.03933641 0.057610147 0.04880548 0.013977431

gru.weight_hh_l1 f4 [192, 64]
000000 e7 65 ed 3d ad ce ab 3d dd e9 c4 3d 88 79 93 3d
       0.11591702 0.0838903 0.096149184 0.072009146
000010 a4 2e b5 3b a1 9e 62 3d 40 92 c0 3d 58 7f ea bd
       0.0055292416 0.05532706 0.09402895 -0.1145007
000020 03 2e 1a bd 6f be 5f 3d 3a b9 d1 3d 02 7a c7 bc
       -0.037641536 0.05462497 0.10240407 -0.02435017
000030 bf bd 71 bc 54 5c f5 bc be e4 88 3d 0d 88 bb bd
       -0.014754712 -0.029951252 0.06684254 -0.09156809
000040 3f 76 d4 bd fb 30 e0 3d a8 29 71 3d 6b 3b cc bd
       -0.10374116 0.10946842 0.058877617 -0.099722706
000050 9f 82 68 bd 4b 86 d1 bd 74 5d 51 bd 9b bd 32 3d
       -0.056765195 -0.102306925 -0.051114514 0.043637853
000060 26 a8 83 bd 24 03 a3 bb e5 73 01 3d a8 53 9c 3d
       -0.06428556 -0.0049747396 0.031604666 0.07633144
000070 f8 45 2a bc 1d 53 ae bd d0 2a a1 3d f0 11 d2 3d
       -0.010392658 -0.08511946 0.07869494 0.102573276
000080 47 f7 d2 bd b8 48 c3 3d e1 2f 90 bd 85 57 39 3d
       -0.10301071 0.095353544 -0.07040382 0.04524948
000090 2c 87 b7 bd 13 d4 7b 3d 2e e1 94 3d dc d0 c5 3b
       -0.08961329 0.061481547 0.07269512 0.006036861
0000a0 b9 87 4a 3d 65 a8 6d bd 4c 0b 7a bd 75 59 26 bd
       0.04944584 -0.05802192 -0.06104593 -0.040612657
0000b0 8e 9b 34 bc f0 9e fd bc 29 ea e4 3d b1 34 14 3c
       -0.011023415 -0.030959576 0.11177475 0.009045766
0000c0 f4 6a 02 3c 3b bb 26 3c 7b b7 e6 3c bc a0 f4 bd
       0.00796007 0.010176475 0.028163662 -0.1194472
0000d0 51 4d 00 3e 83 03 f0 bd 7c 88 82 bd 7f c6 4b 3d
       0.12529494 -0.1171942 -0.063736886 0.049749848
0000e0 43 ae 8f 3c 92 3b f0 bc 76 d2 72 3d f9 4f 13 bd
       0.01753915 -0.02932528 0.059282742 -0.03596494
0000f0 1e a5 5d 3d 01 29 5a 3c 84 62 a7 3d 79 b0 84 3d
       0.054112546 0.01331544 0.08173087 0.06478972
000100 62 3a bf 3d d4 0c 9c bd d2 da b1 bd 3f f2 e2 3b
       0.093373075 -0.07619634 -0.08684315 0.0069258506
000110 fc 22 80 bd ee 9a 49 3d 0a 65 a6 3a f6 51 e2 bc
       -0.06256673 0.049220018 0.0012694907 -0.027626973
000120 38 a8 8f bd 13 25 db 3d 0a f7 88 bd 7f 96 85 bd
       -0.07014507 0.10700431 -0.06687744 -0.065228455
000130 8f 28 cd 3d 77 6d ce 3d 81 0d 86 3c 1c 65 18 3d
       0.100175016 0.100794725 0.016363861 0.0372058
000140 12 f0 dd 3d b5 e6 e4 bd e7 a7 4f bd d4 c8 ba bd
       0.108368054 -0.111768164 -0.050697234 -0.09120336
000150 7b 0a e8 3d cb 23 e7 bc ff 59 c7 bd af c2 f8 3d
       0.11330124 -0.02821531 -0.09733962 0.12146508
000160 85 23 9f bd 66 ae c0 3d ca 5e 9a 3c 82 13 5a 3d
       -0.07770447 0.09408264 0.018844027 0.05324126
000170 be 30 7f 3d 90 d8 9b 3d 68 75 18 3d 26 66 ce bd
       0.062302344 0.076096654 0.037221342 -0.10078077
000180 30 2f 39 3a 6a c4 00 3e a4 67 00 be 7f 41 58 b9
       0.00070642214 0.12574926 -0.12539536 -0.00020623764
000190 e0 01 d7 3d 72 9a 04 ba a2 68 99 bd ac c0 b8 bc
       0.104984045 -0.00050584145 -0.0749066 -0.02255281
0001a0 a1 c2 0a bd 68 9a d9 bd a7 f7 64 bd 4f b6 bf 3d
       -0.03387702 -0.10625154 -0.055900242 0.093609445
0001b0 af 7d f4 bc 18 d5 60 bd 43 59 c4 bd d6 44 eb bd
       -0.029845087 -0.054890722 -0.09587338 -0.11487739
0001c0 2a 30 bd bd e6 0b 9d bd c7 e6 b3 3d d7 79 92 3d
       -0.09237702 -0.07668285 0.08784252 0.07152145
0001d0 d5 1c bf bd 0f 2a 1d bd 03 20 cd bd a5 ac ee bd
       -0.09331671 -0.03837019 -0.100158714 -0.11654023
0001e0 85 25 9f 3c 77 e2 34 3d 26 92 8f 3d 73 0f d5 bd
       0.01942707 0.044161286 0.070102975 -0.10403337
0001f0 22 55 1c bd 8c dd 1a 3d 7f a5 de 3d a0 e0 01 3e
       -0.038167126 0.03780894 0.108714096 0.12683344
000200 b2 fc 1e 3c 89 e8 84 3d b8 cf 9f 39 ee 1f e3 bc
       0.009703802 0.06489665 0.00030481606 -0.027725186
000210 f2 71 a8 3d d2 83 60 bd 1d 8c 35 bc a0 e7 95 3c
       0.08224858 -0.054813214 -0.011080769 0.018298924
000220 5f f8 64 bb 7a ac 7e 3d 30 ba ce bd cf 0d ab bd
       -0.003493808 0.062176205 -0.10094106 -0.08352243
000230 da 07 e4 bc 79 49 b5 bc dd 27 c7 bd 49 30 82 bd
       -0.027835775 -0.022129761 -0.097244 -0.06356866
000240 fd 12 da bc f4 3d 4f 3d 64 4b de 3d 5d 08 df 3d
       -0.026620382 0.050596192 0.10854223 0.10890267
000250 d2 04 0c 3b 0c 3e f3 3c eb 5b 60 3d 4f 27 26 bb
       0.0021365178 0.029692672 0.05477516 -0.002535302
000260 99 9c 0d bd 98 fb 0b 3d 17 a2 f7 bd 56 d3 f0 bd
       -0.03457317 0.034175485 -0.12091463 -0.11759059
000270 a9 69 7e bc 91 7a 42 bd 58 a4 f3 bd 40 64 0c bc
       -0.015528121 -0.04748017 -0.118965805 -0.008568823
000280 63 41 ca 3d 6f da 04 3d 15 7e c9 bd 49 08 d3 ba
       0.09875753 0.032434877 -0.09838501 -0.0016100492
000290 ed ac bd 3d ab e4 a7 3d c8 89 da bd b2 82 ba 3d
       0.092614986 0.08197912 -0.10670811 0.091069594
0002a0 49 70 ea bc 25 3f d8 3d 8f 8b c1 bd 67 d7 02 bd
       -0.028617995 0.10558919 -0.09450447 -0.031943705
0002b0 ff 72 84 bd 6c c6 a8 bd 8a 04 df 3d 0c 04 fc bd
       -0.06467246 -0.08240971 0.10889538 -0.123054594
0002c0 9b 2b c8 3c 02 07 63 bd 2d 28 3e bd f5 79 81 ba
       0.024434855 -0.055426605 -0.046425033 -0.0009878265
0002d0 69 a1 9d 3d be 0d 12 bc b9 c9 e7 3c bb cd 28 bd
       0.07696802 -0.008914409 0.028294431 -0.041211825
0002e0 88 80 ef bd 2c 25 b3 3d 6e a7 ea bc cf df ca bb
       -0.11694437 0.08747324 -0.02864429 -0.006191231
0002f0 5d ad c8 bd a8 2a 0a 3d b3 ab 94 3c d1 77 00 3e
       -0.097986914 0.033732086 0.018148279 0.12545706
000300 72 0c e7 3b da 46 e0 bd 7a 0b a0 bd 5a fc 39 3d
       0.007051044 -0.10951014 -0.07814689 0.045406677
000310 d2 1f 86 bd 13 c1 95 bd 9a 7c d2 3d da 9a 08 bd
       -0.06549038 -0.073122166 0.10277672 -0.033350803
000320 3c b1 d9 bd 43 cf 3b ba 82 52 06 bd 86 6e 99 3d
       -0.10629508 -0.0007164368 -0.03279353 0.07491784
000330 51 a1 b6 3b 02 3e 56 3d 44 d2 a8 bd 30 4c bb 3d
       0.0055734296 0.05230523 -0.0824323 0.09145391
000340 eb 15 42 bd 34 80 9a 3d 29 3b d2 3d 06 65 60 3d
       -0.047384184 0.07543984 0.1026519 0.054783843
000350 a2 d8 ca bc 26 d5 c4 3d 4f 9c f4 3d 4d d1 54 3c
       -0.024761502 0.09610967 0.11943876 0.012989354
000360 fb df cc bd 3d 04 5f bd 5d 0c 44 3d d4 3c b4 bd
       -0.100036584 -0.0544474 0.047863353 -0.088006645
000370 3e 90 c9 3d 27 a6 9f bc 2c 75 9d 3d 2e 22 88 3d
       0.09841965 -0.019488407 0.076883644 0.06647144
000380 4e 8e 9f 3d aa c2 9f bc 78 0a 75 bd bf ca 38 bd
       0.07790814 -0.019502003 -0.059824437 -0.04511523
000390 33 73 97 3c 2f c8 b2 3d b2 6b ad 3d 89 27 c8 3d
       0.018487548 0.08729588 0.08467807 0.09773166
0003a0 22 4f c6 3d 63 77 14 3c 20 9b d9 3c 8f 7f 12 bd
       0.09683062 0.009061667 0.026563227 -0.03576618
0003b0 bb 97 df bd 29 82 d9 bd ad 8a b7 3c f0 ac ff 3d
       -0.10917612 -0.10620529 0.022404993 0.12484157
0003c0 22 8a 98 3d c2 db 50 bd 8a aa 9a bd c6 26 3f 3c
       0.07448222 -0.050990827 -0.07552059 0.011666959
0003d0 8e 17 d9 bd fa f2 ed bd 18 38 0a 3d a1 6e d1 bc
       -0.10600196 -0.1161861 0.0337449 -0.025565447
0003e0 de 95 8d 3d 96 c4 f6 3d f0 60 97 bd 7b ef 0a 3d
       0.069133505 0.120492145 -0.07391536 0.033919793
0003f0 2d 82 89 3d 6c be 93 3d f9 50 26 3c 90 44 dc bb
       0.06714282 0.072140545 0.010151141 -0.0067220405

gru.bias_ih_l1 f4 [192]
000000 19 0c ac 3d ef 0b 6f 3d b8 ee fe bd d9 65 5f 3d
       0.08400745 0.05836099 -0.12447876 0.05454049
000010 db e1 09 bc 72 24 c4 bd a3 18 d2 3c e6 19 c2 bd
       -0.008415665 -0.09577264 0.025646513 -0.09477596
000020 6d 7d 14 bd 1f e1 ce 3d a6 48 4e 3d c1 14 94 bd
       -0.036252428 0.10101532 0.05036225 -0.07230521
000030 5f f1 83 3d 53 b4 83 bd 4d 7d c8 bd fe 25 23 bc
       0.06442522 -0.064308785 -0.09789524 -0.0099577885
000040 a1 9c 91 3d 56 cc 3f 3d a0 8b da 3d ce f5 eb 3d
       0.07109953 0.04682573 0.106711626 0.11521493
000050 c6 6d e2 3d 5a 81 72 3c 00 7c f1 bd dc 59 8e bd
       0.11056094 0.014801348 -0.11791229 -0.06950733
000060 16 a7 39 3d 64 fc 8b 3d b4 1e b0 3d 3b 5e 90 3d
       0.04532536 0.06835249 0.08599606 0.07049223
000070 fc 9d ce bd c3 c8 15 3c 1e 64 3b bd f9 fc 96 bc
       -0.10088727 0.009142104 -0.045749776 -0.018431174
000080 2e 7a 7c bd 63 9f d0 3a 5f d9 c0 3c bc 1c 66 3d
       -0.061639957 0.0015916642 0.02354115 0.056179747
000090 f4 9b b4 3d aa 6a 18 3d 62 50 2e bd 31 34 d7 3d
       0.08818808 0.037211098 -0.042557128 0.105080016
0000a0 a4 be 23 bc e4 10 fe 3c cf f6 9b bd 34 a4 d0 3d
       -0.009994183 0.031013913 -0.076154344 0.10187569
0000b0 c9 3b 9c 3c c6 c5 2f 3c 09 cf 17 bd cb 57 ed bd
       0.019071477 0.010728305 -0.03706268 -0.11589011
0000c0 5a 61 f6 bd dc c3 ee bd e9 cc 5f 3d ce 7b 9c 3d
       -0.12030287 -0.11658451 0.054638777 0.07640801
0000d0 fe aa f0 bc 30 0e c9 bd ed 02 df 3d 77 11 16 3d
       -0.02937841 -0.09817159 0.1088923 0.03663775
0000e0 61 24 f9 bd 15 6c e9 3c 1e 3e 7f 3d 58 5a 03 3d
       -0.12165142 0.02849392 0.0623151 0.03206858
0000f0 a9 55 da 3d 2f 90 d5 bd e9 79 69 3b 7f aa 44 3d
       0.1066087 -0.104278915 0.0035625643 0.04801416
000100 4e 67 03 be 70 b4 db bd 1f 25 e6 3d 00 7f 9b 3c
       -0.12832376 -0.10727775 0.11237549 0.018981457
000110 e9 b1 3c bd 97 c0 86 bb 0c 55 3a bd 7b a2 46 3d
       -0.046068106 -0.004112314 -0.045491263 0.048494797
000120 87 7c 56 3d bc 01 22 bd bb 1e 02 3d 09 6c da 3d
       0.052364852 -0.039552435 0.031767588 0.10665137
000130 3c e3 74 3d 58 2e e7 3d 7d 79 0d 3d 31 40 4b 3d
       0.05978702 0.11288136 0.03453969 0.049621765
000140 7b 69 9b bd 1d 46 64 bd 38 b9 5c bd ef 74 a2 bd
       -0.07588478 -0.055730928 -0.053887576 -0.079324596
000150 0e 3e 8e bd 12 31 e6 bd 88 68 c0 bd 9b 96 bc 3d
       -0.0694543 -0.11239828 -0.09394938 0.09208413
000160 fd 51 5e 3d 2b 5f 1b bd 24 b9 3f bd 40 b1 bf bd
       0.05427741 -0.037932556 -0.046807423 -0.0935998
000170 fa bb de bd 94 b5 f2 3d 3c 8c 51 bd 8b 41 b4 3d
       -0.108756974 0.118510395 -0.05115913 0.08801564
000180 e9 3f 90 3d ce bc b5 3a 74 a3 af bd ee 82 a9 3d
       0.0704344 0.0013865472 -0.08576098 0.08276926
000190 94 b5 d4 3d 0a 34 b2 3b d6 13 44 3d ab fb d0 bc
       0.10386196 0.0054383324 0.04787048 -0.02551063
0001a0 25 35 66 bd cb 9d ed 3d 13 3a b4 bd 6c 54 b1 3d
       -0.056203026 0.11602362 -0.08800139 0.0865868
0001b0 73 82 05 3e b2 97 90 bd 3d 3b e8 3d 64 55 e1 bc
       0.13038044 -0.070601836 0.11339424 -0.027506538
0001c0 5e f4 04 bd 80 c5 d5 bc b8 e0 a2 3c a5 73 d8 3c
       -0.03245961 -0.026095152 0.019882545 0.026422331
0001d0 66 07 a0 bd 01 af 80 bd c5 3f d9 bd 1e ab e5 bd
       -0.07813911 -0.06283379 -0.10607866 -0.11214279
0001e0 7b 96 ad bd 18 f2 40 3d 9c 9a f5 bd e7 09 55 3d
       -0.084759675 0.04710588 -0.1199238 0.052011397
0001f0 9a 23 cb 3d 74 9d 17 bd 46 09 bf 3d 9a 13 88 bd
       0.099189 -0.037015393 0.09327941 -0.06644364
000200 54 11 61 3d 6c af 2b 3d a6 68 4b bd d6 29 a5 bd
       0.054948166 0.041915342 -0.049660347 -0.0806462
000210 a3 e1 26 3d 21 fa f7 3d 25 fe 0a bd f1 dc f1 bc
       0.040742528 0.12108255 -0.033933777 -0.029524298
000220 8d 3e dc 3d bd b2 9c 3c 41 e3 4f bc 0a 7d ed bd
       0.10754118 0.019128198 -0.012688459 -0.11596115
000230 1e 15 60 3d 9e d8 52 bb 05 d8 f1 3d 65 3b c7 3c
       0.05470764 -0.003217257 0.118087806 0.024320314
000240 e7 23 28 bd d9 56 fd 3d 7d 2c a1 3d b4 4b 68 3c
       -0.041049864 0.123700805 0.078698136 0.014178205
000250 57 bf c6 3c c1 e7 1b bc b9 c5 f7 bd f1 76 95 bc
       0.02426116 -0.009515704 -0.120982595 -0.018245192
000260 ab fc 81 3d 7f 0a 20 bd ac 3e d0 bd 4d 04 bf 3d
       0.06347021 -0.03907251 -0.10168204 0.09326992
000270 c5 9b bb 3d ca de ad 3c 26 2e af 3b 00 d2 40 bd
       0.0916057 0.021224398 0.0053460775 -0.04707527
000280 a3 26 78 3d 6b 32 38 bd eb 0f f4 bd b0 a6 78 3d
       0.06058372 -0.044969957 -0.119170986 0.06070584
000290 13 12 af bd 18 41 04 3d 3f 29 1a bd 1c 1e cc 3d
       -0.08548369 0.03228864 -0.03763699 0.099666804
0002a0 81 81 55 3c 70 e5 e4 3d fc 80 53 bd 69 b8 f7 3d
       0.013031364 0.11176574 -0.05163668 0.1209572
0002b0 97 a4 67 bd cd 3e 7d bd 12 ad 39 3d 29 ef 1d bd
       -0.05655345 -0.06182747 0.04533107 -0.03855816
0002c0 b0 0b 61 bd e6 c8 6d 3d 11 fe 44 3d 35 9c 14 3d
       -0.054942787 0.05805292 0.04809386 0.036281783
0002d0 ff 48 9b bd 39 39 b0 bd 7f f2 a6 3c 31 41 84 bd
       -0.07582282 -0.08604664 0.020379303 -0.06457747
0002e0 03 e6 ae 3d db f5 dc bd 65 a4 f0 bd 2c ce d6 3d
       0.08539965 -0.10789081 -0.11750106 0.10488543
0002f0 d4 40 0a 3b db 89 82 bd 42 eb 92 3c a8 bf 87 3c
       0.002109577 -0.0637395 0.017934445 0.016570881

gru.bias_hh_l1 f4 [192]
000000 6f 54 15 bd f7 60 44 3d b6 ef c5 3d fd be e6 bd
       -0.036457475 0.047944035 0.09664862 -0.11266897
000010 d2 0f 9b bd 2a ba 82 3d 4d f4 68 3d bf a5 77 ba
       -0.07571377 0.06383164 0.05687361 -0.00094470003
000020 d5 89 d8 bd 9d f8 e7 3c d1 ad b5 3d 94 08 80 3d
       -0.105731644 0.02831679 0.088710435 0.06251636
000030 58 bf 2d bb 3f 15 f1 3b 17 71 02 3d c3 d4 8d 3c
       -0.0026511755 0.007357269 0.031846132 0.017313367
000040 87 17 6f 3d 77 6f 24 3c 26 b5 d7 bd cd e4 07 be
       0.058372047 0.010036341 -0.10532598 -0.13270874
000050 62 d4 e3 bd ee 2b b6 bd a3 46 f9 bc 15 c4 82 bd
       -0.11124493 -0.08895098 -0.03042919 -0.06385056
000060 d8 a0 63 3b 03 2f 1c 3d 7b eb 3e 3c e8 41 74 bd
       0.0034733322 0.03813077 0.011652823 -0.059633166
000070 3e 92 65 3d 7a 9b 40 bd 3a 39 cf 3c b6 cd 96 3d
       0.05604767 -0.047023274 0.025295842 0.07363455
000080 37 83 db 3d 74 ee 84 bc c1 5d d4 3d 9e 26 30 bd
       0.107183866 -0.016226985 0.10369445 -0.04300558
000090 48 77 64 bc 92 b0 51 3d 84 0f aa bd b5 b0 47 bd
       -0.0139444545 0.05119378 -0.083037406 -0.048752505
0000a0 2d c0 9d bd 30 3d 93 bd 58 bd 54 bd 3b 56 d9 3c
       -0.0770267 -0.07189405 -0.051938385 0.026530376
0000b0 3a 0e 1e bd 76 5e ad 3d 3d e9 5b bc 50 15 a2 3c
       -0.038587786 0.084652826 -0.013422308 0.019785553
0000c0 df 61 de bd a4 f3 cc 3d 45 6b 94 3d da 0d 96 bc
       -0.10858511 0.10007408 0.072470225 -0.018317152
0000d0 7e 69 75 bd 23 4e 43 3d 0d 10 d8 3d ee aa 37 bb
       -0.05991506 0.04768194 0.105499364 -0.0028025466
0000e0 b7 c2 d1 3c e4 d5 c6 bd c7 b7 86 3d cb de ba 3d
       0.025605543 -0.09708765 0.065780215 0.09124526
0000f0 f2 f0 6a 3d 71 05 13 bd d4 67 f1 3c 56 b9 ac ba
       0.05735869 -0.03589386 0.029468454 -0.0013177793
000100 9a 33 e9 bc 00 29 d8 3c 13 1f b9 bd 84 1d db bd
       -0.028466988 0.026386738 -0.0903913 -0.10698989
000110 0e 5d ac 3d 60 be 76 bd b0 95 81 3d b4 43 c7 3d
       0.08416186 -0.06024015 0.06327379 0.0972971
000120 8b fe 72 3d d8 75 22 bd c1 4f 61 3c c5 35 b4 bc
       0.059324782 -0.039663166 0.013751925 -0.021998296
000130 04 a3 2b 3d 52 d8 c3 bd fb 37 e7 bc 4b 65 ab 3d
       0.04190351 -0.09562744 -0.028224936 0.083689295
000140 7f 78 84 3d 5b 9c dd 3d 9c 57 72 3d 99 c3 74 bd
       0.06468295 0.10820838 0.059165582 -0.05975685
000150 e1 f0 d3 bd 48 d4 e4 bd 03 a6 1f 3d ff 36 88 3d
       -0.103486784 -0.11173302 0.03897668 0.06651115
000160 eb f6 dc 3c 3b 06 ba bd 47 0f bd bd c5 bd 96 3d
       0.026973208 -0.090832196 -0.092314295 0.073604144
000170 fc 87 c2 3b 4a 92 de bd 1e cb 69 3d a0 f5 c0 bd
       0.0059366208 -0.10867746 0.057078473 -0.09421849
000180 c1 15 17 3d fa 02 85 bd 75 1b ae 3c 78 51 b2 3d
       0.03688598 -0.06494708 0.021253327 0.08706945
000190 dd b2 b5 bc 0e a3 9c ba 28 1c 72 3d e4 50 00 3e
       -0.022180015 -0.001195045 0.059108883 0.12530857
0001a0 38 e7 b8 3d 26 83 23 bd 5c 8c 1d bd 09 4b c3 3c
       0.090284765 -0.039919995 -0.038463935 0.02383949
0001b0 f6 ee 5d bc 0d 3e 72 bd 5c f9 7e 3d 99 a2 44 3c
       -0.013545742 -0.059141207 0.062249526 0.012001657
0001c0 ce 78 63 3d f2 00 e7 bc 70 75 93 bd 1c 7d 12 3d
       0.05553513 -0.028198693 -0.07200134 0.035763845
0001d0 6f 55 00 bd 06 f8 e5 bd b9 08 ed bd 27 d6 1e bd
       -0.031331476 -0.11228947 -0.11573929 -0.03877845
0001e0 3d f5 66 3b e4 74 5b bd 0b fa 84 3d 60 b0 e6 bc
       0.0035241388 -0.053578272 0.064930044 -0.028160274
0001f0 d3 2d c6 bc ba bf 72 3d 0e bd f4 bd 30 9c 0e bd
       -0.024191773 0.059264876 -0.11950122 -0.03481692
000200 2c 7b bb 3d dc ce 85 3d 41 24 b3 bc 51 97 56 3d
       0.091543525 0.06533596 -0.021867873 0.0523904
000210 05 d2 be 3d b1 3b eb 3d 34 6f ed 3d ef 41 d5 3b
       0.09317402 0.114859946 0.11593476 0.006508104
000220 8f 6d e0 3d 04 60 e7 bc 57 28 86 3d 3b b6 86 3d
       0.10958397 -0.028244026 0.06550663 0.065777265
000230 3e b3 f3 bd bb b3 de 3c 9d 78 e0 3d 29 b8 2f bc
       -0.11899422 0.027185312 0.10960505 -0.01072506
000240 1c f0 6e 3d aa ea f9 bd e7 3b 2c bc 54 cc 57 bc
       0.058334455 -0.12202962 -0.010512329 -0.013171274
000250 c1 f9 51 bd 23 5d 22 3d 51 6a f3 3c c4 e7 a7 bb
       -0.051263575 0.039639603 0.029713782 -0.005124064
000260 06 1a b7 3d da 78 dd 3c c6 5a d2 3d 5e 96 44 3d
       0.089405105 0.027035166 0.1027122 0.047994964
000270 fd e9 25 b9 15 1b 87 bd c9 e6 e9 bd 6d 0f aa 3b
       -0.00015822794 -0.06596962 -0.11420972 0.005189827
000280 3a fa fe bc 15 55 cc 3c d4 0d 96 bd 10 af 66 bd
       -0.031125177 0.024942914 -0.07326856 -0.056319296
000290 7d a4 bb bd 9a 4f b8 3d 99 4c 00 3d 41 e2 a5 3d
       -0.09162233 0.08999558 0.03132305 0.08099795
0002a0 f3 75 b3 3d 8e 58 95 bd 61 e9 0a bb 85 8d 8b 3c
       0.087627314 -0.07292281 -0.0021196234 0.017035255
0002b0 a1 2d 7c bd ac 37 ea bd 23 08 ba bc be cc bd 3b
       -0.061566953 -0.114364 -0.022708958 0.0057922294
0002c0 53 ed f4 3d 65 81 2a bd 59 38 cf 3d 9a 4a dd bd
       0.119593285 -0.041627306 0.10118169 -0.10805245
0002d0 2e 2a 8e bd a9 3b 5c 3d af cc f1 bc d6 f7 87 bd
       -0.06941639 0.053767834 -0.029516546 -0.06639068
0002e0 35 d1 27 3d dd 85 55 3c 5b e4 5d bb a7 89 72 bd
       0.040971 0.013032404 -0.0033858034 -0.059213307
0002f0 c0 46 69 3c 60 41 4f bd 34 fd d1 3d 4e 2f ce 3d
       0.0142380595 -0.050599456 0.10253373 0.100676164
