Dreamer/models/PotentiallyTooShort/world_model.pth (torch, 786774 bytes, 53 tensors)

gru.weight_ih_l0 f4 [144, 197]
000000 ab 8a 70 bd 94 82 94 bd 3e c3 80 bd 85 84 ed bd
       -0.058725994 -0.07251468 -0.062872395 -0.11597542
000010 7d 8c ca 3d 4d 52 ce 3d a0 9c a4 3d 62 a1 8e bd
       0.09890077 0.100742914 0.08037686 -0.06964375
000020 42 1c 95 bd 53 19 42 bd 75 9a 2d bd 17 23 11 be
       -0.072807804 -0.047387432 -0.04238363 -0.14173542
000030 90 92 94 bb 96 a8 b2 3d 28 c0 f4 bd c4 83 24 bd
       -0.004534073 0.087235615 -0.119507134 -0.040164724
000040 77 e8 e7 bd 5f 99 7e bd 45 dd e4 bc f9 5a 8e bd
       -0.11323636 -0.062157985 -0.02793754 -0.069509454
000050 43 50 98 bd 88 df 4b 3d 3f 6e 87 3d 0c 82 02 be
       -0.07437184 0.049773723 0.06612825 -0.12744921
000060 ce 56 1d 3d 12 c8 eb 3d aa 01 b5 bd 57 b9 65 3d
       0.03841286 0.1151277 -0.08838208 0.056084957
000070 a8 99 4c bd 7c d7 dd bd e3 c7 fb bd cf ff 01 3d
       -0.049951226 -0.10832116 -0.12293985 0.0317381
000080 80 57 dd bd 5b cc a3 3d bc 44 15 3e 84 5a a1 3d
       -0.10807705 0.07997962 0.14577001 0.078785926
000090 70 d5 ed 3d 91 40 81 bd 39 66 15 3d 03 ab 9e 3d
       0.116129756 -0.06311143 0.03647444 0.07747462
0000a0 57 09 8c bd d8 d8 9d 3d 6d d0 58 bd a7 37 c1 3d
       -0.06837719 0.07707375 -0.052933145 0.09434443
0000b0 a8 24 6b bd 01 b3 77 bc d3 4a 9e bd 68 c8 1e 3d
       -0.057408005 -0.015118361 -0.07729115 0.03876534
0000c0 4d 8c 12 bd e9 1d a4 bd 10 cc c7 3d f5 70 17 3c
       -0.035778333 -0.080135174 0.09755719 0.00924324
0000d0 e1 61 46 bd 67 79 7a 3d 28 25 ee bd 1a 56 d2 bc
       -0.04843319 0.061150935 -0.11628181 -0.025675822
0000e0 f1 6d 10 3e 34 bc 3f bd e4 f2 dd bd 1e 1a b5 3d
       0.1410444 -0.046810344 -0.10837343 0.08842872
0000f0 42 e9 7b bc 7b 02 fa 3c b9 55 92 3c 68 4d 3d bd
       -0.015375437 0.03051876 0.017863141 -0.0462164
000100 4f 8b b2 3d ba 97 db bc a3 4e bf bd fa d1 e9 3d
       0.08717977 -0.026805747 -0.09341171 0.11417003
000110 ff 67 89 bd f7 2c f6 3c 13 64 e3 bd a6 f5 e0 bc
       -0.06709289 0.030050738 -0.11103072 -0.027460884
000120 23 d4 86 bc 17 9b 8c bd 1c bf c6 bd 83 0a 47 bc
       -0.016458577 -0.068655185 -0.0970442 -0.012148502
000130 ab 1a 99 3d e1 00 95 bd 65 dc ab 3d 3f d1 b7 3b
       0.0747579 -0.07275558 0.08391646 0.005609661
000140 62 29 a9 bd 18 d0 30 bc 24 c5 44 bd 6b cf bb bd
       -0.08259846 -0.010791801 -0.04803957 -0.09170421
000150 97 68 29 bc 79 13 79 3c 62 40 07 be aa 2f aa bd
       -0.010339878 0.015202397 -0.13208154 -0.083098724
000160 96 09 0c 3e d5 90 c7 3b dd 10 a8 bd dc ac 0d be
       0.13675532 0.0060902634 -0.082063414 -0.13835472
000170 80 6d 80 3c b5 35 00 3e de 02 c5 3c 60 a0 18 3d
       0.015677214 0.12520488 0.024049219 0.03726232
000180 c3 28 52 3d c4 0f c9 3c f0 c9 03 3e bb bb 13 3c
       0.051308405 0.02454365 0.12870002 0.009016926
000190 40 83 03 be 75 b7 9b bd 87 31 b9 3d 71 74 86 3d
       -0.12843037 -0.07603351 0.0904265 0.06565178
0001a0 59 01 cb 3d b0 e6 15 3e db 31 15 be 76 f5 f6 3d
       0.099123664 0.14638782 -0.145698 0.12058537
0001b0 ef 9b 74 3d d3 f6 ff bc aa 66 17 be e4 3b cc 3c
       0.059719022 -0.031245625 -0.14785257 0.024930902
0001c0 78 c9 d0 bd fc 42 f8 bd 7f 76 be bd 0b 2f 69 3c
       -0.10194677 -0.12122151 -0.09299945 0.014232407
0001d0 9e c1 18 3e 33 fb 78 bd ec de 07 bb 2e e6 ca 3d
       0.14917609 -0.060786437 -0.0020732237 0.099071845
0001e0 7d 9d 14 be f0 d3 ed bd d6 e7 80 bd 0f 14 09 3e
       -0.14513202 -0.116126895 -0.06294219 0.13386558
0001f0 74 86 39 bd 1f 21 94 bd 0b 82 c5 3d 15 a6 d7 3d
       -0.04529424 -0.0723288 0.09643944 0.105297245
000200 82 90 af 3c d4 96 f3 3d 28 e1 e1 3d 3c 6c 9b 3c
       0.021431211 0.118940026 0.11029273 0.018972509
000210 8d a2 cd 3d e6 9b df 3c 6e e7 51 3d 74 26 2f 3d
       0.1004077 0.027296018 0.0512461 0.04276128
000220 3f 9a a9 bd 97 e3 d0 bd 60 9b 0c be 50 96 1a bd
       -0.08281373 -0.10199659 -0.13731146 -0.037741005
000230 49 7a a3 bd b4 1d f4 bd 38 37 50 3d 7f b0 30 3c
       -0.079823084 -0.11919728 0.05083391 0.010784267
000240 6a 6e 01 be 8d 3c 8b bd cd 76 d8 bd 44 ba 67 3d
       -0.12639776 -0.067986585 -0.105695345 0.05657412
000250 c3 95 db 3c 02 0b 1b be 66 65 34 bd 0b 34 fb bd
       0.02680481 -0.15140918 -0.044042014 -0.12265786
000260 1a a7 5e bd 72 3b 22 3e 92 93 5b 3c b3 30 8e bd
       -0.05435858 0.15842989 0.013401883 -0.069428824
000270 e8 55 df bd a4 6f 38 3d f6 31 87 3d e5 7e dc 3d
       -0.10905057 0.045028344 0.06601326 0.10766391
000280 42 e0 53 bd 9d a3 f8 3c 6f 62 0b 3d 95 65 11 be
       -0.05172754 0.030351454 0.03402942 -0.14198907
000290 2e 32 ff 3c c2 58 d8 bd 92 71 ad 3d aa df 9c 3d
       0.031151857 -0.10563804 0.084689274 0.07659848
0002a0 e9 6b 0d 3e 35 b1 f5 bd 94 a1 99 3d 19 f0 3a 3d
       0.13810696 -0.1199669 0.07501522 0.04563913
0002b0 f8 40 82 bd 67 be 20 bd 35 d6 bd 3d 23 95 8f bd
       -0.06360048 -0.03924408 0.092693724 -0.070108674
0002c0 8b b0 09 bd ce dc 61 3a 4e 30 24 bc cd 3f 93 bd
       -0.03361563 0.00086159713 -0.010021282 -0.071899034
0002d0 3c 90 a1 3d ed 72 2b 3d d0 02 99 3d 0d d2 17 be
       0.07888839 0.04185765 0.074712396 -0.14826222
0002e0 b8 27 0c 3e 46 91 c4 3d 04 d3 d3 bd 51 f0 6f 3d
       0.13687027 0.09598021 -0.103429824 0.058578793
0002f0 4c 13 a2 3d 74 18 44 3d c4 52 9a bd e0 74 19 be
       0.07913837 0.047874883 -0.075353175 -0.1498599
000300 19 a2 8b 3d 2f d6 0c 3c 2e 78 15 3e 61 eb a0 3d
       0.06818027 0.008595987 0.14596626 0.07857395
000310 00 eb b7 3d 84 aa 87 bd 2c a2 be bd 42 b7 e9 bc
       0.089803696 -0.0662432 -0.093082756 -0.028529767
000320 d9 3f 92 bc f4 a8 d9 bd 78 ef eb bd ff 60 f2 3d
       -0.01785271 -0.106279284 -0.115202844 0.11834907
000330 d3 d9 49 bd f6 d8 f4 bd 48 fa 6a 3d d3 ab e6 3d
       -0.04928 -0.119554445 0.057367593 0.112632416
000340 a4 ec f8 bd 8b 4b f5 3d be 4e 81 3c 77 ee ac bd
       -0.121545106 0.11977299 0.015784618 -0.08443921
000350 bc 2f ac bc a0 a5 20 3e 3b ed d7 bd 3b 9a 9f bd
       -0.021018855 0.15688181 -0.10543295 -0.07793089
000360 8f c9 e7 bd 43 96 02 be 8e 99 0f 3e 68 f7 ee 3d
       -0.11317741 -0.12752633 0.1402342 0.11668283
000370 15 e6 cf bd 1a 0e 05 3d 65 fa 09 3e 05 93 c3 bd
       -0.101513065 0.03248415 0.13474424 -0.09549526
000380 18 63 e8 3b 04 3b 6f bc 20 17 fe bd 42 03 bf bd
       0.007091891 -0.014601473 -0.124067545 -0.09326793
000390 09 e4 44 3c 1b a2 e7 bd 96 7b ec 3d 4f 65 cb 3d
       0.012017258 -0.11310216 0.1154701 0.099314325
0003a0 4d 35 5e bc fb 63 40 bd e2 cf 52 bd 61 dc 3f bc
       -0.013562513 -0.04697035 -0.051467784 -0.011710257
0003b0 1f 9b 81 3d 17 36 96 3d 9d 32 ce 3d b5 9c 15 be
       0.06328415 0.073345356 0.100682475 -0.1461056
0003c0 eb da 0c be 83 15 96 3d cf 8e d3 bd 11 2e 06 3e
       -0.13755386 0.07328322 -0.10329973 0.1310351
0003d0 b4 72 0d be de 8f 46 3d 22 aa 7c bd f7 17 30 bc
       -0.13813287 0.048477046 -0.06168569 -0.010747901
0003e0 75 c8 ad bc f4 7d 18 3e de cd 14 3e 90 cf 02 be
       -0.02121375 0.14891797 0.14531657 -0.12774491
0003f0 23 9e 93 3d 20 b5 9f 3d 3d 11 08 be ce 8d 03 be
       0.072078966 0.07798219 -0.13287826 -0.12847063

gru.weight_hh_l0 f4 [144, 48]
000000 06 50 fa 3d ee fb 3f 3d 51 34 8d 3d 3f 90 42 3d
       0.122222945 0.04687112 0.06894744 0.047500845
000010 e1 5a fa bd 1d 73 f7 3d e9 2a 92 bc 4f 4b 2c bc
       -0.12224365 0.12082503 -0.017842727 -0.010516002
000020 af 37 3c 3d d1 04 bd 3c 88 60 f9 bd 56 8d 4d bd
       0.04595154 0.023073586 -0.12176615 -0.050183617
000030 98 59 e2 3d 9a c3 07 3e a2 9f 0a 3e d9 ba 1d 3d
       0.11052245 0.1325821 0.13537458 0.03850827
000040 ca 49 9b bd d9 96 c7 3d 65 c2 8c 3c 7f b2 b2 3b
       -0.075824335 0.09745569 0.017182538 0.0054534073
000050 8b f6 71 bc 86 e9 b5 bd ff 14 be bd 20 97 96 bd
       -0.014768253 -0.08882432 -0.092813484 -0.073530436
000060 23 88 85 bd e5 02 c4 bd 6b c6 bd bc fe f2 7f bd
       -0.06520107 -0.095708646 -0.023165902 -0.062487595
000070 39 7a c1 bd d5 f4 d6 3d c3 62 46 bd c6 d7 e5 3d
       -0.0944714 0.10495917 -0.04843403 0.11222796
000080 aa 31 c5 bd 2a bc 0b 3e 52 ad b2 bd 62 e6 38 bd
       -0.09628613 0.13645998 -0.087244645 -0.045141585
000090 fc 16 bf 3b c4 79 74 bd b4 7e 9a 3c c6 cf 08 be
       0.0058315974 -0.059686437 0.018859245 -0.1336051
0000a0 a4 90 1c be 1a 81 b4 ba fc 84 e5 3d 15 01 0b 3c
       -0.15289551 -0.0013771385 0.112070054 0.008484145
0000b0 10 d6 f5 3c 2f 72 1a bd 84 8a 21 be f2 4b 05 3e
       0.0300093 -0.03770655 -0.15775496 0.13017252
0000c0 4b b6 79 3d 13 c9 08 be af ee fb bc 07 48 05 be
       0.060964864 -0.13357954 -0.030753462 -0.13015758
0000d0 53 fb 0b be 82 a3 17 3d 58 ad ed 3d 2e e5 b6 3d
       -0.13670091 0.037021168 0.11605328 0.08930431
0000e0 18 ab 96 bd c3 6b aa bd 77 de 81 3d 38 c8 79 3d
       -0.07356852 -0.08321335 0.0634126 0.06098196
0000f0 3a 1b 87 3b a6 8c 8a 3d 1d ac d8 3d 37 3c eb 3d
       0.0041231187 0.06765108 0.10579703 0.114860944
000100 40 a2 47 bd dd 12 94 3b 3e b2 b9 3d 5f ae 29 3d
       -0.048738718 0.0045188502 0.090672 0.04142606
000110 22 8d bc 3c 7a f4 a3 3d 9a f0 95 bd 4b 06 15 bc
       0.023016516 0.080056146 -0.07321282 -0.009095739
000120 c0 a4 4b bc a8 21 32 3d cf d4 88 bb f2 3a 55 3c
       -0.012429416 0.04348913 -0.0041757594 0.013014542
000130 50 ef bd 3d 18 ff 01 3e 52 bb 01 3e b2 fc 04 be
       0.09274161 0.12694967 0.12669113 -0.1298702
000140 60 b2 8f bd bc 4e cd 3d 00 48 f3 3d 96 63 78 bd
       -0.07016444 0.10024783 0.11878967 -0.060641848
000150 32 ee 88 bd 96 64 d0 3d 4c 2f 09 3e 6a 7e 70 3d
       -0.06686057 0.10175435 0.13396949 0.058714308
000160 5f b1 66 3d af eb a1 bd 6f 89 c4 bd 51 44 0a be
       0.056321498 -0.07906281 -0.09596526 -0.13502623
000170 c2 4c b2 3d f2 d1 fe bc 4c 5d 6e 3d a7 cc 1c bd
       0.08706047 -0.03110597 0.058194444 -0.03828111
000180 41 6e 01 be e4 a4 d6 bc 23 ea f2 bd 14 ce 53 3d
       -0.12639715 -0.026201673 -0.11861064 0.051710203
000190 ef b7 d7 3c 8e d1 17 3e 26 4c 8a 3d 10 38 c6 bd
       0.026332824 0.14826033 0.067528054 -0.09678662
0001a0 0a 6f da 3d 98 66 f4 bd 39 4e 12 bc f0 dc 14 3e
       0.1066571 -0.11933631 -0.008929783 0.14537406
0001b0 c3 f7 7b 3c 1e 5f 10 bd 93 6a 88 3d 89 2d b2 bd
       0.015378895 -0.03524696 0.066609524 -0.087000914
0001c0 46 ff ee 3d 7a 4e c1 bc 3c d5 0f be ad 11 b8 bd
       0.11669783 -0.02359699 -0.14046186 -0.089877464
0001d0 6e 00 9e bd 7e 92 65 bc bc ba 9d bd d9 78 02 bd
       -0.07714926 -0.014011977 -0.077016324 -0.03185353
0001e0 c8 e4 39 3d 75 b1 0b be 09 91 d3 bc 99 06 95 bd
       0.0453842 -0.13641913 -0.025825994 -0.07276649
0001f0 4e 45 a4 bd c7 8c a8 bd a1 e5 40 3d 2c 8c 9b bd
       -0.08021031 -0.08229976 0.04709399 -0.07595095
000200 4c 24 28 bd f3 98 c9 3d f0 73 1b bd 3a 75 d9 bd
       -0.04105024 0.09843626 -0.037952363 -0.10618062
000210 f5 21 8b 3d b7 98 bc bc 42 79 90 bd 59 0b c8 3d
       0.06793586 -0.023022039 -0.07054378 0.097677894
000220 9e c9 5c 3d c8 aa f7 bd 14 56 db 3d c7 17 6d 3d
       0.053903215 -0.12093121 0.107097775 0.057884004
000230 41 c0 0a bd c9 b2 aa bd d5 44 be 3d 46 87 f0 bd
       -0.033874754 -0.08334882 0.092904724 -0.11744551
000240 c0 a9 73 3d 07 85 bd bd 9b a4 b7 3d 8a 09 92 3d
       0.059488058 -0.092538886 0.08966943 0.07130726
000250 19 ad b5 3d b7 f1 14 be a1 00 07 3e c0 4a 02 3d
       0.088709064 -0.14545332 0.13183834 0.03180957
000260 c7 15 30 3a f5 df 58 3d f4 ff 06 3e d5 7d 8a 3d
       0.0006717112 0.052947957 0.13183576 0.06762282
000270 02 8e 2f bc 07 8e 8d bd a8 23 e3 3b d7 fa 03 be
       -0.01071501 -0.06911855 0.006931741 -0.12888657
000280 bf 16 e2 bd c7 7c 5a 3d 08 95 16 bd 13 d7 0f 3e
       -0.11039495 0.053341653 -0.03676322 0.14046888
000290 39 e7 48 bd 89 3e cf ba 4d 05 ee 3d 5e af e5 3c
       -0.049048636 -0.0015811484 0.11622105 0.028037723
0002a0 11 6d a1 3d ed 01 24 bd 35 fc 13 3c d6 f4 a8 3d
       0.07882131 -0.0400409 0.009032299 0.08249824
0002b0 6a 6d a1 3b 14 3e ca bd 5f ea 16 3e ba ba 09 be
       0.0049263733 -0.09875122 0.14737843 -0.13450137
0002c0 4a 0c b6 3c 84 96 fa 3d 3e 18 1b 3e be 6a 04 3e
       0.022222657 0.1223574 0.15145966 0.12931344
0002d0 a9 a8 bf 3d 18 c7 c9 3d ac ea ca bd 87 b5 6f 3a
       0.09358341 0.09852427 -0.09908041 0.0009144176
0002e0 bf 51 15 3e 73 be 4e bc 5a ed 31 3c f2 2c 2b 3c
       0.14581965 -0.012618649 0.010859812 0.0104477275
0002f0 0f da 45 bd 60 37 e5 bd f6 1b f4 3d c5 6b b5 bd
       -0.04830366 -0.111922026 0.119193956 -0.08858446
000300 00 50 09 3e 13 c2 82 3c b0 96 64 3d c3 a3 b9 3d
       0.13409424 0.015961682 0.05580777 0.09064438
000310 cf 4b 03 3d a6 bf 7d bd f9 2a 7c bd da ea e5 3d
       0.03205472 -0.06195035 -0.06156442 0.11226435
000320 e4 84 f6 bd 8c 98 db 3c d4 f0 8c 3d b0 0f ec 3d
       -0.120370656 0.026806138 0.06881872 0.1152643
000330 d8 5a a8 bc dc 99 75 bd 23 4a f2 bd 57 5a 2f bd
       -0.02055113 -0.059961185 -0.11830547 -0.042810764
000340 81 8a 3e 3d b7 1d cb bd f0 42 10 be 88 65 c8 bd
       0.046518806 -0.09917777 -0.14088035 -0.097849905
000350 22 90 f0 bc 2b 15 c0 bd 78 2e 94 3d d8 24 60 3d
       -0.029365603 -0.093790375 0.07235426 0.054722637
000360 23 c2 1c 3c 85 ac 8a 3d c7 f5 a0 3d 0f 17 01 be
       0.00956777 0.06771187 0.07859378 -0.12606452
000370 6f c8 b9 bd bf db 83 bc 3d 56 0b bd fb 10 c9 bd
       -0.09071433 -0.016095994 -0.03401779 -0.09817692
000380 41 9f a8 bd 07 57 00 3d 52 5b 03 be 7a 60 e3 bd
       -0.082335 0.031332996 -0.12827805 -0.11102386
000390 ac 86 ac bb ab 02 26 bd db b2 f8 3d dc 8b aa bd
       -0.0052650776 -0.040529888 0.12143489 -0.08327457
0003a0 75 62 d9 3c a2 54 f0 3d 75 c7 fb bc f8 5f 08 3e
       0.026536206 0.117348924 -0.030734757 0.13317859
0003b0 83 f4 80 3d 1e 10 97 ba 28 e0 a0 3d c5 76 53 3d
       0.06296637 -0.0011525189 0.078552544 0.05162694
0003c0 7a 9c d7 bc 75 25 fb bd 3d 76 fa bd cf f9 0d 3e
       -0.026319731 -0.12263004 -0.122295834 0.13864826
0003d0 d3 27 f9 bd 86 f6 1c 3c 9f aa b5 3c 17 e3 db 3d
       -0.12165799 0.00958026 0.022176085 0.10736673
0003e0 35 50 ad bd 84 d9 8d bd 26 d7 c4 bd e8 b7 1e bd
       -0.08462564 -0.069262534 -0.09611349 -0.038749605
0003f0 3c d5 dc bd a9 1a 17 3d c0 f6 8b 3d 37 3a ff bd
       -0.10782859 0.03689066 0.06834173 -0.124622755

gru.bias_ih_l0 f4 [144]
000000 b4 98 e0 bd 8e fe 01 3e a7 a7 21 3c bc 7f 68 3d
       -0.10966626 0.12694761 0.009866632 0.056762442
000010 78 28 3b 3d 79 3e 77 3d aa 13 b7 3d b4 e4 f5 3a
       0.04569289 0.060362313 0.089392975 0.0018760175
000020 01 13 c8 3d 70 4c a2 3d 1b b0 eb 3d c3 12 a0 bd
       0.0976925 0.079247355 0.11508199 -0.078160785
000030 0d 96 4d bd a9 55 59 bd 65 69 13 bd b9 0e 01 be
       -0.050191928 -0.053060208 -0.035989184 -0.12603272
000040 67 ee 5b bd 8c 56 10 3e 35 ec dc bb 4c 28 09 3e
       -0.053694155 0.14095515 -0.0067420253 0.13394278
000050 2a 25 f2 bd 33 4d 6a bd 93 97 17 3e 3f 3f 24 bd
       -0.11823495 -0.05720253 0.14803915 -0.04009938
000060 1b 80 84 3d 48 5a 70 3d b2 1e 5e bd f3 dd c2 bd
       0.06469747 0.05867985 -0.054228492 -0.0951499
000070 1c 4e d5 3c 39 ae f4 3d 1f 9d ca bd 88 26 25 3d
       0.026038222 0.11947293 -0.0989325 0.04031995
000080 03 13 12 3d 49 0f bb bd d0 a5 ea 3d d9 dd fd 3c
       0.035662662 -0.09133775 0.114574075 0.030989574
000090 d6 8c f7 3d 6d 42 25 bd de 1c aa bd d0 f2 5e 3a
       0.12087409 -0.04034655 -0.08306287 0.000850481
0000a0 97 3a c0 bd 0e b1 e4 3d 84 a9 04 3e 5f 85 e0 bd
       -0.09386175 0.11166583 0.1295529 -0.109629385
0000b0 8d 88 f8 bd ad 9c 0f 3d 97 c9 c1 3d 2a 7a fb bd
       -0.1213542 0.035061527 0.09462278 -0.1227916
0000c0 c4 10 ef bc f0 bb 02 be 25 b9 07 bd 3c 0d f9 bd
       -0.0291828 -0.12767005 -0.033135552 -0.121607274
0000d0 c5 e3 cc 3d bd a5 e1 bc cb 2d 7e bc 12 6f 4f 3b
       0.10004381 -0.02754485 -0.015513848 0.0031651896
0000e0 f5 1e 99 3d 07 10 cf bd ac 61 10 be 4f f5 af bd
       0.07476608 -0.10110479 -0.14099759 -0.08591711
0000f0 4a a6 b2 3d 00 3c ff bd 0b 41 df 3d 51 25 2b be
       0.08723123 -0.12462616 0.10901078 -0.16713454
000100 9b 2d f1 bd 79 c9 09 bd 46 4e e4 bd 6e e4 80 bd
       -0.11776277 -0.033639405 -0.11147742 -0.062935695
000110 f0 98 17 3e 31 83 c1 3d d0 bd 06 3e 49 ac 0c be
       0.14804435 0.09448851 0.13158345 -0.13737597
000120 83 8e 0a be 42 db 04 be 58 3c c4 bd d3 78 fb bc
       -0.13530926 -0.12974265 -0.09581822 -0.030697262
000130 d8 ac 0a bd 81 2a 84 3c 4e 6b 71 bd ea c5 25 bc
       -0.033856243 0.016133549 -0.058940224 -0.010117987
000140 f6 14 ea bd d4 13 c8 3d 58 4c ba bc 06 7f 0c 3e
       -0.11429779 0.09769407 -0.022741482 0.1372033
000150 f1 a3 96 3d 19 1a f8 bd 0e 91 08 3e 88 95 05 3e
       0.07355488 -0.12114353 0.13336584 0.13045323
000160 d4 ba 96 3c 62 b3 e4 3d f2 c0 b1 3b 11 21 7d 3d
       0.018399633 0.11167027 0.005424612 0.061799113
000170 87 37 4f bb d9 66 ac bd ad fd 0d 3e 6e c3 bc bd
       -0.003161879 -0.08418054 0.13866301 -0.09216963
000180 3f 1e 06 be 63 15 40 bc d9 60 df 3d b7 d7 ac bd
       -0.13097475 -0.011723849 0.10907144 -0.08439582
000190 d5 d5 9d 3c cd ee 9c bd 15 48 bc 3d 71 77 00 3e
       0.019267002 -0.07662735 0.09193436 0.12545563
0001a0 d2 17 99 bc a3 dc 07 3e e9 1c 2a 3e 36 e9 ff bc
       -0.018688116 0.1326776 0.16612591 -0.031239133
0001b0 f0 57 40 3d 87 70 a9 3d e9 a9 cd 3d 25 98 02 bd
       0.046958864 0.08273416 0.100421734 -0.031883378
0001c0 99 d7 0b 3e 10 e9 b0 3d 3c ed 12 3e 1e 49 12 be
       0.13656463 0.08638203 0.1434831 -0.14285704
0001d0 59 fc dd bd 7a 3b 4d 3d 43 fa cd 3d ae ab 28 bd
       -0.10839147 0.05010555 0.10057499 -0.04117935
0001e0 e5 1f d0 bd 8c 03 11 bd 54 13 40 bd 85 ba f5 3d
       -0.101623334 -0.035403773 -0.046893433 0.119984664
0001f0 ae 64 d2 bc 53 04 ee bd 22 65 cc bb 05 ae 00 3e
       -0.025682773 -0.116219185 -0.006237642 0.12566383
000200 92 95 43 bd 6d 05 b9 bd 0c c2 9d bd 03 31 86 3d
       -0.047750063 -0.09034238 -0.07703027 0.06552317
000210 f3 0e 5c bb 8d 59 aa bd 83 12 12 3e 70 34 c8 bd
       -0.0033578246 -0.08317862 0.14264874 -0.09775627
000220 8f 4d a1 3d a2 a4 17 3e 25 ff 2b bd 84 22 9b 3c
       0.07876121 0.14808896 -0.04199137 0.018937357
000230 5b 00 7f 3d 45 d5 15 be 23 5a 94 bb 6d ac db 3c
       0.0622562 -0.14632137 -0.0045273467 0.026815617

gru.bias_hh_l0 f4 [144]
000000 c2 b5 aa bd 4c 05 af 3d 8b 6c 0c 3e 3a b9 71 bd
       -0.08335449 0.08545932 0.13713281 -0.059014536
000010 20 8f 63 bd 4a 2c 44 bd dc c1 dc bd 9a 4e bd 3d
       -0.055556417 -0.0478938 -0.10779163 0.09243508
000020 17 e6 0c be aa fa 93 bd 60 d0 ef 3d 9b 67 f8 3d
       -0.13759647 -0.07225545 0.11709666 0.12129136
000030 a2 18 11 be 09 d7 69 3d 33 d9 b1 bd b3 c9 a8 3d
       -0.14169553 0.05708984 -0.086840056 0.08241596
000040 fa 89 39 3d 4c ea 89 bd 92 ca 5c 3d 87 4c 98 3d
       0.0452976 -0.06734142 0.053904124 0.074364714
000050 bc 2f b6 bc c4 64 81 bc 3d 6a ad 3d f0 23 69 3d
       -0.022239558 -0.01579512 0.08467529 0.05691904
000060 e0 ab 1a 3e aa 98 10 3e 24 f9 d6 3d ab 1a f3 3d
       0.15104628 0.14120737 0.104967386 0.11870321
000070 fa 11 08 bb 61 58 18 bd 9b f0 b8 bd 9f 25 8a 3d
       -0.0020762668 -0.03719366 -0.09030267 0.06745457
000080 1f 33 31 bd b8 bb f1 3d 9e 37 8e 3d de 0e 95 3d
       -0.043261643 0.11803383 0.06944202 0.07278226
000090 d7 6d 92 3d 19 7a 54 3d 9d b9 e6 bc 47 a5 ba 3c
       0.071498565 0.051874254 -0.02816468 0.022783889
0000a0 6e cb ec bd b1 e5 6c 3d f0 ce 0d 3e 4d 10 da 3d
       -0.11562239 0.05783624 0.13848472 0.106476404
0000b0 41 08 24 bd 0d 16 c1 bd 33 2d fa 3c a7 94 11 be
       -0.040046934 -0.09428034 0.03053913 -0.14216863
0000c0 72 87 81 bd c2 5f 47 bd 09 3c 8a 3b 93 54 be bd
       -0.06324662 -0.048675306 0.0042185825 -0.09293475
0000d0 b3 86 00 3e f6 a3 98 bc d5 c4 ec bc 20 0a 8a 3c
       0.12551384 -0.01863287 -0.02890245 0.016850531
0000e0 1d a3 04 be 14 5e 6a 3d 51 e4 10 be 21 d4 99 3d
       -0.12952848 0.057218626 -0.14149596 0.075111635
0000f0 a1 2f dc 3d e1 f1 07 3e 1a 43 af 3d 62 ca 3d bd
       0.10751272 0.13275863 0.085577205 -0.046335585
000100 ea 4b cb 3d 04 c5 16 be b8 a2 ca 3d 24 4c 82 3b
       0.09926589 -0.14723593 0.098943174 0.003976362
000110 4c 68 12 3e 38 eb c6 3d 93 80 da 3c 2b 1c 87 bc
       0.14297599 0.09712833 0.026672637 -0.016492924
000120 f2 73 de bd 73 55 a8 3d ac 6d af bd bc 8f 01 be
       -0.108619586 0.08219423 -0.0856584 -0.12652487
000130 51 5d e9 bd 52 15 f2 bd 4e 75 a9 bd e5 89 9e bd
       -0.11394752 -0.11820473 -0.08274327 -0.07741145
000140 f9 c6 09 be 40 c4 64 bb 2b de 1d bd 7b 95 ad bd
       -0.13454808 -0.0034907013 -0.038541954 -0.08475777
000150 3e 1d 0c 3d 1c 35 ce bc 09 4e e9 bd ec 86 85 bc
       0.034207575 -0.025171809 -0.11391837 -0.016299687
000160 2b 01 f4 3d bb fc 10 be 91 5f a7 3d bb 1e 06 3e
       0.11914285 -0.14158909 0.08172525 0.1309766
000170 15 2d ab bd e4 9d 5d 3b 47 4a 2b bd 8e d9 19 3c
       -0.08358208 0.0033816034 -0.041818883 0.009390248
000180 73 15 90 bd 99 93 86 bd 26 5f a8 bd bc b2 ed bd
       -0.07035341 -0.06571121 -0.08221273 -0.116063565
000190 2c 66 c7 bd 66 0c 5a 3d 7f e8 1c 3d 3b a2 01 be
       -0.097362846 0.05323448 0.038307663 -0.12659542
0001a0 3d de 55 3d 9f 98 d4 bd 66 31 89 3b 9e 4d 99 bd
       0.052213896 -0.10380673 0.004186797 -0.074855074
0001b0 9b 90 04 be f6 f5 17 3d 25 9c 9f bd ab 0c fc 3c
       -0.12945788 0.0370998 -0.07793454 0.03076776
0001c0 72 f2 d4 bc de c3 a0 bd c4 b8 0e be 47 9f 92 3d
       -0.025994513 -0.07849859 -0.1393767 0.07159286
0001d0 39 6a 7d bd 90 a5 40 bd 50 4c f8 3d 44 74 93 bb
       -0.06186888 -0.047032893 0.121239305 -0.004499944
0001e0 ba d0 86 3c e8 53 83 3c 55 cb a6 3b 1b fc 93 3c
       0.01645695 0.01603122 0.005090157 0.01806455
0001f0 4d 38 37 bb 3b b1 f0 bd de 0f c5 bd a2 ae 11 3e
       -0.0027957142 -0.11752554 -0.09622167 0.14226773
000200 8a db f5 bd 7a 25 0f bd 0d 52 15 bd e5 e2 da bd
       -0.120047644 -0.03494785 -0.036455203 -0.10687808
000210 19 c3 10 3e e4 33 be bd b1 71 1d 3e fe 7d 0d be
       0.14136924 -0.09287241 0.15375401 -0.13817593
000220 4d fb bb 3d bb 9e 96 3d 88 17 1c bd b7 62 8a bc
       0.09178791 0.07354494 -0.03810838 -0.016892774
000230 34 df e7 3d 26 0f 88 3d 7c 64 e9 bc d8 a3 d6 3c
       0.113218695 0.06643514 -0.028490297 0.026201174

gru.weight_ih_l1 f4 [144, 48]
000000 32 4e 8f bc 7c ca a9 3d 99 ea d5 bd 8e 58 e5 bd
       -0.017493341 0.08290574 -0.104451366 -0.11198531
000010 b9 ab 3b 3d 0a 6d 2e 3e a2 b4 24 be 5c 1d af bd
       0.045818064 0.17033783 -0.16084531 -0.08550522
000020 6d 90 53 bd c8 57 16 3e 52 68 25 3e 65 43 14 3c
       -0.051651407 0.14681923 0.16153076 0.009049271
000030 6c 70 aa bc 26 d3 aa bc 5d 74 2f bd 47 60 ba bc
       -0.02080556 -0.020852637 -0.042835582 -0.022750987
000040 4b 7e e5 3c 18 85 d1 3d 52 34 53 3d 0f ea a7 3d
       0.028014323 0.10230464 0.05156357 0.0819894
000050 a1 ca b8 3c e3 6e 24 3e 3c f1 b2 bd 25 4d b5 3b
       0.022557558 0.16057925 -0.08737418 0.005532878
000060 20 b5 9e 3d 52 c2 c0 bd 64 1a 78 3d 1d 46 12 bd
       0.077493906 -0.09412064 0.060572043 -0.035711396
000070 07 7c f4 bd 2c 95 81 3d 17 07 c2 3d d3 75 d0 bd
       -0.11937719 0.063272804 0.094740085 -0.10178723
000080 08 93 16 3e fc 9f bc 3c cd 40 ca bd 4d 2f 05 be
       0.14704525 0.023025505 -0.09875641 -0.13006325
000090 c5 16 7b b9 9c d4 be 3d 58 ba 13 3b 43 b2 2a be
       -0.00023945708 0.09317896 0.002254149 -0.16669564
0000a0 73 e6 7b bd d3 30 4c 38 1f ed f3 3d 69 96 f8 bd
       -0.06149907 4.868286e-05 0.11910462 -0.121380635
0000b0 aa 72 a5 39 1c 60 0c bd 3f 3c a1 3d ff 1f f0 3d
       0.00031556684 -0.034271345 0.07872819 0.11724853
0000c0 e0 8e 03 3e 29 89 2e 3d e3 36 5c 3d 7e e2 fb 3b
       0.12847471 0.042611275 0.05376328 0.007686912
0000d0 f1 01 bc 3d fa 13 c5 3c 4f 1b f1 3d 77 b1 10 3d
       0.09180058 0.024057377 0.11772787 0.035325494
0000e0 c1 14 fc 3d 2e 14 b4 bc f6 10 85 3d be 84 d9 3d
       0.12308646 -0.021982279 0.06497376 0.10621022
0000f0 9f 2d cb bd d9 f6 0a be e4 b3 9a 3d c5 3a 03 3e
       -0.09920811 -0.13570727 0.07553843 0.12815388
000100 ca bc 97 3b 49 b8 93 3d be 44 a6 bd 51 36 e6 3a
       0.0046306597 0.07212884 -0.0811858 0.0017563795
000110 25 40 8f bc e9 6d eb bd 6d f1 da 3d 2b 2c 9a bd
       -0.017486641 -0.11495573 0.106905796 -0.075279556
000120 cf fb 02 bd 98 f8 82 bd ae c7 57 bd 86 ef 3d bd
       -0.031978425 -0.06395072 -0.052680664 -0.046371005
000130 bd 2f fc 3d dd 66 60 bd 02 86 c0 3d 71 eb 98 3c
       0.12313793 -0.054785598 0.0940056 0.018666955
000140 5b cd 01 be 12 eb b7 3d 8b 00 58 bd 30 fd 8d 3d
       -0.12675993 0.08980383 -0.052734893 0.06933057
000150 d9 d2 b8 bd e4 99 2a bc ec 8a b8 bd 85 83 02 be
       -0.09024591 -0.010412667 -0.09010872 -0.12745483
000160 0a f0 06 be 92 79 a1 3d e0 68 a9 bd c9 99 d7 3c
       -0.13177505 0.07884516 -0.082719564 0.026318448
000170 92 55 6b 39 3a 9e a3 bc 02 37 0d bd 6f 92 a3 3d
       0.00022443224 -0.01997291 -0.034476288 0.07986914
000180 d0 db e1 bd f3 c8 c2 3c ed 1a 7e bd 6e 0f 23 bd
       -0.11028254 0.02377746 -0.062037397 -0.039809637
000190 46 d3 ef bd 68 da f7 3d 21 aa 18 3e f2 62 39 3d
       -0.11710219 0.121022046 0.14908649 0.045260377
0001a0 80 30 a5 bd 0d ce 93 bd 20 cc 14 3e ce 4f 5d bc
       -0.08065891 -0.072170354 0.14530993 -0.013507796
0001b0 60 a2 42 bd fe 64 ae bd 15 05 13 be b5 d4 fa 3d
       -0.047518134 -0.085153565 -0.14357407 0.12247602
0001c0 cb cc db 3d 3d e4 a4 3d 57 c1 ee bc 6f 05 7e bd
       0.107324205 0.080513455 -0.029144926 -0.0620169
0001d0 6b 04 1e 3e 3a ec a1 bd f1 20 90 bd c6 bd ae 3d
       0.15431373 -0.07906385 -0.07037533 0.0853229
0001e0 dd 25 a2 bd e5 a7 bc bd 5a ab d0 bd 09 b3 12 be
       -0.07917378 -0.09211711 -0.10188933 -0.14326109
0001f0 e3 d3 17 be d6 c2 58 bd 21 20 39 3c 90 20 0e bd
       -0.14826922 -0.052920185 0.011299164 -0.034699023
000200 a8 23 ae bd 4e 37 26 3d cd 0c 1e 3e 0d 5f 0b be
       -0.08502895 0.040580086 0.1543457 -0.13610478
000210 8a 31 21 3d fc b6 f6 bc ac 9a b6 bd 20 8e 61 bc
       0.039353885 -0.03011655 -0.0891622 -0.013766795
000220 2e 7b 01 3e ed b4 e7 bd 94 29 99 3d a8 73 4b 3d
       0.12644646 -0.11313806 0.074786335 0.049670845
000230 b1 90 10 3e b2 49 5e bb 7e 51 ce bd d9 d5 be 3d
       0.14117695 -0.0033918438 -0.10074137 0.09318132
000240 2e 79 e7 3d a5 ae eb bd 2c 3a ca ba e5 e5 34 3d
       0.1130241 -0.1150792 -0.0015428714 0.044164557
000250 fe 4f 8e 3d c1 cc d5 3c 06 f2 17 3e a8 95 16 be
       0.06948851 0.02609861 0.14838418 -0.14705527
000260 77 19 9f bd eb 77 7a 3d e6 9b 0e bd 0a da bd bb
       -0.07768529 0.06114952 -0.034816645 -0.0057938145
000270 99 6d 53 bd e6 c8 b3 bd 61 d1 b3 bd 2b 45 e2 3d
       -0.051618192 -0.08778553 -0.0878017 0.11048349
000280 95 7e 1e bd ed 86 76 bd 7b 81 4b bd 7e 18 87 bd
       -0.038694937 -0.06018727 -0.04968403 -0.065964684
000290 4d 1f fc 3d 1a 11 e1 bd d4 a5 bf 3c b9 ab c3 bc
       0.12310658 -0.1098959 0.023394503 -0.023885595
0002a0 77 65 e0 bd d7 d1 9d 3c fb 4c 5b 3d cf 88 7f bd
       -0.10956853 0.019265098 0.05354021 -0.06238633
0002b0 32 6f ec bd a4 f1 be ba fd 87 41 bd b0 45 b8 bd
       -0.11544646 -0.0014567864 -0.04724883 -0.08997667
0002c0 22 4f e1 bd 33 82 98 bd 7a 2f 90 bd 8e d4 6c 3c
       -0.110014215 -0.074467085 -0.070403054 0.014454974
0002d0 42 90 ad 3d 8a 90 fd 3d 20 4f 13 be dc 06 ee bc
       0.084747806 0.12381084 -0.14385653 -0.029056005
0002e0 17 21 64 3b e8 74 e7 bc b4 a2 42 bd 02 2e c6 bd
       0.0034809762 -0.028253987 -0.047518447 -0.09676744
0002f0 c1 87 75 bd 2a dd 0a bd 5d d3 1c bd af 5b cd bd
       -0.05994392 -0.033902325 -0.03828751 -0.10027253
000300 6c e4 8f 3d ae 70 fa bd 4b eb dd bd 19 38 ed 3d
       0.0702599 -0.12228523 -0.10835894 0.115829654
000310 1e f8 a5 bd 11 54 ec 3d 24 49 d3 3b 00 d0 90 3d
       -0.08103965 0.11539472 0.006447928 0.07070923
000320 34 dd fc 3d c3 e4 19 be 18 57 32 3d 0c 6d 97 3d
       0.12346879 -0.15028672 0.04354009 0.07393846
000330 f8 ea ae 3d 9f d1 b6 bd 5a 19 10 bd 79 0a ef bc
       0.085409105 -0.08926701 -0.035180427 -0.029179798
000340 17 5c 73 bc 95 70 d3 bd ea 6a c5 bd 15 1b 9c 3a
       -0.014853499 -0.10324208 -0.09639533 0.0011909927
000350 8f c9 9e 3c f0 df 06 3d 87 7f fa bd f1 ef 1c be
       0.01938322 0.032928407 -0.12231355 -0.15325905
000360 43 e5 45 bc da d2 af 3c 42 61 e3 ba 56 9b 0d 3c
       -0.012078586 0.021462847 -0.0017347711 0.008642992
000370 62 98 b8 bd 96 a0 d3 bd 6a d0 3e bc 0d 1e ef bc
       -0.0901344 -0.10333364 -0.0116463695 -0.029189134
000380 9b 94 3a 3c c0 9c 9e 3c b7 d1 02 3e dc 13 ab 3d
       0.011387969 0.019361854 0.12775312 0.08353397
000390 34 c2 af 3d 29 2a 8d 3c 69 4c 68 3d bd 04 0b 3e
       0.08581963 0.017232018 0.056713495 0.13576026
0003a0 97 29 11 bd db b4 80 3c a4 aa 81 bd cf 80 aa bd
       -0.035440054 0.015711239 -0.06331375 -0.083253495
0003b0 cd c1 f8 bd f6 4e e3 3d bd 09 b0 bd 50 36 dc bd
       -0.121463396 0.11099045 -0.085956074 -0.10752547
0003c0 3e 90 fd bc e4 8f b4 3d 86 3e ce 3d 79 7b 88 3c
       -0.03095257 0.088165075 0.10070519 0.016660439
0003d0 97 21 22 bd 59 96 8d bd e3 2e 15 bd d2 fb 88 bd
       -0.039582815 -0.06913442 -0.036421668 -0.06688656
0003e0 b3 b5 0b bc 5e c3 ef bd 74 eb 0f be 9f d9 8f 3d
       -0.008527207 -0.11707185 -0.14054662 0.0702393
0003f0 4e af cb 3d 1c 90 f0 bc 80 3c 1c 3d 25 86 36 bd
       0.09945546 -0.029365592 0.038143635 -0.044561524

gru.weight_hh_l1 f4 [144, 48]
000000 f9 34 30 3d 64 4c 1c bd 40 66 14 be 5f 0a 60 bd
       0.04301927 -0.03815879 -0.1449213 -0.05469739
000010 83 f1 b3 3d 9f ec c4 3d 8f aa a1 bd d4 47 ad 3d
       0.08786299 0.096154444 -0.078938596 0.08460966
000020 c5 b4 7a bd a9 e1 2f 3e 9b 1d 74 3a 7d 43 4d bd
       -0.06120755 0.17175926 0.0009312273 -0.05011319
000030 2d 7b 33 3d 66 4d 0e 3d 06 79 a7 bd d9 0a 21 3c
       0.04381864 0.03474178 -0.0817738 0.009829246
000040 88 eb 23 3d 85 a2 e6 3c 7f a3 69 bd 0a f3 55 bd
       0.040019542 0.028153667 -0.057040688 -0.052233733
000050 b2 d4 df 3d 7e af 46 bd 25 6b 2d 3e d3 13 23 bc
       0.1092924 -0.048507206 0.16935404 -0.009953457
000060 70 61 b5 bc 1c c2 5f bd 8c dc 59 bd ca 68 e9 bd
       -0.022141188 -0.054628477 -0.053188846 -0.1139694
000070 79 45 e7 bd 66 79 6e 3c a3 8d 54 3d 4a 37 b4 3d
       -0.11292548 0.014555311 0.051892888 0.08799608
000080 8d ef 4e 3d cb 21 d0 bd ef da 01 3e d4 f4 8c 3d
       0.050521422 -0.101626955 0.12681173 0.06882635
000090 40 92 d5 bd 37 83 39 3e 30 d3 a2 3d 13 d3 d3 bd
       -0.104282856 0.1811646 0.07950437 -0.103429936
0000a0 86 9f 20 be f4 55 1f bd 6f 68 9b bd 96 f4 11 3e
       -0.15685853 -0.03890033 -0.075882785 0.14253458
0000b0 3b ea 81 bc e8 95 64 bd a3 cc d2 bb 1e 56 28 bd
       -0.01585876 -0.055807024 -0.006433086 -0.041097753
0000c0 7f 9e a1 3a 4f 90 11 bd c1 31 ea 3d 07 d1 10 3c
       0.0012330561 -0.035538014 0.11435271 0.0088388985
0000d0 c8 a4 e3 bd 27 88 a1 3d 86 42 0c bd ec 89 4d 3d
       -0.11115414 0.07887297 -0.03424313 0.05018036
0000e0 02 3f bd bc eb 5d cf bc a0 36 fa 3d 12 42 62 3c
       -0.023101334 -0.025313338 0.1221745 0.013809698
0000f0 90 53 af bd af 01 a9 3d 2f de 0e bb f0 fb 93 bd
       -0.0856086 0.08252274 -0.0021799912 -0.07225788
000100 ce 40 f1 bd f8 50 eb 3d a3 78 eb 3c 61 ad 80 3d
       -0.11779939 0.11490053 0.028744048 0.062830694
000110 9a b2 bb 3d 57 fb 73 3d ec 57 ba 3d 37 1b c4 bd
       0.09164925 0.05956587 0.09098801 -0.09575503
000120 46 f9 8e 3d 41 d4 60 3d 1c 06 0c 3d 38 98 a9 bd
       0.06981139 0.05488992 0.034185514 -0.082809865
000130 6d ce 9b 3d 63 a9 cb 3d 6d 26 dd 3d 14 ed 39 3b
       0.07607732 0.09944417 0.10798345 0.002837007
000140 2c ed 14 3e 01 e6 3a bd 4a 5a 34 bd 65 8e 9f 3c
       0.14543599 -0.045629505 -0.04403142 0.019477079
000150 f3 43 d0 bd 36 51 81 3d 71 68 aa bd e4 c5 0f be
       -0.1016921 0.06314318 -0.08320702 -0.14040333
000160 43 0e 60 3d 85 46 0c be 85 b7 cf 3d 09 ef 97 bd
       0.0547011 -0.13698776 0.101424254 -0.07418639
000170 9d 80 f8 bd 98 f0 ab bd d8 74 8c bd 73 04 0a 3c
       -0.12133906 -0.08395499 -0.06858224 0.008423912
000180 46 4b 82 bd 70 6c 52 bd 69 9f eb bc f6 50 2d bc
       -0.063620135 -0.051372945 -0.028762536 -0.010578385
000190 cf 73 1a 3e 8d 72 8c bd 3b 50 c8 bc 4c ff e9 bd
       0.1508324 -0.06857786 -0.02445232 -0.11425647
0001a0 61 c5 90 3d c2 fd 8e 3d 18 be e5 3d 71 57 9e 3d
       0.07068897 0.06981994 0.11217898 0.07731522
0001b0 db 9e c3 3d 40 35 97 3d ba 15 d5 bd c7 7b ea 3d
       0.09551784 0.073832035 -0.10404535 0.1144939
0001c0 a5 bd ac bd 1f ce 5e bd b8 cc 07 3e b4 e8 a2 3d
       -0.08434609 -0.05439579 0.13261688 0.07954541
0001d0 6b f8 d0 3d 35 19 e2 3d a2 3e d3 bd 53 2a b9 3d
       0.10203632 0.11039964 -0.10314681 0.09041276
0001e0 f2 83 9c 3d 28 c4 1f 3e c3 fe cc bd c4 fd 8c bc
       0.07642354 0.15602171 -0.100095294 -0.017210849
0001f0 0a 34 b4 bc 80 7b 41 bb 66 1e ab bc 13 09 0b bc
       -0.02199747 -0.0029523075 -0.020888519 -0.00848605
000200 93 72 b8 bb 4b 6d d8 3d cf a7 38 3d 84 43 77 bd
       -0.0056288927 0.10567721 0.04508191 -0.060367122
000210 ed 47 a8 bd 1d 90 09 3e 3b a1 30 3b 7e 89 e6 3d
       -0.08216844 0.13433881 0.002695157 0.11256693
000220 a2 2f a9 bd 44 14 a8 3d 70 7f 14 be f8 1d 5d 3d
       -0.08261038 0.0820699 -0.14501739 0.05398366
000230 f0 38 33 bc a6 b3 64 3d 11 ec 16 be 57 92 0b bc
       -0.010938868 0.05583539 -0.1473849 -0.008518777
000240 93 e2 c2 3c 4d 2f a4 3b 9c e9 a1 3d dd 11 ed bd
       0.02378968 0.0050105215 0.079058856 -0.11575673
000250 c2 77 96 bd 95 19 bc 3d b1 65 98 3d 66 37 4f 3d
       -0.07347061 0.09184567 0.07441271 0.05058994
000260 67 03 0c be 51 f8 2a 3d 7e 77 07 be d9 54 91 3c
       -0.13673173 0.04174072 -0.13229176 0.017740654
000270 cc 52 f8 3b 74 72 b9 3d 77 40 45 3d 6b 8a 81 bc
       0.0075782295 0.09055033 0.04815718 -0.015813073
000280 04 e0 9e 3d 79 a8 c1 3d 95 f9 13 bd f0 ec 21 bd
       0.07757571 0.09455962 -0.03612669 -0.0395326
000290 65 06 d4 bd 90 a2 8a bd 55 e4 1f 3d 98 31 fd bb
       -0.10352782 -0.067692876 0.039036114 -0.0077268593
0002a0 6b dd 1a 3b 5a a3 ca bd 5b 93 ce bc 45 58 98 bd
       0.002363051 -0.09894438 -0.025216749 -0.07438711
0002b0 7e 34 14 be 61 ca 66 3d 43 be d2 bd 34 0d 29 3d
       -0.14473149 0.056345347 -0.10290196 0.041272357
0002c0 20 6d 54 3c 7f 11 55 3d cb 29 d4 bd 79 18 28 3e
       0.012965471 0.05201864 -0.10359534 0.16415586
0002d0 89 2b fb bc 4f 9b f2 bd 73 9d 2d 3d 4a 04 49 bd
       -0.030660408 -0.11846029 0.042386483 -0.049076356
0002e0 9d 5f dd bd 23 3d b0 3b 8c 96 05 3e 2f 55 35 3d
       -0.108092524 0.005378382 0.1304571 0.04427069
0002f0 bd 98 19 3e 34 0a 8f bd 5d 24 c4 3d 11 5d 00 3e
       0.14999671 -0.06984368 0.09577248 0.12535502
000300 6a b1 c2 3d 17 dd 9e 3d ec 12 27 3d c6 a3 22 bd
       0.09506495 0.07757013 0.04078953 -0.039706968
000310 7d d2 42 3d 8f eb 06 3e ff b1 a7 bd c3 41 ed b9
       0.04756402 0.13175796 -0.08188247 -0.0004525316
000320 2a f3 8c bc 2e 22 8b bd 4d 7e fc 3d a8 ae d9 bd
       -0.017205793 -0.06793629 0.123287775 -0.10629016
000330 7f c2 b6 bd 09 fb 3b bd 38 42 c5 3d 7b 7d e7 3c
       -0.08923816 -0.045893703 0.09631771 0.028258076
000340 71 5f 9d 3d fa 64 0a 3d bb 8d 18 3d 21 ad b1 ba
       0.0768422 0.033787705 0.03724454 -0.0013555625
000350 da a2 ac 3c 28 af 0d be c9 8a f1 3d 22 57 0c 3d
       0.021073747 -0.13836348 0.11794049 0.034262784
000360 76 15 0e 3e 99 c4 ee 3d b2 4f 8f 3d c7 ed 12 3e
       0.13875374 0.11658592 0.069976225 0.14348517
000370 57 7d 22 3d 93 0a be 3d 0a 45 47 3d 54 63 07 be
       0.039670315 0.092793606 0.048649825 -0.13221484
000380 bc a7 05 be 7d fe 77 bb c2 6b 95 bd 9b f2 8b bc
       -0.13052267 -0.0037840896 -0.07295944 -0.017083457
000390 dc f9 3e 3d 11 40 25 3b 0c ae ad 3c 23 dc 67 3d
       0.046625003 0.0025215189 0.021201156 0.056606423
0003a0 28 5e 47 3d d3 51 cc bd 00 7c 51 bd 09 9b b1 3d
       0.04867378 -0.09976544 -0.051143646 0.08672149
0003b0 a6 f2 fc 3c 93 0d 33 bc 69 59 02 bd 3c 90 37 bd
       0.030877423 -0.010928529 -0.03182355 -0.044815287
0003c0 63 76 e3 3d 6c 01 df 3d 7e 24 ef bd 6d 2e a9 3d
       0.11106565 0.10888943 -0.11676882 0.08260808
0003d0 66 ca a0 3d d5 db a8 3d d6 3a bd 3c 69 50 b2 3d
       0.078511044 0.08245055 0.023099344 0.08706743
0003e0 fc b5 6f bd 4c 84 47 3d 2b 74 df 3d a9 ff f2 bc
       -0.058523163 0.048710153 0.10910829 -0.029662924
0003f0 f1 e6 d5 bd 6c fd d7 bd 7a 24 13 bd 0c 52 46 bd
       -0.10444439 -0.10546383 -0.03592346 -0.04841809

gru.bias_ih_l1 f4 [144]
000000 77 ef 1a 3b 0d 3a ca bc cb 7f 66 3d 22 f6 cc bd
       0.0023641267 -0.024685884 0.056274217 -0.100078836
000010 c1 57 cd 3d 29 e0 0d be 28 58 fb 3d cc 3e 70 bd
       0.10026503 -0.13855042 0.12272674 -0.058653638
000020 45 46 a7 bc 52 71 d5 3d f4 00 ac bd dd 02 67 bd
       -0.02041925 0.10422005 -0.08398619 -0.056399215
000030 28 e3 b6 bd 45 fb e5 3c 04 be 74 bc 1e f3 92 bd
       -0.08930045 0.028073916 -0.014937881 -0.07175277
000040 ca 53 bc bd 6e 9e 27 3d bd fe cd 3d dd 9e 0c 3e
       -0.09195669 0.040922575 0.10058353 0.13732477
000050 1e 6e 86 bd 51 5a 87 bd aa 54 45 bc 36 f3 e7 bc
       -0.06563972 -0.06609023 -0.012044111 -0.028314214
000060 7c 32 da bd 0a c0 1e bd 29 fc 1d bd f3 d7 b7 bd
       -0.106541604 -0.03875736 -0.038570557 -0.08976736
000070 68 73 81 bd a5 07 7a bb 44 26 c9 3d 22 64 cc bd
       -0.0632084 -0.003815153 0.09821752 -0.09980036
000080 98 c9 89 3d c9 db 89 bd 5a 23 8c 3d 9e f8 8c 3d
       0.06727904 -0.06731374 0.0684268 0.068833575
000090 5f 75 6a bc e1 a9 04 be b3 3e fe bd 7d f7 e9 bd
       -0.01431021 -0.12955429 -0.12414303 -0.11424158
0000a0 4d e7 0a be 00 b6 d1 bd 16 11 85 3c 6c 61 90 3d
       -0.13564797 -0.10239792 0.016243499 0.07049832
0000b0 82 4b a2 b8 11 9d 89 bb c8 49 f2 bd d2 26 6b 3d
       -7.7388264e-05 -0.004199632 -0.11830479 0.05741007
0000c0 52 36 af bd 4a b5 76 bd fa af ca 3c 39 32 a3 bd
       -0.08555283 -0.060231484 0.024742115 -0.079685636
0000d0 48 4d da bd 68 4e 06 be 56 b0 52 bc 84 f1 90 bd
       -0.106592715 -0.13115847 -0.012859425 -0.070773154
0000e0 9c fa a2 bd b3 e7 89 bd 6e d5 25 be 82 51 bd 3d
       -0.07957956 -0.06733646 -0.16194698 0.09244062
0000f0 3f 18 ec bd 45 45 be 3d 9d 0f 04 3e 26 6e 99 bc
       -0.11528062 0.09290556 0.12896581 -0.01872928
000100 ac 98 d3 bd 90 1e 01 be f9 6b d1 3d bf 9b bf 3d
       -0.10331854 -0.12609315 0.10225672 0.09355878
000110 4e 0f 09 be c6 4d 7d bd 6e 4b 0f bd 94 16 e3 bd
       -0.13384745 -0.06184175 -0.034984045 -0.11088291
000120 0a f3 e8 3d b0 7a a2 3d d4 f4 11 3e ca a3 08 3e
       0.11374481 0.07933557 0.14253551 0.1334373
000130 0d e4 4e 3d 81 21 03 3e ee ab 4b 3c 4b 91 d3 3d
       0.050510455 0.1280575 0.012431128 0.10330447
000140 50 45 5a bd cf 18 99 3b 00 30 c0 3d 35 59 24 3d
       -0.053288758 0.004672147 0.09384155 0.040124137
000150 83 86 dc 3d 8a 57 fd bd e7 ea d1 bd 23 e9 f5 3c
       0.107678436 -0.123702124 -0.10249882 0.030018395
000160 cc fc 03 3e dd 95 18 3e 92 86 d7 bd 14 3d 24 bb
       0.12889403 0.14900918 -0.10523714 -0.002506082
000170 7c 1f 0c bd 3a b8 3c 3d 86 c1 8b bd 1a 0f 70 bd
       -0.034209713 0.04607413 -0.06824021 -0.058608152
000180 ea a1 17 3e e6 bb 98 bc c0 67 98 bb 21 c3 f0 3c
       0.14807859 -0.018644284 -0.00465104 0.02938992
000190 a7 be 61 bd 3f 79 f1 bd 5e 08 43 bc 6e 16 12 bd
       -0.05511346 -0.11790704 -0.01190385 -0.035665922
0001a0 3e d0 9b 3d 27 4e e7 3c cf 9a 7f 3d 27 f0 18 3b
       0.076080784 0.028235508 0.062403496 0.0023336501
0001b0 73 fa 08 3e 66 27 18 3e ef dd 12 3e c3 45 e4 bc
       0.13376789 0.1485878 0.14342473 -0.027865296
0001c0 43 e6 26 3e 38 c5 94 bd 48 56 06 3e f2 9c 48 3d
       0.16298775 -0.07264179 0.13118851 0.0489778
0001d0 68 60 e8 bc 96 58 c1 3d 59 11 2c bd 99 7e b3 3d
       -0.028366283 0.094407246 -0.04200873 0.08764381
0001e0 ee e7 80 bd 3e f8 8c bc 39 a8 ce 3c 28 8b 1c be
       -0.06294237 -0.017208215 0.0252267 -0.15287459
0001f0 70 a1 0e 3e 05 34 55 bd cd 18 e2 bd f5 b0 51 bb
       0.13928771 -0.052051563 -0.110398866 -0.0031996344
000200 48 ca e2 3d 7b c5 43 3d b3 d8 e8 3d 04 b2 fe 39
       0.11073738 0.047795754 0.11369457 0.00048579287
000210 b0 19 b3 bc a6 ce 11 3e 87 7b 04 be 59 e3 ea bd
       -0.021862835 0.14238986 -0.12937747 -0.114691444
000220 20 2e 47 3d bc 58 00 be 99 8b 21 bd 28 ed da 3d
       0.048627973 -0.1253385 -0.03943977 0.10689765
000230 9c d6 40 bd 05 22 12 be 65 db ac bd 1d 51 25 bb
       -0.047079667 -0.1427079 -0.08440284 -0.002522535

gru.bias_hh_l1 f4 [144]
000000 ae d9 aa bc 00 16 00 3e 0c b4 d9 3d 52 9c bc bd
       -0.02085575 0.12508392 0.10630044 -0.09209503
000010 dd 63 e8 3d 81 ba a5 bb 51 66 4d bd fc 6a e2 3b
       0.113471724 -0.0050576334 -0.050146405 0.006909726
000020 09 b0 dd 3d 11 58 cb 3c b4 2d 80 bc bb 1e 94 bd
       0.10824592 0.024822267 -0.015646793 -0.07232424
000030 ab 71 0c 3d 88 21 0b 3d 40 98 21 be 2f ab 18 3d
       0.03428809 0.033967525 -0.15780735 0.03727263
000040 5e d8 1e be e4 50 02 be 38 de e5 bd a7 26 97 bd
       -0.15512225 -0.1272617 -0.112240255 -0.07380419
000050 15 93 79 bd d2 e8 ae bd a0 ca cb bd 64 e0 c6 3d
       -0.060931284 -0.08540501 -0.09950757 0.09710768
000060 73 7b 91 bd 32 9b 5a bd 8d 3d 11 be c8 90 d3 3d
       -0.07103624 -0.053370662 -0.14183636 0.10330349
000070 7b 22 ba bd 75 31 9f 3d 96 61 d3 3d f5 1e 8e bd
       -0.09088608 0.07773105 0.103213474 -0.06939498
000080 11 4c b2 3c bf a7 e2 bd a1 38 dd 3d cd d6 2c 3e
       0.021764787 -0.11067151 0.10801817 0.16878815
000090 7d 4b ec bd f4 36 b6 bc b7 57 7e bd 56 2b 86 3d
       -0.11537836 -0.022243 -0.06209537 0.065512344
0000a0 68 35 cd bd 83 ed 57 3d 42 9e 77 3d 62 09 89 3d
       -0.10019952 0.052716743 0.06045366 0.06691243
0000b0 b3 bd bf bb 86 9b 17 3d 96 9a c2 bd 56 e1 ca 3d
       -0.0058514713 0.037013553 -0.09502141 0.09906261
0000c0 c6 03 f5 3d d4 a7 a9 3d 8f c6 14 bd fb 23 69 3d
       0.1196361 0.08283964 -0.036322173 0.05691908
0000d0 35 f7 32 bb a3 68 e1 bd a6 8c d8 bd e7 9c d4 3d
       -0.0027307991 -0.11006286 -0.105737016 0.10381489
0000e0 6a cf a1 bd 2d ca ca bc 22 03 c7 bd 7f ab 72 3d
       -0.07900889 -0.024754608 -0.097173944 0.059245583
0000f0 13 3c aa bd e1 96 9b bc 93 51 3c 3d 7a 8a fb bd
       -0.083122395 -0.018992843 0.045976233 -0.12282272
000100 36 06 21 bd be fd b8 bd a4 88 05 be 51 96 cc bd
       -0.039312564 -0.090327725 -0.13040406 -0.09989608
000110 3b 0e 88 3d c2 a7 fa 3d 82 91 ac 3d 92 18 49 bd
       0.06643339 0.122390285 0.08426191 -0.049095698
000120 a3 bd d2 bc f5 7f 71 3c 66 dd 93 bd be 1b 48 bd
       -0.025725191 0.01473998 -0.07219963 -0.048854582
000130 7d 9b 0d be 64 6b 06 be f6 41 8b bb b6 18 de bd
       -0.13828845 -0.13126904 -0.0042498065 -0.10844557
000140 ff d1 db bd ab 08 11 be 1e 81 1a be 7b 4e f5 bd
       -0.10733413 -0.14163463 -0.15088317 -0.119778596
000150 18 09 9f 3d 45 ce 72 bd 8e 5b dd bb 3c 43 3f 3c
       0.07765406 -0.059278745 -0.006755299 0.011673745
000160 d4 4f 0c bc 46 d9 34 3c 81 9e 07 3e 17 6d 30 3c
       -0.008563954 0.01103813 0.13244058 0.010768197
000170 e8 d2 9a 3d e5 bd ad bd 92 1f 9c 3d 21 f5 19 bd
       0.075597584 -0.08483485 0.07623209 -0.03758729
000180 02 74 2c 3e 06 9e 9b bd 0c c0 14 bd 15 60 04 be
       0.16841128 -0.075985 -0.036315963 -0.12927277
000190 ee 14 4d bd 8a 34 e7 3c 0c f2 02 be e1 31 19 be
       -0.05006879 0.028223295 -0.12787646 -0.14960434
0001a0 12 0f 04 3e 55 59 1c 3e 9f 6f b4 bb 20 46 cf bd
       0.12896374 0.15268452 -0.0055064703 -0.10120797
0001b0 43 27 01 3e 8c a2 28 bb d6 57 08 be 51 af 0b be
       0.12612633 -0.002573165 -0.13314757 -0.13641097
0001c0 f3 da ee 3d 4f e5 02 bd 9e 6c 0d 3e fc 4d ac 3d
       0.11662855 -0.031956967 0.13810965 0.08413312
0001d0 99 79 00 bc c1 14 f8 bc dc 01 9a 3c 38 4e fc bc
       -0.007841491 -0.030283334 0.018799715 -0.030799016
0001e0 cf 00 23 3d 74 e6 c0 3c 95 d3 c3 bd d5 21 6c 3b
       0.039795693 0.023547389 -0.095618404 0.0036030908
0001f0 c4 3d e9 bd 31 54 84 3d fa 76 14 bd 8d cf 15 3c
       -0.11388734 0.06461371 -0.036246277 0.009143722
000200 05 a8 d2 bc 8d f8 e3 3d 19 34 eb bd 00 c7 1d 3d
       -0.025714884 0.11131392 -0.11484546 0.03851986
000210 57 d4 16 3d ee 9d ef bd 6b 3d 47 3b 70 67 82 3d
       0.036823597 -0.117000446 0.0030401598 0.063673854
000220 6e 46 a2 3d 07 3e a6 bb 45 f5 68 3c b8 87 0d bd
       0.0792359 -0.005073312 0.014218633 -0.03455326
000230 3f d7 b7 3d 54 b1 07 be 0c 6c 9c bd 5a 14 ce 3a
       0.08976602 -0.13251239 -0.07637796 0.0015722618
