Project testing/models/autoencoderMean192.pth (torch, 291638 bytes, 16 tensors)

encoder.0.weight f4 [32, 18]
0.10497763 0.33510137 0.13205783 -0.12117204 0.031239776 0.061187588 -0.21020421 0.13718294
-0.2865721 0.15657207 -0.07367283 -0.1335633 -0.10106595 0.45662472 0.119708054 0.21941184
0.08935385 0.12797555 0.2118546 -0.026449416 -0.032131236 0.10045936 -0.10176709 0.072889194
-0.19877468 0.08626856 -0.10647988 -0.11716 0.16691016 0.06546432 0.17405164 0.30465227
-0.00048292291 0.11389737 0.056319542 -0.48760042 -0.60510343 0.3774898 0.091369934 0.2467776
-0.31121355 0.15026036 0.3036711 0.050474737 -0.06611702 -0.10622192 -0.4236362 0.030100953
-0.08465023 0.18761677 0.4555238 0.060622197 0.17512013 -0.023632443 0.27613655 0.010538681
-0.04773716 -0.10956228 -0.2349335 -0.07610216 0.23262264 -0.14262773 -0.050389387 -0.030919533
-0.11256373 0.1196866 -0.54905075 -0.3176701 -0.12827677 0.11267463 0.05747895 -0.59876156
-0.1240952 0.028906478 0.05307281 0.032240637 -0.14813371 0.014526074 0.48987707 0.18072844
-0.1107622 0.21393803 0.07635723 0.13236237 -0.4659352 -0.0090383 -0.08396606 -0.029618548
-0.42190436 -0.4324141 0.41070816 -0.020004245 0.08262465 -0.5360096 -0.25798056 0.029380884
-0.08914144 0.2752641 0.09503738 0.23000364 0.17005363 0.14426135 0.023448624 0.22140148
-0.23373196 0.090384 0.10419495 -0.3941774 -0.34443524 0.041777056 -0.020107603 0.3023744
0.2897156 0.04657265 -0.09271539 0.44554147 0.11814213 -0.27138576 -0.12279086 0.07555715
-0.45694157 0.33438182 -0.24470912 0.18086343 -0.009379945 0.22533317 -0.4864148 0.21656227
0.049952675 -0.11285384 -0.020767374 -0.015886592 -0.08685189 0.18620205 -0.03118079 -0.1786469
0.18312857 -0.048800386 0.6194285 0.18246588 0.10569567 -0.08772933 -0.42653146 0.03351032
-0.05733616 0.26660925 -0.03555229 -0.32652566 -0.20647444 0.16456151 -0.04134353 0.25980183
-0.120147765 -0.43812782 0.0039918255 -0.01445826 -0.068829626 0.021768903 0.14997621 -0.04781957
0.24997833 0.20091525 -0.3692837 -0.11924306 -0.03329534 0.072526515 0.013651141 0.07622151
0.23476121 -0.16965158 0.07597255 -0.049840376 0.20087239 0.028420737 0.10109862 -0.15947363
-0.36588684 -0.6052963 -0.28658575 -0.29657188 0.32516754 -0.15018687 -0.17888199 0.25566456
-0.33381677 -0.024246305 -0.1933902 -0.23586442 0.083236404 0.34609073 -0.22501555 -0.022123719
-0.20836347 -0.022831194 -0.22891816 -0.10560879 -0.42595842 -0.08353988 -0.08377659 0.24611983
0.0008081697 0.15085316 -0.22323307 0.08392461 -0.3176392 -0.053201567 0.030670114 0.28823516
0.06959252 -0.0574531 0.12896894 0.08600128 0.21383707 -0.33102658 0.021856248 -0.049757384
-0.45029822 0.2097329 -0.12762623 -0.41771752 -0.16322035 0.08763184 0.33406562 0.12591933
0.016166788 0.34963557 -0.15655601 0.06196237 0.29464063 -0.059104156 -0.28126547 0.48402405
-0.5836852 -0.0025773316 0.15203418 -0.28386098 -0.00426585 -0.11171629 -0.03975136 -0.23614974
0.18661503 0.07538809 -0.05940163 -0.27377954 0.24888405 0.08756529 -0.07984314 -0.16772285
-0.45805517 0.61633337 0.021422537 0.13810866 0.44091794 0.08622898 -0.026729314 0.45659134
00000000: 83fe d63d 6892 ab3e 2b3a 073e 0c29 f8bd
00000010: 8fea ff3c d69f 7a3d c63f 57be af79 0c3e
00000020: 94b9 92be 6e54 203e c8e1 96bd d1c4 08be
00000030: aafb cebd b7ca e93e 7f29 f53d 7fad 603e
00000040: 27ff b63d 060c 033e 6af0 583e 72ac d8bc
00000050: 0b9c 03bd a3bd cd3d 446b d0bd ee46 953d
00000060: 978b 4bbe 92ad b03d 2012 dabd 95f1 efbd
00000070: 7fea 2a3e 2812 863d 983a 323e 62fb 9b3e
00000080: d130 fdb9 0643 e93d 52af 663d c3a6 f9be
00000090: 0fe8 1abf 5846 c13e 2920 bb3d 44b3 7c3e
000000a0: 6257 9fbe dadd 193e c77a 9b3e 99be 4e3d
000000b0: 5c68 87bd e18a d9bd d8e6 d8be 4696 f63c
000000c0: 1a5d adbd 9c1e 403e 6a3a e93e fb4e 783d
000000d0: b152 333e d398 c1bc c561 8d3e 6faa 2c3c
000000e0: 0a88 43bd 3062 e0bd 6892 70be 73db 9bbd
000000f0: a134 6e3e 010d 12be 1a65 4ebd f64a fdbc
00000100: d087 e6bd 401e f53d 978e 0cbf a8a5 a2be
00000110: fc5a 03be f5c1 e63d 0c6f 6b3d 7048 19bf
00000120: a025 febd 47cd ec3c e062 593d c20e 043d
00000130: 5db0 17be c5fe 6d3c 2bd1 fa3e e010 393e
00000140: 4bd7 e2bd 9212 5b3e 2e61 9c3d 008a 073e
00000150: 0f8f eebe 6115 14bc 66f6 abbd 99a2 f2bc
00000160: d903 d8be 6265 ddbe 5748 d23e f1df a3bc
00000170: 1d37 a93d ed37 09bf 0716 84be 2eb0 f03c
00000180: ca8f b6bd 6bef 8c3e f5a2 c23d 1386 6b3e
00000190: 8a22 2e3e 3fb9 133e 5417 c03c 12b7 623e
000001a0: 6e57 6fbe 3f1b b93d 2964 d53d 9fd1 c9be
000001b0: d159 b0be 6b1e 2b3d b3b8 a4bc d1d0 9a3e
000001c0: 9a55 943e f7c2 3e3d 91e1 bdbd 031e e43e
000001d0: 80f4 f13d 13f3 8abe c679 fbbd b5bd 9a3d
000001e0: 3ff4 e9be 1834 ab3e 0795 7abe 4334 393e
000001f0: 57ae 19bc bdbd 663e 5c0b f9be 80c2 5d3e
00000200: 2d9b 4c3d ea1f e7bd 5720 aabc 9924 82bc
00000210: 67df b1bd c0ab 3e3e db6e ffbc 37ef 36be
00000220: 0e86 3b3e eae2 47bd de92 1e3f 56d8 3a3e
00000230: f976 d83d 6fab b3bd 5562 dabe 1e42 093d
00000240: 52d9 6abd 0281 883e 479f 11bd 5f2e a7be
00000250: 096e 53be d082 283e d557 29bd bf04 853e
00000260: 0810 f6bd 4a52 e0be dccd 823b 56e2 6cbc
00000270: 8cf6 8cbd b354 b23c 5d93 193e 74de 43bd
00000280: 52fa 7f3e babc 4d3e c112 bdbe b535 f4bd
00000290: b260 08bd c888 943d 09a9 5f3c 061a 9c3d
000002a0: 3e65 703e 25b9 2dbe 7f97 9b3d 6c25 4cbd
000002b0: 7eb1 4d3e 9bd2 e83c cb0c cf3d 0e4d 23be
000002c0: 8555 bbbe b3f4 1abf 5ebb 92be 45d8 97be
000002d0: 5c7c a63e 96ca 19be d72c 37be 77e6 823e
000002e0: 08ea aabe 30a0 c6bc 1508 46be 7186 71be
000002f0: d977 aa3d ce32 b13e 7a6a 66be cd3c b5bc
00000300: 3c5d 55be 7c08 bbbc 8669 6abe 6c49 d8bd
00000310: 3917 dabe f516 abbd 1093 abbd d606 7c3e
00000320: 5adb 533a 4079 1a3e 3697 64be aae0 ab3d
00000330: 9ba1 a2be e3e9 59bd e43f fb3c 8f93 933e
00000340: 8686 8e3d f153 6bbd 6f10 043e 7021 b03d
00000350: 1bf8 5a3e 517c a9be e00b b33c 66ce 4bbd
00000360: 7d8d e6be 39c4 563e 73b0 02be 12df d5be
00000370: 3c23 27be 5278 b33d a60a ab3e fff0 003e
00000380: 3670 843c 6f03 b33e 3850 20be 41cc 7d3d
00000390: 23db 963e 3317 72bd 0702 90be 00d2 f73e
000003a0: 656c 15bf 73e8 28bb d9ae 1b3e 3a56 91be
000003b0: 8bc8 8bbb 83cb e4bd 52d2 22bd 3dd1 71be
000003c0: 0318 3f3e 1265 9a3d 204f 73bd d52c 8cbe
000003d0: 76db 7e3e 6e55 b33d cd84 a3bd 8abf 2bbe
000003e0: 3586 eabe 06c8 1d3f 517e af3c 5b6c 0d3e
000003f0: ffbf e13e d298 b03d 6ff7 dabc 57c6 e93e

encoder.0.bias f4 [32]
0.35134134 0.35540235 0.14699608 0.32518512 0.317219 0.19614016 -0.055861488 0.21039402
-0.12096492 0.06322357 0.08814275 0.010852898 0.2939385 -0.08774961 -0.032419335 0.26345146
-0.21917515 0.27502882 -0.2586102 0.19581667 -0.14928494 0.10898163 -0.07938172 0.10488075
-0.066380285 0.025458481 0.12914082 0.31380072 -0.19627786 -0.22024834 -0.15776509 -0.11671095
00000000: 03e3 b33e 4cf7 b53e 2486 163e aa7e a63e
00000010: 876a a23e f7d8 483e 04cf 64bd 8871 573e
00000020: 75bc f7bd 5c7b 813d 3084 b43d 5ad0 313c
00000030: 1b7f 963e 11b6 b3bd 23ca 04bd 1ce3 863e
00000040: 736f 60be 94d0 8c3e 8e68 84be 2a84 483e
00000050: 27de 18be c331 df3d e292 a2bd b8cb d63d
00000060: 63f2 87bd 4e8e d03c 7e3d 043e 7daa a03e
00000070: 10fd 48be c888 61be 2c8d 21be 2706 efbd

encoder.2.weight f4 [64, 32]
0.14108807 0.17218785 0.34642592 0.063063964 0.27220878 -0.09266009 -0.008590431 -0.018959431
-0.012979953 -0.14365546 -0.18313475 -0.21607406 0.24918714 0.06078119 0.27911445 0.27282697
-0.15434697 0.1871511 0.05741637 -0.033566866 0.36020055 -0.0021463179 0.14422497 -0.17560342
-0.2001825 0.11930042 -0.17612566 -0.07289754 0.10857477 -0.2304204 0.08642321 0.31522948
0.060588956 0.4036887 0.18067817 -0.3493144 -0.09891806 0.15725602 0.042013116 0.3634115
-0.12313874 0.15889627 -0.11292932 0.41636792 0.2464293 -0.05291645 -0.106850415 0.05974838
0.04466492 0.19793805 -0.11781801 -0.08778711 0.117472276 -0.07840875 0.15090816 0.11810027
-0.1381014 0.22768494 0.13917597 -0.088518016 -0.18175691 0.3026827 0.07122661 0.04957133
-0.18459727 0.31296623 0.049963333 -0.13468829 0.05020249 -0.23041642 0.3119963 0.036237516
-0.19336174 0.10254546 -0.16298665 -0.112148345 0.11286812 0.08583752 -0.095169105 0.119861655
-0.14785075 0.20340925 -0.06517637 0.021664862 -0.082191855 0.05565142 0.11993586 -0.18816777
-0.32889515 -0.038485784 0.090313554 0.08341129 0.027966112 0.18841326 -0.082067385 0.056195214
0.008416575 0.2799747 0.042695552 0.046216715 0.243029 0.22805934 0.19964102 -0.16936842
-0.13210501 0.1870604 0.3281198 0.05744632 -0.2562778 0.29870433 0.05938344 0.040892947
-0.32454088 0.26624018 -0.115175486 -0.19890924 0.14844403 0.083476946 -0.03794656 -0.0018485434
-0.02797926 0.0056152456 0.19513367 -0.030557508 -0.2730192 -0.13894442 -0.11033383 0.025624499
0.19155334 -0.17491175 -0.054271847 0.14223039 0.11781247 0.066170804 -0.20644063 0.08918701
-0.06808165 0.07684865 0.17286241 -0.13014778 -0.07437865 0.20988323 0.098449886 -0.31279516
0.12613186 0.13680637 0.14956851 -0.046665467 -0.013646272 -0.09973385 0.30579755 0.22030777
0.051229194 0.19201435 0.015604548 -0.11269364 0.19380623 -0.069010556 0.111561485 -0.15097786
0.06578575 -0.086726084 -0.14218278 -0.117140666 0.27018613 0.27002406 -0.1434466 -0.16915524
-0.22001542 -0.03670115 0.21104024 0.42319643 0.11089455 -0.16499406 -0.086851075 -0.028421296
-0.025421234 0.25550577 0.05338326 -0.30040115 0.2573719 -0.067202784 -0.1829074 0.28792548
0.032814857 0.017135113 0.06798861 0.12730601 0.19001342 -0.073172785 -0.16753574 0.121011496
0.21782115 -0.07735868 -0.12527093 -0.2584847 0.26495096 -0.13796586 0.12303601 -0.07365624
-0.17558244 0.28948128 0.012994654 0.15626413 0.28929225 -0.2009869 0.090130016 -0.05231699
-0.11620069 0.22217053 -0.22132029 0.05337035 -0.04557561 0.025208188 -0.19006094 0.31047028
0.15183946 -0.0680355 -0.08753668 -0.022754293 -0.10668213 -0.16931294 -0.000110618275 0.015122796
-0.2748049 -0.20087217 -0.02236784 -0.016973048 0.17600273 -0.20210852 0.19357997 -0.22363617
0.047159616 0.20132136 -0.02837728 0.16249752 0.107070625 0.039080262 -0.171962 -0.13511014
0.007255694 0.33512688 0.14152615 -0.45316067 0.17351088 0.2764835 0.27667218 -0.15015988
-0.06934942 0.037161633 0.06335448 0.40028897 0.30037427 -0.19556317 0.2250621 -0.14803508
00000000: 6479 103e 0352 303e bd5e b13e ae27 813d
00000010: f35e 8b3e 93c4 bdbd e1be 0cbc cf50 9bbc
00000020: dea9 54bc 6b1a 13be ad87 3bbe 8542 5dbe
00000030: ea2a 7f3e b2f5 783d 17e8 8e3e faaf 8b3e
00000040: 220d 1ebe 8aa4 3f3e 6d2d 6b3d 697d 09bd
00000050: 356c b83e 3da9 0cbb b6af 133e 62d1 33be
00000060: a4fc 4cbe c753 f43d 495a 34be 4e4b 95bd
00000070: 735c de3d 53f3 6bbe a7fe b03d c265 a13e
00000080: 202c 783d 49b0 ce3e b303 393e 56d9 b2be
00000090: 8d95 cabd b907 213e f215 2c3d 1211 ba3e
000000a0: 2a30 fcbd b4b5 223e 7d47 e7bd 2d2e d53e
000000b0: f657 7c3e ebbe 58bd 64d4 dabd b8ba 743d
000000c0: 90f2 363d 46b0 4a3e 924a f1bd bac9 b3bd
000000d0: 4e95 f03d c494 a0bd ab87 1a3e 8ede f13d
000000e0: 746a 0dbe 3e26 693e 2584 0e3e ef48 b5bd
000000f0: 7c1e 3abe 3af9 9a3e 42df 913d 4f0b 4b3d
00000100: 1107 3dbe 1c3d a03e 5aa6 4c3d baeb 09be
00000110: 20a1 4d3d 48f2 6bbe fbbd 9f3e ca6d 143d
00000120: 9f00 46be 5b03 d23d f9e5 26be 08ae e5bd
00000130: 6727 e73d 95cb af3d 05e8 c2bd 077a f53d
00000140: 3066 17be 844a 503e 307b 85bd 827a b13c
00000150: 3454 a8bd bef2 633d efa0 f53d 0daf 40be
00000160: f264 a8be 45a3 1dbd 50f6 b83d 8ad3 aa3d
00000170: 3019 e53c 68ef 403e f212 a8bd f42c 663d
00000180: ade5 093c d858 8f3e 88e1 2e3d bd4d 3d3d
00000190: 98dc 783e 6388 693e b26e 4c3e ea6e 2dbe
000001a0: 8946 07be c38c 3f3e 52ff a73e d54c 6b3d
000001b0: d836 83be c6ef 983e 0d3c 733d 5d7f 273d
000001c0: 392a a6be a250 883e 20e1 ebbd ddae 4bbe
000001d0: b601 183e f6f5 aa3d da6d 1bbd d34a f2ba
000001e0: c334 e5bc 1800 b83b 1fd1 473e bd53 fabc
000001f0: 2cc9 8bbe 7247 0ebe b4f6 e1bd 78ea d13c
00000200: 8f26 443e 111c 33be 284c 5ebd d8a4 113e
00000210: aa47 f13d 8f84 873d 2c65 53be aea7 b63d
00000220: 646e 8bbd d362 9d3d d802 313e 7645 05be
00000230: d553 98bd a1eb 563e 18a0 c93d b026 a0be
00000240: b628 013e f816 0c3e 7d28 193e 4a24 3fbd
00000250: 9d94 5fbc 4341 ccbd 7f91 9c3e 5c98 613e
00000260: b4d5 513d 699f 443e 38aa 7f3c eccb e6bd
00000270: 2475 463e 6855 8dbd 597a e43d f199 1abe
00000280: aeba 863d 729d b1bd 5d98 11be 72e7 efbd
00000290: d655 8a3e 9840 8a3e aae3 12be 0837 2dbe
000002a0: b94b 61be f253 16bd ef1a 583e 34ad d83e
000002b0: af1c e33d 34f4 28be fade b1bd c7d3 e8bc
000002c0: 3140 d0bc a7d1 823e 68a8 5a3d 2ece 99be
000002d0: 40c6 833e 9da1 89bd 144c 3bbe f86a 933e
000002e0: df68 063d f05e 8c3c 9d3d 8b3d 825c 023e
000002f0: e192 423e 9ddb 95bd 7d8e 2bbe e0d4 f73d
00000300: 820c 5f3e 3a6e 9ebd 0647 00be 1b58 84be
00000310: a7a7 873e ec46 0dbe 4efa fb3d 15d9 96bd
00000320: e2cb 33be e436 943e 87e7 543c b403 203e
00000330: 1d1e 943e 83cf 4dbe 1696 b83d 574a 56bd
00000340: a1fa edbd ac80 633e c9a1 62be de9a 5a3d
00000350: 7ead 3abd 6781 ce3c 569f 42be f6f5 9e3e
00000360: ce7b 1b3e 3256 8bbd 6e46 b3bd 3667 babc
00000370: 297c dabd 5f60 2dbe bcfb e7b8 9bc5 773c
00000380: 3ab3 8cbe 6fb1 4dbe c33c b7bc 100b 8bbc
00000390: 0f3a 343e 89f5 4ebe d439 463e e100 65be
000003a0: 712a 413d 3027 4e3e 7877 e8bc c065 263e
000003b0: d847 db3d a012 203d ce16 30be 505a 0abe
000003c0: 2cc1 ed3b c095 ab3e 3bec 103e ad04 e8be
000003d0: d6ac 313e 3f8f 8d3e faa7 8d3e 83c3 19be
000003e0: 1207 8ebd cc36 183d febf 813d adf2 cc3e
000003f0: a8ca 993e b641 48be ae76 663e 8296 17be

encoder.2.bias f4 [64]
0.35313195 -0.11959399 0.19301687 0.024348162 -0.23103689 0.30275902 0.31036186 -0.08219901
-0.33782375 0.14948031 -0.30035627 0.32407156 0.33819664 0.29063538 -0.005562223 -0.16657515
-0.18105154 0.24610665 0.18152018 -0.28361088 -0.3077515 -0.26692203 -0.2301055 -0.039826415
0.112379916 -0.30164394 0.3329153 -0.04242055 -0.20254695 -0.20347214 -0.14146094 0.23643066
-0.11306847 -0.2207207 -0.20607762 -0.14354227 -0.2660563 0.27485794 0.21950406 -0.2801671
-0.17503512 -0.04278982 0.2651345 0.35232484 -0.2148813 0.15585636 -0.15329471 0.17667136
0.22878695 -0.26947698 0.25474778 0.2790029 -0.20304842 -0.1303487 0.16376887 0.29407406
0.019167617 -0.2487882 -0.16770487 -0.2673761 0.25587243 -0.1957478 0.15851869 0.14843488
00000000: b6cd b43e b2ed f4bd 37a6 453e cc75 c73c
00000010: ef94 6cbe 3b03 9b3e c0e7 9e3e f457 a8bd
00000020: 3cf7 acbe 5e11 193e 4cc8 99be b5ec a53e
00000030: 1c28 ad3e 29ce 943e 4f43 b6bb ad92 2abe
00000040: 9365 39be 6203 7c3e 6de0 393e 7235 91be
00000050: 9b91 9dbe 01aa 88be c7a0 6bbe 0621 23bd
00000060: 7127 e63d 1371 9abe e073 aa3e 2cc1 2dbd
00000070: 7868 4fbe 005b 50be 23db 10be e11a 723e
00000080: 7190 e7bd 9b04 62be 0306 53be bffc 12be
00000090: 8838 88be 2eba 8c3e acc5 603e 1072 8fbe
000000a0: 683c 33be 6144 2fbd b6bf 873e ec63 b43e
000000b0: d809 5cbe cf98 1f3e 4af9 1cbe 56e9 343e
000000c0: 2047 6a3e e3f8 89be 4d6e 823e 78d9 8e3e
000000d0: edeb 4fbe 217a 05be 07b3 273e e090 963e
000000e0: 6805 9d3c 55c2 7ebe d3ba 2bbe 85e5 88be
000000f0: b601 833e 1c72 48be b952 223e 50ff 173e

encoder.4.weight f4 [128, 64]
-0.0002886898 0.12941982 0.092208534 0.0012090437 -0.16300005 -0.05034947 0.08667694 -0.11673518
0.09609112 0.14218293 -0.0017615712 0.06126154 0.22253887 0.1661765 0.2397885 -0.11195387
0.04169851 0.07899855 0.19263771 -0.15709384 -0.11751931 0.057045996 -0.010224317 0.085058354
0.070698805 -0.032625232 0.14139739 -0.106180236 -0.15360127 -0.023750992 -0.13171405 -0.05794558
-0.032331012 -0.095518865 0.07455736 -0.18099378 -0.10246978 0.059152078 0.18535122 -0.004926268
0.06571867 -0.030158646 -0.14636995 -0.11787834 -0.17899936 -0.082769156 -0.07641386 0.011269214
0.103483915 0.0884729 -0.023623317 -0.10960591 0.27415776 0.19578326 0.053618424 0.095369615
0.12824771 -0.03351583 0.05007203 -0.03948064 0.0019830388 -0.12181049 -0.14973499 0.14486498
0.053308286 0.034069303 0.0732046 -0.14581977 0.13704307 -0.034326036 0.09054688 0.09287287
0.020071361 -0.11510448 -0.16088054 -0.042329617 0.17579512 -0.044685043 0.12309017 -0.07702748
-0.12286243 0.2172568 -0.029521367 -0.04915829 0.16953161 -0.10458769 0.01177808 0.14732534
-0.048681825 0.116409786 -0.08601386 -0.083563045 0.021075148 -0.110431276 -0.17252094 0.13765204
-0.07259272 0.12133136 -0.10819637 -0.1671908 0.061958034 0.15503637 -0.027749741 0.07383543
-0.026951136 0.09525904 -0.030981053 0.09465002 -0.1686258 -0.10513188 0.12231792 -0.07428175
-0.057948258 0.13002951 0.08585073 0.005384269 -0.05271005 -0.24176925 -0.054909904 -0.009061236
0.2299499 0.059726756 -0.11050553 -0.023677649 0.29030183 0.08078476 0.12717576 -0.07104442
-0.06598365 0.14244598 -0.17345963 0.16674793 0.18527924 -0.051422805 0.10565795 -0.025511438
0.077196226 -0.11970544 0.09060222 -0.013516765 0.14760321 -0.032909196 -0.15338255 0.1760286
0.19204202 -0.09515227 -0.12111959 0.02810609 0.016596708 -0.042536017 0.09334111 0.008350075
-0.05387395 0.11177608 -0.06644747 0.16569264 0.11736942 -0.031740654 0.17688392 -0.06975518
0.08312953 0.17693491 0.13424341 -0.09091151 0.0820249 0.02252386 -0.03820004 0.20948038
0.07455553 0.13213749 -0.13142034 0.10592899 0.19144721 -0.032761216 -0.018149 -0.22034283
-0.073712714 -0.01625386 -0.025427697 -0.113271065 0.1012105 0.14384183 -0.341958 0.046904504
0.049193908 0.076549746 -0.14310071 0.005907199 0.024855457 -0.027511194 0.07490096 -0.058406424
0.16676167 -0.0501323 -0.019880373 0.026307233 0.05016049 -0.05769367 0.060602047 -0.15103544
0.042444166 -0.25912368 0.009124974 0.08239672 0.15351711 0.041287027 -0.026612325 -0.091809705
-0.13741174 0.09382892 0.11219648 -0.06468327 -0.0625408 0.00052922923 -0.014595404 0.18901862
-0.10195016 0.11800481 -0.038892407 -0.030600514 -0.07086794 -0.21589918 0.22545132 -0.16745597
-0.162268 0.068961896 0.0082914885 -0.0682895 0.08815789 -0.047481146 -0.21261597 -0.042106185
0.0685764 0.14689302 -0.048037507 0.04617535 0.25316024 0.10379066 0.05576797 0.031520665
0.002302776 -0.07439608 0.24641705 0.0053796023 0.15812062 0.31102467 0.050625093 -0.042837657
0.021674752 -0.030226955 0.0113793025 -0.039107922 0.31482047 0.19520359 -0.09322594 0.010402853
00000000: 4a5b 97b9 a186 043e d4d7 bc3d c678 9e3a
00000010: 7ce9 26be 3f3b 4ebd ae83 b13d db12 efbd
00000020: 6ccb c43d 6798 113e 85e4 e6ba 61ed 7a3d
00000030: 3be1 633e 2c2a 2a3e 1e8b 753e 1248 e5bd
00000040: 0fcc 2a3d fec9 a13d d242 453e 35dd 20be
00000050: f7ad f0bd 10a9 693d e583 27bc 1333 ae3d
00000060: 89ca 903d 09a2 05bd 7aca 103e 0675 d9bd
00000070: a749 1dbe 7191 c2bc 0ce0 06be 5858 6dbd
00000080: 866d 04bd 659f c3bd 87b1 983d 6f56 39be
00000090: addb d1bd 7349 723d b6cc 3d3e 886c a1bb
000000a0: 8397 863d 440f f7bc 01e2 15be 336a f1bd
000000b0: 9c4b 37be e082 a9bd df7e 9cbd 82a2 383c
000000c0: 60ef d33d 4831 b53d b085 c1bc 1079 e0bd
000000d0: 685e 8c3e 687b 483e fe9e 5b3d 2551 c33d
000000e0: 5e53 033e e547 09bd 5418 4d3d 74b6 21bd
000000f0: dff5 013b c777 f9bd 2154 19be 7c57 143e
00000100: ca59 5a3d 418c 0b3d 4bec 953d c751 15be
00000110: 0555 0c3e 7599 0cbd a570 b93d 2234 be3d
00000120: b26c a43c e6bb ebbd debd 24be d261 2dbd
00000130: a303 343e aa07 37bd b316 fc3d 95c0 9dbd
00000140: 4c9f fbbd 9178 5e3e cbd6 f1bc 345a 49bd
00000150: b299 2d3e 1232 d6bd d9f8 403c 74dc 163e
00000160: 9866 47bd 4168 ee3d 0928 b0bd 1a23 abbd
00000170: caa5 ac3c cb29 e2bd 54a9 30be a8f4 0c3e
00000180: 7eab 94bd 937c f83d 0f96 ddbd 1134 2bbe
00000190: b5c7 7d3d dbc1 1e3e 6d53 e3bc 0837 973d
000001a0: a1c8 dcbc 2c17 c33d facb fdbc dfd7 c13d
000001b0: 3eac 2cbe 624f d7bd d181 fa3d 0821 98bd
000001c0: 275b 6dbd 7526 053e 82d2 af3d 866e b03b
000001d0: 7ee6 57bd 5c92 77be 35e9 60bd 9475 14bc
000001e0: fd77 6b3e 0ba4 743d b950 e2bd a1f7 c1bc
000001f0: 71a2 943e 7b72 a53d 5d3a 023e bd7f 91bd
00000200: 7022 87bd 5cdd 113e 679f 31be f8bf 2a3e
00000210: d7b9 3d3e b8a0 52bd 3263 d83d 5dfd d0bc
00000220: 0e19 9e3d 2028 f5bd a88d b93d 6c75 5dbc
00000230: 4c25 173e cbcb 06bd 5110 1dbe d740 343e
00000240: aaa6 443e 31df c2bd 8c0d f8bd be3e e63c
00000250: d2f5 873c 3f3a 2ebd a029 bf3d c1ce 083c
00000260: eeaa 5cbd dcea e43d 9c15 88bd 55ab 293e
00000270: 615f f03d 7d02 02bd 0f21 353e cedb 8ebd
00000280: d13f aa3d 6d2e 353e 1b77 093e d02f babd
00000290: acfc a73d f583 b83c a577 1cbd 0682 563e
000002a0: 92b0 983d 0d4f 073e 0e93 06be 4cf1 d83d
000002b0: bd0a 443e a030 06bd 36ad 94bc 8da1 61be
000002c0: b1f6 96bd d126 85bc bf4d d0bc a9fa e7bd
000002d0: 7347 cf3d 464b 133e 1e15 afbe f01e 403d
000002e0: 8d7f 493d 1dc6 9c3d fe88 12be 2d91 c13b
000002f0: ac9d cb3c 285f e1bc ad65 993d 933b 6fbd
00000300: 92c3 2a3e 8757 4dbd 2adc a2bc 4482 d73c
00000310: 1675 4d3d 3350 6cbd da39 783d 09a9 1abe
00000320: efd9 2d3d dcab 84be ea80 153c 9dbf a83d
00000330: 9733 1d3e 961c 293d 1702 dabc ba06 bcbd
00000340: aab5 0cbe 6029 c03d 45c7 e53d aa78 84bd
00000350: 6415 80bd f9bb 0a3a 9021 6fbc 198e 413e
00000360: 3fcb d0bd 81ac f13d a54d 1fbd eead fabc
00000370: 3623 91bd ad14 5dbe b6dc 663e 9479 2bbe
00000380: 9529 26be e53b 8d3d 06d9 073c 5edb 8bbd
00000390: 208c b43d 977b 42bd 00b8 59be 8977 2cbd
000003a0: c971 8c3d 206b 163e fac2 44bd 5d22 3d3d
000003b0: 389e 813e 3390 d43d f46c 643d d01b 013d
000003c0: 2cea 163b f95c 98bd c054 7c3e 6047 b03b
000003d0: 5fea 213e a03e 9f3e 425c 4f3d 8a76 2fbd
000003e0: 408f b13c 859e f7bc 4170 3a3c a12f 20bd
000003f0: 2630 a13e 73e3 473e 3eed bebd ba70 2a3c

encoder.4.bias f4 [128]
0.2164293 0.040139083 -0.23385161 -0.1036405 0.34962246 -0.1515831 -0.23322752 0.07123833
-0.3072252 -0.16778794 0.24739893 -0.29732147 0.26494864 0.062590085 0.18114981 -0.19477792
-0.13832763 -0.0018248411 0.28766826 -0.22583175 0.040950604 0.09932299 -0.22051722 -0.24926698
-0.11656136 0.01713826 0.18678346 0.09546504 -0.20052929 -0.21911661 0.042588715 -0.11163222
-0.25662836 0.09220741 -0.21218239 0.31691003 -0.012415932 -0.18686143 0.20194085 0.21782869
0.21953654 -0.13111939 0.058345232 -0.2497274 0.25092766 -0.27949572 -0.15027866 0.020219808
-0.010111665 -0.25604978 0.23321673 -0.24634136 -0.19729291 -0.17318508 0.16263086 0.25803408
-0.20647103 -0.22764286 -0.20743091 0.15752545 0.08896848 0.031508557 -0.15459488 -0.19225352
-0.23834345 0.25814098 -0.28813446 -0.17215203 0.219244 -0.09205203 -0.16197225 0.14664175
-0.16866668 -0.237297 0.25667128 -0.2571458 -0.23140502 -0.06648337 0.032854725 -0.17388825
-0.21961053 0.24759333 -0.2392597 -0.24411383 -0.14516635 -0.09704025 -0.27048984 0.17984809
-0.24254125 0.34084907 0.28982133 0.1894213 -0.12625796 -0.04469725 0.21532929 -0.061607704
0.3173128 -0.1722665 -0.21078216 -0.018970001 -0.016904606 -0.24927817 0.25519434 -0.22070748
0.06856965 -0.28946275 -0.1597011 0.31663135 -0.15370636 -0.27118146 -0.26150167 -0.25766006
-0.050578043 0.15315862 -0.122668125 -0.19044961 -0.16368844 -0.21956024 -0.13282388 0.13856561
0.21033491 -0.06588149 -0.21553063 0.018380446 -0.20496078 0.35375434 -0.08414724 -0.24056597
00000000: a49f 5d3e e168 243d cc76 6fbe 7841 d4bd
00000010: b701 b33e 9a38 1bbe 32d3 6ebe 67e5 913d
00000020: 9f4c 9dbe 9ad0 2bbe 2556 7d3e 853a 98be
00000030: 59a7 873e 3b2f 803d 567f 393e dd73 47be
00000040: c2a5 0dbe 822f efba 4149 933e 7040 67be
00000050: d2bb 273d da69 cb3d 44cf 61be d83f 7fbe
00000060: b9b7 eebd 8965 8c3c 2a44 3f3e 2d83 c33d
00000070: 8d57 4dbe 1b60 60be 8171 2e3d 6f9f e4bd
00000080: cb64 83be 3dd7 bc3d 5746 59be 0842 a23e
00000090: 316c 4bbc 9a58 3fbe 95c9 4e3e 7c0e 5f3e
000000a0: 30ce 603e 2944 06be 69fb 6e3d 8ab8 7fbe
000000b0: 9779 803e 101a 8fbe a6e2 19be 03a4 a53c
000000c0: 66ab 25bc f518 83be 5ed0 6e3e e940 7cbe
000000d0: 2707 4abe 6e57 31be b488 263e 0b1d 843e
000000e0: 246d 53be 361b 69be c568 54be 5a4e 213e
000000f0: 1b35 b63d 1e0f 013d 1f4e 1ebe 1bde 44be
00000100: 4e10 74be 0e2b 843e 5c86 93be 9f48 30be
00000110: 8081 603e c685 bcbd 0edc 25be 4129 163e
00000120: f5b6 2cbe fcfd 72be 6b6a 833e 9da8 83be
00000130: 70f5 6cbe 6f28 88bd ad92 063d c30f 32be
00000140: 95e1 60be 1b89 7d3e 7f00 75be faf8 79be
00000150: 7da6 14be 0abd c6bd a57d 8abe 192a 383e
00000160: bc5c 78be c583 ae3e 7663 943e a8f7 413e
00000170: c449 01be 7714 37bd 487f 5c3e 5c58 7cbd
00000180: d376 a23e a166 30be 47d7 57be fa66 9bbc
00000190: 877b 8abc c742 7fbe d5a8 823e 2401 62be
000001a0: 3f6e 8c3d 7634 94be af88 23be 811d a23e
000001b0: 3365 1dbe 4cd8 8abe 8ce3 85be 05ec 83be
000001c0: ec2a 4fbd 9dd5 1c3e 6d39 fbbd 3905 43be
000001d0: f19d 27be 66d4 60be fc02 08be 25e4 0d3e
000001e0: 0962 573e e0ec 86bd 10b4 5cbe 9792 963c
000001f0: 3de1 51be 4a1f b53e 6355 acbd ed56 76be

encoder.6.weight f4 [192, 128]
0.114259616 0.17102334 0.13291474 -0.0133391805 -0.22827636 -0.025024474 0.09035416 -0.08717059
0.000950847 -0.031637438 -0.0739755 -0.009087787 0.11544278 -0.048323706 0.0075690784 -0.18258423
0.17781977 -0.12791856 0.12476925 0.05986624 0.17684504 0.060421217 -0.13558817 -0.13623506
-0.25843385 -0.23866399 0.132999 0.056110498 0.1886063 -0.054070782 0.0006223739 0.054884322
0.07413119 -0.105948426 0.13780989 0.12564127 0.04645366 0.028083928 -0.069765694 0.12264387
0.14958164 0.1747217 -0.05478855 0.036001414 -0.08709795 -0.16470002 0.10012171 -0.124170795
0.020823041 0.23944032 -0.0374721 -0.23035166 -0.0255035 -0.04063815 0.17217557 0.051348094
-0.18447481 -0.14938582 -0.197855 -0.05084103 -0.011132997 0.108929284 0.076614894 0.039472897
0.09933496 -0.10791899 -0.11338032 -0.17397374 0.15624788 -0.033476133 0.2124567 -0.11408177
0.06853158 -0.025969114 -0.1506416 -0.09577574 -0.13360219 0.09360762 -0.14741549 -0.111147106
0.06920259 -0.17279816 -0.034051113 -0.0020948004 -0.041017406 0.2204764 -0.25127465 -0.040990837
-0.12013461 -0.20605324 -0.2289234 0.0041785785 0.08725144 -0.037129182 -0.10988215 -0.22736663
0.029227102 -0.025312047 -0.15084267 0.08740835 0.25863013 0.11593577 -0.012886865 -0.1692253
0.011440845 0.013952469 -0.047641356 0.22810355 -0.05569436 0.053514455 -0.11854094 0.08873431
0.072543345 0.18100692 0.19603696 -0.24245407 0.1690023 -0.06169097 0.01892638 0.2197156
0.21272807 0.12342725 -0.04713052 0.12198618 -0.01716487 -0.018140335 -0.0717191 -0.07291823
0.0019147487 -0.11563507 -0.077215604 -0.03828176 -0.21206471 0.23140661 -0.08795711 0.033987362
0.005836464 0.008983556 0.10304855 0.059743963 -0.1426981 0.17169517 0.058493495 0.09669661
0.101320945 -0.07158358 0.017054863 -0.11906038 0.13743854 0.11072946 -0.07031148 -0.060810328
-0.12999727 0.005840428 -0.109165855 -0.06895252 0.32221913 -0.0063090376 0.10924099 0.007276494
-0.07998956 -0.030322967 0.08205309 -0.032334622 0.10991231 -0.021700958 0.11393654 -0.10695674
0.14918512 -0.12242154 -0.041349843 -0.11499625 0.14440277 0.027107751 0.05098152 0.026725287
0.14587103 0.019861558 -0.091028035 -0.079667486 0.11751104 -0.0010023388 0.036812417 -0.12059423
-0.09664398 0.016038146 0.044896998 -0.059707575 -0.028818695 -0.076624505 0.19454683 0.10017964
0.20177473 -0.14193979 0.1661963 0.042710032 0.09416565 -0.054138444 0.05979839 0.19307923
0.059532043 0.03935286 0.0464148 -0.11798615 0.087385945 0.09396269 -0.044164896 0.014450711
0.07020856 0.04855604 -0.0009080007 -0.15863508 -0.0957971 -0.020700714 -0.06583429 -0.094888195
0.15661046 -0.12304808 -0.040328342 -0.049729165 0.122029535 -0.18361187 0.14962736 -0.25366533
-0.00447721 0.11465376 0.064546265 0.16871461 -0.14041018 -0.0028558206 -0.17991108 -0.060563978
0.07454547 0.0037455289 0.069563515 -0.2802585 -0.040536392 -0.072039485 -0.0050428547 0.2347864
0.06129495 0.018157447 -0.07825744 -0.11334701 -0.0062516453 0.10042563 -0.0115122255 0.13310309
-0.034632865 -0.20037536 0.05554725 -0.084952764 -0.014440663 -0.03339541 -0.019265082 -0.06605388
00000000: f200 ea3d be20 2f3e cd1a 083e 948c 5abc
00000010: 47c1 69be 2000 cdbc 9a0b b93d 7f86 b2bd
00000020: 4342 793a 4296 01bd 7880 97bd f1e4 14bc
00000030: 446d ec3d 14ef 45bd 0806 f83b 5cf7 3abe
00000040: 6316 363e 15fd 02be 0587 ff3d 4d36 753d
00000050: de16 353e 3d7c 773d a0d7 0abe 3481 0bbe
00000060: 7151 84be 5564 74be e430 083e 1fd4 653d
00000070: 0322 413e 5379 5dbd ce26 233a 62ce 603d
00000080: 18d2 973d 7dfb d8bd 091e 0d3e 1ba8 003e
00000090: 3146 3e3d 4410 e63c 51e1 8ebd b62c fb3d
000000a0: ee2b 193e 3fea 323e f569 60bd 3876 133d
000000b0: 6960 b2bd 1fa7 28be 9c0c cd3d 424d febd
000000c0: 1595 aa3c d82f 753e 587c 19bd 4ee1 6bbe
000000d0: b7ec d0bc 3074 26bd cb4e 303e 6152 523d
000000e0: f7e6 3cbe 99f8 18be 809a 4abe af3e 50bd
000000f0: 2d67 36bc 5116 df3d 45e8 9c3d 55ae 213d
00000100: 2170 cb3d a204 ddbd f133 e8bd 2c26 32be
00000110: 72ff 1f3e 451e 09bd 408e 593e b4a3 e9bd
00000120: 495a 8c3d 2ebd d4bc cb41 1abe 1226 c4bd
00000130: 03cf 08be 5ab5 bf3d 16f4 16be 18a1 e3bd
00000140: 16ba 8d3d 00f2 30be 2e79 0bbd eb48 09bb
00000150: de01 28bd 91c4 613e 12a7 80be 02e6 27bd
00000160: 2209 f6bd 9fff 52be e56a 6abe 75ec 883b
00000170: e2b0 b23d c514 18bd e509 e1bd ccd2 68be
00000180: ad6d ef3c 365b cfbc 8076 1abe 2603 b33d
00000190: 2b6b 843e bc6f ed3d 6e23 53bc 6649 2dbe
000001a0: 6272 3b3c e698 643c 9523 43bd fa93 693e
000001b0: c51f 64bd f931 5b3d 98c5 f2bd 55ba b53d
000001c0: 9b91 943d e159 393e eabd 483e e145 78be
000001d0: f00e 2d3e acaf 7cbd 7f0b 9b3c 20fd 603e
000001e0: 63d5 593e 6dc7 fc3d ef0b 41bd e4d3 f93d
000001f0: 579d 8cbc 0a9b 94bc 77e1 92bd 2756 95bd
00000200: 4ef8 fa3a 14d2 ecbd 3723 9ebd 56cd 1cbd
00000210: 7e27 59be dbf5 6c3e db22 b4bd 5536 0b3d
00000220: cf3f bf3b c42f 133c 1e0b d33d 16b6 743d
00000230: 731f 12be dcd0 2f3e e096 6f3d df08 c63d
00000240: 5b81 cf3d 699a 92bd a4b6 8b3c eed5 f3bd
00000250: b0bc 0c3e 21c6 e23d 77ff 8fbd 4014 79bd
00000260: 011e 05be 1061 bf3b 5992 dfbd fb36 8dbd
00000270: e8f9 a43e 0bbc cebb bdb9 df3d a86f ee3b
00000280: 91d1 a3bd df67 f8bc 730b a83d 4f71 04bd
00000290: b519 e13d 35c6 b1bc 9057 e93d 230c dbbd
000002a0: fcc3 183e 25b8 fabd 745e 29bd 2783 ebbd
000002b0: 52de 133e 1311 de3c 00d2 503d fdee da3c
000002c0: 375f 153e b5b4 a23c e86c babd b528 a3bd
000002d0: a1a9 f03d e960 83ba 9ec8 163d 1cfa f6bd
000002e0: 47ed c5bd 6e62 833c eae5 373d ee8f 74bd
000002f0: 2f15 ecbc 4fed 9cbd 4937 473e fc2a cd3d
00000300: 099e 4e3e aa58 11be 5d2f 2a3e b7f0 2e3d
00000310: ecd9 c03d 46c0 5dbd 28ef 743d 90b6 453e
00000320: dfd7 733d 7730 213d 721d 3e3d b9a2 f1bd
00000330: 67f7 b23d 836f c03d 40e6 34bd adc2 6c3c
00000340: 81c9 8f3d b3e2 463d e506 6eba 3c71 22be
00000350: 4531 c4bd 8b94 a9bc 21d4 86bd be54 c2bd
00000360: 7e5e 203e a200 fcbd 552f 25bd cfb0 4bbd
00000370: 9fea f93d c004 3cbe ea37 193e 6ce0 81be
00000380: 8fb5 92bb 97cf ea3d d530 843d 86c3 2c3e
00000390: b0c7 0fbe b828 3bbb 9c3a 38be ef11 78bd
000003a0: 4cab 983d 8c77 753b 5177 8e3d 0b7e 8fbe
000003b0: 7d09 26bd 7089 93bd 883e a5bb d96b 703e
000003c0: 6a10 7b3d edbe 943c 7045 a0bd 7a22 e8bd
000003d0: 9ada ccbb f4ab cd3d c69d 3cbc 2d4c 083e
000003e0: 31db 0dbd 332f 4dbe 8385 633d b7fb adbd
000003f0: 8898 6cbc a0c9 08bd ced1 9dbc 4247 87bd

encoder.6.bias f4 [192]
0.08968213 -0.025893932 -0.11233113 -0.22136432 -0.05121547 0.14461872 0.029663106 0.022889905
-0.027272997 -0.07173787 -0.016672771 0.027014147 0.007702532 -0.14040448 -0.24855456 -0.23387289
-0.028451154 -0.0032754503 -0.2121785 0.18030818 -0.13496633 -0.06735099 -0.11012846 -0.023213636
0.1159517 -0.048808422 -0.15893756 -0.1405788 -0.13770564 0.10304298 -0.046266004 -0.008293271
0.13319871 0.0839246 -0.18334979 0.15347226 -0.22570428 0.04897319 0.17280564 -0.25925818
-0.14651714 -0.16227375 0.08456537 0.06965694 -0.00078629685 0.07079475 -0.16449374 -0.11826384
-0.27032092 -0.039380603 -0.0755898 0.05361946 0.064782366 0.037996177 0.23673652 -0.022331389
0.19722383 -0.032843858 -0.078014456 0.15254655 0.12639543 0.15859684 -0.05232298 -0.19538768
0.0490986 -0.16497774 0.058183458 -0.11455699 -0.19640066 -0.124273926 -0.026819138 0.034654714
0.017605137 -0.04024266 -0.1493283 -0.19283055 -0.05888943 0.012087705 0.022697717 -0.22942056
-0.028298998 -0.13727985 -0.02270375 -0.055347923 -0.16674192 0.02871168 -0.14121062 -0.11210259
-0.24732056 0.15619384 -0.16002136 -0.15828843 -0.2408902 -0.1811848 0.00071436417 0.015514671
-0.17906007 -0.21555386 -0.20788696 -0.23990107 -0.21944746 -0.12350424 0.028683562 -0.15270506
-0.15034692 0.09743261 -0.20976798 0.019805655 0.06530223 0.0012288227 -0.050936867 -0.24432768
-0.027154101 -0.24495472 -0.19951408 0.13232887 -0.31447724 0.24885869 -0.001476417 -0.2552031
0.015239943 0.108363755 -0.06265993 0.05702001 -0.10303454 -0.066801555 -0.24841978 -0.070597485
0.050403032 -0.20722488 0.1499695 0.110266194 -0.07865248 -0.12660044 0.16160306 0.17952196
-0.15229216 -0.15269607 -0.008680407 0.08631064 -0.10451138 -0.14950132 -0.16176671 -0.053070318
-0.044227555 0.120779924 -0.013887137 0.014376912 -0.09514156 -0.22989792 0.020635441 -0.13599806
0.017020926 0.13976793 -0.089443676 -0.08845079 0.006290933 0.020807609 0.055192586 -0.09788192
0.15081215 -0.07024424 -0.21074748 -0.14089608 -0.3048822 -0.11573277 -0.0012194621 -0.07746735
-0.08173715 0.10759215 0.121643245 -0.119877234 -0.160989 0.019416258 -0.14074312 -0.05328066
-0.27433714 -0.3030055 0.027410464 -0.023867428 0.0710369 0.108851776 -0.12394904 -0.036314532
-0.113407485 -0.14127403 0.05611044 -0.018055076 -0.060603216 -0.16109857 0.11530637 -0.10757936
00000000: 44ab b73d 831f d4bc dd0d e6bd 54ad 62be
00000010: 50c7 51bd ee16 143e 0b00 f33c 9c83 bb3c
00000020: 9f6b dfbc 4eeb 92bd 5695 88bc c64c dd3c
00000030: 8665 fc3b 31c6 0fbe 1685 7ebe 607c 6fbe
00000040: 6512 e9bc f0a8 56bb 5245 59be b5a2 383e
00000050: 9d34 0abe 51ef 89bd 088b e1bd 862a bebc
00000060: 1678 ed3d 57eb 47bd 87c0 22be e4f3 0fbe
00000070: b502 0dbe 3308 d33d 6c81 3dbd 80e0 07bc
00000080: 3e65 083e a9e0 ab3d 0cc0 3bbe d527 1d3e
00000090: 061f 67be 1d98 483d f6f3 303e 7dbd 84be
000000a0: 9708 16be 172b 26be 9c30 ad3d 4ca8 8e3d
000000b0: 7d1f 4eba d6fc 903d 0c71 28be 5034 f2bd
000000c0: 8167 8abe 8e4d 21bd d3ce 9abd 14a0 5b3d
000000d0: 9eac 843d e1a1 1b3d 0f6b 723e 51f0 b6bc
000000e0: 0bf5 493e 4887 06bd 0bc6 9fbd 2a35 1c3e
000000f0: ce6d 013e 3667 223e 9f50 56bd b513 48be
00000100: 9d1b 493d edef 28be c751 6e3d db9c eabd
00000110: 411d 49be 5483 febd cfb3 dbbc 1af2 0d3d
00000120: a638 903c 7dd5 24bd 85e9 18be 5f75 45be
00000130: 0b36 71bd 820b 463c 90f0 b93c 39ed 6abe
00000140: 4dd3 e7bc 1793 0cbe 37fd b9bc 81b4 62bd
00000150: 65be 2abe c234 eb3c 8499 10be 0b96 e5bd
00000160: 9a41 7dbe 47f1 1f3e a4dc 23be 5d16 22be
00000170: ecab 76be 8288 39be 2b44 3b3a 3f31 7e3c
00000180: 865b 37be 27ba 5cbe 52e0 54be a0a8 75be
00000190: d6b6 60be caef fcbd caf9 ea3c b75e 1cbe
000001a0: 8bf4 19be c08a c73d 6bcd 56be 783f a23c
000001b0: 2dbd 853d 7310 a13a 2da3 50bd 0931 7abe
000001c0: 4772 debc 69d5 7abe 6b4d 4cbe 3881 073e
000001d0: 2903 a1be d0d4 7e3e 5584 c1ba fba9 82be
000001e0: f4b0 793c d1ed dd3d d953 80bd d08d 693d
000001f0: c603 d3bd 41cf 88bd c161 7ebe 6a95 90bd
00000200: 6973 4e3d c232 54be 9b91 193e 3ed3 e13d
00000210: 8d14 a1bd 8ca3 01be 467b 253e 9bd4 373e
00000220: 7af2 1bbe 5c5c 1cbe 4438 0ebc a2c3 b03d
00000230: 100a d6bd e016 19be 2ca6 25be 4360 59bd
00000240: f427 35bd 775b f73d e086 63bc 248d 6b3c
00000250: 94d9 c2bd 5c6a 6bbe a80b a93c 1343 0bbe
00000260: 786f 8b3c 531f 0f3e 3f2e b7bd b025 b5bd
00000270: 2c24 ce3b b874 aa3c 9f11 623d 5176 c8bd
00000280: 806e 1a3e 36dc 8fbd 30ce 57be 1047 10be
00000290: 8519 9cbe 4d05 edbd 5cd6 9fba 34a7 9ebd
000002a0: cf65 a7bd 4659 dc3d 1820 f93d 3282 f5bd
000002b0: 4dda 24be d80e 9f3c f71e 10be d23c 5abd
000002c0: eb75 8cbe 8923 9bbe e98b e03c a085 c3bc
000002d0: cb7b 913d aeed de3d ffd8 fdbd 8cbe 14bd
000002e0: 2f42 e8bd 24aa 10be 10d4 653d 3de8 93bc
000002f0: 143b 78bd 06f7 24be bf25 ec3d 9152 dcbd

decoder.0.weight f4 [128, 192]
0.09992547 0.0067861876 0.025827756 0.0018371632 -0.24534735 -0.017966056 0.04413177 0.10767008
0.05668115 -0.1458848 0.025040062 0.12382955 -0.039701678 0.079585955 0.03249182 0.0522029
0.08879031 -0.11153412 0.072101034 0.03372019 0.04242093 0.0139339175 -0.07454345 -0.1692741
-0.03785164 -0.07307197 -0.16066866 -0.10241433 0.063379586 -0.05507794 -0.12518528 0.1645594
0.018281506 -0.01228344 0.07290729 0.0056565283 0.043156818 0.03488115 -0.08695171 -0.083891
0.07062179 0.063500755 -0.006921292 0.0036774701 -0.08276704 -0.10076251 -0.027244683 0.05781177
-0.054709494 0.07914301 -0.012232196 0.01231005 0.02038785 0.07454397 0.055108443 -0.05386719
-0.028523223 -0.113895364 0.09686807 -0.011966292 0.070472404 0.045153823 -0.097313695 -0.09971293
0.012200353 0.21643381 -0.054508757 -0.029606678 0.039867975 -0.030537374 0.056085117 0.0020275584
-0.0018290201 -0.061545346 -0.10275861 -0.020081548 0.12007057 0.13463905 0.047347013 0.0130405845
0.048548676 -0.019486928 0.016357435 0.13710916 -0.07593328 -0.054216746 -0.060543925 0.05255173
-0.044042014 -0.013720181 0.12356894 0.027738955 0.0060450304 -0.018343128 0.060895354 0.047235835
-0.040778123 0.02692236 0.10622741 0.014433458 0.066703424 0.040614776 -0.11182866 -0.11958772
0.0796388 -0.06521316 -0.01800878 0.14061213 0.008612299 0.112094976 -0.025245382 -0.067016855
0.10055851 0.0654084 0.096000366 0.10609919 -0.038585488 -0.0004917318 0.005730657 -0.017600276
-0.052305195 0.037677918 0.13997637 -0.034747083 -0.08746867 -0.0072947866 -0.019790387 -0.117111966
-0.030292002 0.13157734 -0.0032451453 -0.13309857 0.05452051 0.009626375 -0.014835666 0.06444189
0.047973026 0.05029475 0.12011366 -0.022923205 -0.1480453 -0.14661016 0.11072708 -0.017965777
0.1377852 -0.08310999 -0.12808177 -0.0036576819 0.025787685 0.054154705 0.051344912 -0.019209495
0.005982518 0.057057206 0.18491879 0.052463017 0.0807109 0.07397715 -0.030499322 0.11948198
0.10128959 -0.1479267 -0.04951218 -0.0816741 -0.0071576172 -0.12802337 0.085509144 0.06932045
0.029161569 -0.10488928 -0.041005004 0.054638542 0.14716385 0.11669879 0.1300585 -0.07984057
-0.06614715 0.0707394 0.11903228 -0.15466307 0.0346865 -0.012249885 0.08358663 0.051101487
-0.047530606 0.01843202 -0.25249568 0.004745689 0.031085717 -0.044882596 -0.10003136 -0.08457946
0.032915995 0.056212533 -0.05389882 -0.023039881 -0.025727779 -0.030893184 -0.047855 0.0074262586
-0.07230941 -0.03932899 0.13259023 0.081859946 -0.1429282 0.13088067 -0.04569315 -0.09427745
0.01557861 -0.22199327 -0.050734926 -0.1474053 0.04959615 0.072037295 0.13507411 -0.03265826
-0.05555157 -0.13631812 0.09122832 0.07630501 -0.09885166 -0.11729413 -0.057627767 0.1144204
0.10499852 0.009238082 -0.04762164 -0.14891513 -0.0022333476 -0.095774055 -0.09885175 -0.03902674
0.14360893 0.10379499 -0.0071208617 0.04332832 -0.07075051 -0.0076414235 0.068052284 0.07226187
-0.008409368 0.11814727 -0.033482462 -0.09755864 -0.032070287 -0.036017638 0.07362114 0.05227281
-0.032749332 -0.063720785 0.048483152 -0.05676663 0.077650286 -0.13482057 -0.090517275 -0.025894925
00000000: baa5 cc3d ab5e de3b bb94 d33c f8cc f03a
00000010: 563c 7bbe 8d2d 93bc 84c3 343d 2282 dc3d
00000020: 7e2a 683d d362 15be d120 cd3c 599a fd3d
00000030: 3a9e 22bd f6fd a23d 2516 053d b5d2 553d
00000040: b2d7 b53d 006c e4bd b5a9 933d 2f1e 0a3d
00000050: 92c1 2d3d 164b 643c 3caa 98bd 3156 2dbe
00000060: 520a 1bbd c2a6 95bd 5386 24be 9bbe d1bd
00000070: 28cd 813d 6899 61bd 9230 00be 4282 283e
00000080: 19c3 953c 7b40 49bc 6b50 953d 665a b93b
00000090: 34c5 303d 89df 0e3d bd13 b2bd 0bcf abbd
000000a0: 28a2 903d af0c 823d 01cc e2bb b601 713b
000000b0: c481 a9bd 935c cebd 3e30 dfbc 09cc 6c3d
000000c0: 1017 60bd bb15 a23d 8c69 48bc 18b0 493c
000000d0: 6c04 a73c 82aa 983d 64b9 613d d8a3 5cbd
000000e0: 89a9 e9bc f941 e9bd c462 c63d 440e 44bc
000000f0: d653 903d 37f3 383d 674c c7bd 4b36 ccbd
00000100: fde3 473c d3a0 5d3e 9344 5fbd b489 f2bc
00000110: 9a4c 233d 8429 fabc 82b9 653d c9e0 043b
00000120: bbbb efba f916 7cbd 1b73 d2bd 0f82 a4bc
00000130: 8fe7 f53d d2de 093e f1ee 413d 2da8 553c
00000140: fada 463d 0da3 9fbc 0700 863c 5866 0c3e
00000150: e882 9bbd 6112 5ebd e8fc 77bd 7c40 573d
00000160: 6665 34bd 9cca 60bc b611 fd3d ce3c e33c
00000170: 6415 c63b 5444 96bc 686d 793d 5d7a 413d
00000180: f606 27bd 488c dc3c c28d d93d 507a 6c3c
00000190: ce9b 883d ae5b 263d 6d06 e5bd 68ea f4bd
000001a0: ab19 a33d 7a8e 85bd 2687 93bc a0fc 0f3e
000001b0: 9a1a 0d3c 0d92 e53d 67cf cebc 2240 89bd
000001c0: 9ff1 cd3d d7f4 853d d79b c43d 884a d93d
000001d0: d10b 1ebd 90e7 00ba 3cc8 bb3b 742e 90bc
000001e0: f93d 56bd 2954 1a3d f755 0f3e f552 0ebd
000001f0: c622 b3bd 1b09 efbb 731f a2bc 66d8 efbd
00000200: ef26 f8bc 36bc 063e 81ac 54bb fe4a 08be
00000210: e650 5f3d f1b7 1d3c 4b11 73bc 1cfa 833d
00000220: 5d7f 443d de01 4e3d 27fe f53d 72c9 bbbc
00000230: 3099 17be f920 16be e1c4 e23d f72c 93bc
00000240: 9017 0d3e 9235 aabd de27 03be b8b5 6fbb
00000250: b240 d33c 53d1 5d3d 0b4f 523d 3b5d 9dbc
00000260: 0009 c43b d1b4 693d 5a5b 3d3e 76e3 563d
00000270: c24b a53d 5581 973d b7d9 f9bc f8b2 f43d
00000280: eb70 cf3d 197a 17be 49cd 4abd c044 a7bd
00000290: 728a eabb 8f18 03be 6b1f af3d e1f7 8d3d
000002a0: 3ee4 ee3c 31d0 d6bd ddf4 27bd aacc 5f3d
000002b0: 1fb2 163e c6ff ee3d 0e2e 053e 7483 a3bd
000002c0: 2878 87bd d2df 903d 32c7 f33d ff5f 1ebe
000002d0: 6e13 0e3d beb3 48bc 782f ab3d cb4f 513d
000002e0: 74af 42bd bffe 963c 1d47 81be ba81 9b3b
000002f0: 79a7 fe3c d0d6 37bd 3edd ccbd ff37 adbd
00000300: ecd2 063d 1d3f 663d 02c5 5cbd 22be bcbc
00000310: 10c3 d2bc b413 fdbc 9b03 44bd f957 f33b
00000320: f516 94bd 6f17 21bd bcc5 073e 30a6 a73d
00000330: c55b 12be 9505 063e be28 3bbd 8914 c1bd
00000340: 6d3d 7f3c 3452 63be 6dcf 4fbd 6af1 16be
00000350: 5525 4b3d 4a88 933d de50 0a3e abc4 05bd
00000360: 0b8a 63bd fa96 0bbe ead5 ba3d cd45 9c3d
00000370: bd72 cabd e837 f0bd 180b 6cbd 3e55 ea3d
00000380: 7709 d73d 535b 173c e90e 43bd 357d 18be
00000390: 5b5d 12bb 3025 c4bd c972 cabd 81da 1fbd
000003a0: 380e 133e 7892 d43d 1e56 e9bb 0979 313d
000003b0: a5e5 90bd e864 fabb ff5e 8b3d 08fe 933d
000003c0: 72c7 09bc 32f7 f13d e824 09bd d3cc c7bd
000003d0: 225c 03bd 3b87 13bd aec6 963d 041c 563d
000003e0: 2a24 06bd 0b80 82bd 4596 463d 2084 68bd
000003f0: 1d07 9f3d 670e 0abe 1f61 b9bd 9821 d4bc

decoder.0.bias f4 [128]
0.015299803 1.5177836e-05 -0.004084613 -0.014695168 0.020339755 0.008046984 0.021345992 0.03724938
0.01630299 0.015819578 0.0033544016 0.013569982 0.0038365317 -0.02050213 0.019787388 -0.015556257
0.0009318804 -0.022483746 0.027253697 0.026485717 0.05325437 -0.008725419 0.017888468 0.024402827
0.03795488 0.0067628534 0.013347099 0.017900085 0.036411203 -0.031207675 0.046004683 -0.0020673224
0.032672245 0.013842635 -0.011872071 0.06085389 0.0356728 0.0013229178 0.036986936 0.016539892
-0.016146569 0.052348472 -0.019831488 0.041683234 0.011882589 0.026361858 -0.029364634 -0.012486156
0.01018149 0.0010354102 0.0088886805 0.020750506 0.025788495 0.0308661 0.08194332 -0.008261539
-0.00047314283 0.01980023 0.0065971664 -0.01849315 -0.01706945 -0.013324292 -0.008384945 -0.01478779
0.010783945 0.007809565 0.033262637 0.030327862 0.042490423 0.029371817 0.009905306 0.008909225
0.0071363063 0.020806098 -0.018980745 0.01901878 0.0053101084 -0.008887337 0.011621649 0.013710423
0.023656134 0.015781814 -0.0105074085 0.003171927 0.04286725 0.061083607 -0.002500949 0.0060838065
0.03552454 0.022936547 0.047291793 -0.0206313 0.0042234515 0.036063034 0.036733028 -0.008450088
0.02095181 0.009402271 0.041273322 0.013847477 0.031208448 0.008197616 0.042882495 2.2144719e-05
0.006060552 0.0016476214 0.0090466915 0.0047303615 0.012932213 -0.027724942 0.009986515 -0.022102147
0.016580313 0.00070715684 0.005145443 -0.014768555 -0.016826255 0.018983977 -0.022036824 -0.022377018
-0.01636427 0.034691624 -0.008486675 0.027403664 -0.0103712 0.02017717 -0.0031094097 -0.0043536737
00000000: 06ac 7a3c 4fa4 7e37 38d8 85bb 00c4 70bc
00000010: 8f9f a63c 7fd7 033c cadd ae3c ce92 183d
00000020: d98d 853c 0f98 813c 85d5 5b3b a154 5e3c
00000030: 526e 7b3b 15f4 a7bc 2919 a23c acdf 7ebc
00000040: 6f49 743a d52f b8bc 2543 df3c 93f8 d83c
00000050: 4121 5a3d 0ff5 0ebc d68a 923c 70e8 c73c
00000060: 9476 1b3d ed9a dd3b caad 5a3c 33a3 923c
00000070: ea23 153d 3da7 ffbc 686f 3c3d ea7b 07bb
00000080: 55d3 053d 38cc 623c 1383 42bc ee41 793d
00000090: a41d 123d c165 ad3a 9d7f 173d ab7e 873c
000000a0: cf45 84bc 5a6b 563d a575 a2bc 0abc 2a3d
000000b0: 31af 423c d3f4 d73c 1a8e f0bc bc92 4cbc
000000c0: 44d0 263c 9ab6 873a d4a1 113c f7fc a93c
000000d0: 6542 d33c e7da fc3c e6d1 a73d 685b 07bc
000000e0: 2810 f8b9 1834 a23c 0b2d d83b f27e 97bc
000000f0: 3bd5 8bbc 224e 5abc 0261 09bc 7d48 72bc
00000100: 25af 303c 61e7 ff3b 673e 083d 2372 f83c
00000110: 700a 2e3d 2a9d f03c dd49 223c 00f8 113c
00000120: add7 e93b 8d71 aa3c 827d 9bbc 46cd 9b3c
00000130: 6b00 ae3b 319c 11bc bb68 3e3c afa1 603c
00000140: 82ca c13c dd48 813c 4427 2cbc 1be0 4f3b
00000150: 9295 2f3d ce32 7a3d f6e6 23bb ab5a c73b
00000160: 2e82 113d 6de5 bb3c 0ab5 413d f902 a9bc
00000170: e164 8a3b d5b6 133d 5f75 163d 3d72 0abc
00000180: 21a3 ab3c fc0b 1a3c 370e 293d 87e0 623c
00000190: dca8 ff3c 4b4f 063c 8ea5 2f3d 6cc3 b937
000001a0: 9897 c63b 00f5 d73a 9338 143c 2601 9b3b
000001b0: a2e1 533c 6b1f e3bc 7b9e 233c 900f b5bc
000001c0: 70d3 873c 7e60 393a 1b9b a83b cff7 71bc
000001d0: 37d7 89bc 4984 9b3c 9286 b4bc 0250 b7bc
000001e0: 5d0e 86bc ce18 0e3d b20b 0bbc a67d e03c
000001f0: f7eb 29bc 984a a53c 3dc7 4bbb 43a9 8ebb
