Project testing/models/autoencoderL320.pth (torch, 423222 bytes, 16 tensors)

encoder.0.weight f4 [32, 18]
-0.3417138 0.10896553 0.0007532097 -0.23291513 0.00924997 -0.20477766 0.11924548 0.09560252
-0.11688296 0.29251137 0.2233988 -0.12771386 0.39272177 0.34478968 -0.2269306 0.054153744
-0.47567132 0.13484691 0.32511476 0.10435772 0.024402365 -0.34348023 0.077146865 0.07782421
0.17166379 0.08369285 -0.019716006 0.124780364 0.19986565 -0.013290582 0.6461009 -0.08114906
-0.30228052 -0.25312212 0.28780514 0.15037419 0.09807488 -0.06623722 0.001990714 0.3021051
0.35951278 -0.21620926 0.019440535 -0.22490834 -0.031063989 0.015128174 0.42237368 -0.15308018
-0.46726182 0.3031005 0.0086977985 0.09548463 -0.57711244 -0.64508766 0.016181728 0.11808725
0.024482643 0.33464816 -0.12952222 0.052184295 -0.23407309 0.10642414 -0.059266694 0.19558279
-0.14494482 -0.09886394 0.24037787 -0.010172958 0.3641192 0.4042049 -0.17802516 0.0841748
-0.35739982 -0.13453925 0.02252658 0.29874533 -0.4608059 -0.20681891 0.32327753 0.057309393
0.01941727 0.070374675 -0.41153517 -0.21629626 -0.19402856 -0.2966735 -0.19779824 -0.6171419
0.09645621 0.17375338 -0.0032902032 0.13066791 0.0748234 0.022732923 0.089947 -0.09140715
0.03622241 0.16678421 0.044524528 0.35901022 -0.15518436 0.059104428 -0.2713288 0.13732937
-0.3963612 -0.13230316 -0.12966171 0.079627596 0.105017155 0.18572114 -0.093596555 -0.3337968
0.015125116 0.09343058 0.13474731 -0.12864658 0.09472179 -0.002657392 -0.10436296 0.014694057
-0.24408554 -0.029555047 0.35522172 -0.39582613 0.033951633 0.40185997 0.58614725 -0.14301409
-0.018560644 0.4015104 -0.10774101 -0.17794679 0.20831662 0.023169924 -0.030647391 0.00092977897
-0.061455477 -0.10265403 0.57591784 0.18141218 0.04416284 0.16230121 0.36919725 0.17706025
0.086843684 -0.13720043 -0.0415472 -0.4729576 0.06657912 -0.1943065 -0.04604491 -0.059246548
-0.1370339 0.3281867 0.20143498 -0.06225864 -0.0051006204 0.13496496 0.13200292 0.42590028
-0.02193536 -0.61597216 -0.35720664 -0.07817674 -0.10921085 0.088392586 0.2716488 -0.38565868
0.034411646 -0.2668027 -0.2342477 -0.14514379 0.17816593 -0.3685123 0.18098807 0.044736978
-0.3265968 -0.19839564 0.16114503 -0.17068008 -0.043104146 0.23653255 -0.060617827 -0.17181376
-0.0395355 -0.29693204 0.15972322 0.4133757 -0.12322952 -0.18207973 -0.33273464 -0.22600132
-0.58038265 0.4631026 -0.18542002 -0.23651955 0.07700021 -0.287621 0.46600664 0.31626454
0.027921107 -0.079996064 -0.30022576 -0.5714985 0.34286457 0.07271293 -0.24097057 -0.07343867
0.08908081 -0.39273727 -0.3004785 -0.050245788 -0.31675962 -0.016072366 0.121411525 -0.6140281
-0.3913845 0.056766402 -0.05540504 0.33075294 -0.11366993 -0.17407373 0.4285208 0.33150014
-0.17994478 -0.16990203 -0.117673434 -0.14667161 0.023295842 0.056616925 0.11590941 -0.0429315
-0.7112541 0.17144248 -0.19751088 -0.0366006 0.08545782 -0.067815095 -0.21224122 -0.25470462
0.30162552 -0.20522043 -0.2245851 -0.29255298 0.06799097 -0.27816123 -0.0885839 -0.35468933
-0.3355175 0.32721347 -0.28780207 0.16949373 -0.15442236 -0.3711342 0.021768192 0.08249443
00000000: 1cf5 aebe 5229 df3d 0c73 453a 4e81 6ebe
00000010: 308d 173c 3cb1 51be f936 f43d 41cb c33d
00000020: 5560 efbd 0dc4 953e a8c2 643e 6cc7 02be
00000030: d412 c93e 4688 b03e 7f60 68be 51d0 5d3d
00000040: 318b f3be 4f15 0a3e 7175 a63e 80b9 d53d
00000050: 78e7 c73c a4dc afbe 2dff 9d3d 4d62 9f3d
00000060: a2c8 2f3e 2867 ab3d 7683 a1bc d98c ff3d
00000070: 95a9 4c3e bec0 59bc de66 253f 7a31 a6bd
00000080: 83c4 9abe 3999 81be 325b 933e b1fb 193e
00000090: 7cdb c83d 61a7 87bd a476 023b 85ad 9a3e
000000a0: 0f12 b83e f665 5dbe c241 9f3c 5f4e 66be
000000b0: e879 febc 29dc 773c 5d41 d83e 0dc1 1cbe
000000c0: f13c efbe fd2f 9b3e 3681 0e3c 728d c33d
000000d0: a4bd 13bf 7724 25bf 8b8f 843c bad7 f13d
000000e0: d38f c83c 0157 ab3e 79a1 04be 33bf 553d
000000f0: dbb0 6fbe e6f4 d93d a2c1 72bd db46 483e
00000100: 6a6c 14be 2d79 cabd 9e25 763e 7aac 26bc
00000110: d56d ba3e f2f3 ce3e 3a4c 36be d663 ac3d
00000120: 1cfd b6be a8c4 09be aa89 b83c 26f5 983e
00000130: c0ee ebbe 56c8 53be a284 a53e 41bd 6a3d
00000140: f710 9f3c 9920 903d bdb4 d2be c47c 5dbe
00000150: 6caf 46be 97e5 97be 9f8b 4abe 03fd 1dbf
00000160: d58a c53d 68ec 313e 73a0 57bb cfcd 053e
00000170: 033d 993d 653a ba3c 2236 b83d ac33 bbbd
00000180: f35d 143d 7bc9 2a3e 5a5f 363d 30d0 b73e
00000190: a6e8 1ebe 7c17 723d 9ceb 8abe 12a0 0c3e
000001a0: dbef cabe 7b7a 07be 0ac6 04be cb13 a33d
000001b0: 3c13 d73d af2d 3e3e 8daf bfbd 6ae7 aabe
000001c0: 56cf 773c 8858 bf3d 33fb 093e eebb 03be
000001d0: 7ffd c13d a427 2ebb 3fbc d5bd 58bf 703c
000001e0: 8ff1 79be 6d1d f2bc 9fdf b53e b9a9 cabe
000001f0: de10 0b3d 97c0 cd3e bf0d 163f 4972 12be
00000200: 7e0c 98bc c592 cd3e 52a7 dcbd af37 36be
00000210: f450 553e dace bd3c 3d10 fbbc 69bc 733a
00000220: bdb8 7bbd 473c d2bd 5a6f 133f 1dc4 393e
00000230: 18e4 343d 4a32 263e 6c07 bd3e 484f 353e
00000240: 1adb b13d 457e 0cbe 662d 2abd 8027 f2be
00000250: a25a 883d 48f8 46be 9699 3cbd 82ac 72bd
00000260: 9d52 0cbe 1608 a83e f944 4e3e ea02 7fbd
00000270: 1b23 a7bb 4134 0a3e c62b 073e 9a0f da3e
00000280: c9b1 b3bc 5ab0 1dbf cae3 b6be 201b a0bd
00000290: f0a9 dfbd 2c07 b53d 8d15 8b3e 0e75 c5be
000002a0: 3af3 0c3d 5d9a 88be a1de 6fbe 93a0 14be
000002b0: 2171 363e a5ad bcbe f054 393e 1f3e 373d
000002c0: b237 a7be 3a28 4bbe 3403 253e c2c6 2ebe
000002d0: f98d 30bd 9735 723e 664a 78bd f2ef 2fbe
000002e0: faef 21bd 7a07 98be 7c8e 233e fba5 d33e
000002f0: c25f fcbd 1c73 3abe 325c aabe e46c 67be
00000300: f593 14bf c91b ed3e bfde 3dbe 2e32 72be
00000310: 49b2 9d3d 0f43 93be 6c98 ee3e 6ded a13e
00000320: ceba e43c fad4 a3bd 31b7 99be ba4d 12bf
00000330: f28b af3e 84ea 943d fdc0 76be 0367 96bd
00000340: 0070 b63d dc14 c9be 51d8 99be 87ce 4dbd
00000350: 512e a2be 32aa 83bc 9ba6 f83d f230 1dbf
00000360: 8d63 c8be e383 683d 65f0 62bd 7358 a93e
00000370: c8cb e8bd 6240 32be 1467 db3e 63ba a93e
00000380: 7243 38be ccfa 2dbe c5fe f0bd 1531 16be
00000390: ecd6 be3c 26e7 673d ea61 ed3d f1d8 2fbd
000003a0: c014 36bf 9e8e 2f3e 4b40 4abe 83ea 15bd
000003b0: 8204 af3d a4e2 8abd c355 59be a568 82be
000003c0: a96e 9a3e 4e25 52be a3f9 65be 81c9 95be
000003d0: da3e 8b3d 266b 8ebe 7a6b b5bd d799 b5be
000003e0: f3c8 abbe 8688 a73e cb5a 93be c48f 2d3e
000003f0: e520 1ebe 4d05 bebe 3553 b23c d7f2 a83d

encoder.0.bias f4 [32]
0.34710184 -0.20330599 0.4467551 -0.30453566 -0.2239121 -0.29070285 -0.34662458 0.28253055
0.63817865 -0.32472342 0.012262219 0.37828493 0.45344356 -0.058363795 0.41967067 0.13245288
0.18641454 0.019344129 -0.14706722 0.32135007 -0.19229738 -0.2602257 0.38617355 0.39260665
-0.23347309 0.34953544 0.09385802 0.10416105 -0.12335908 0.49431092 -0.16644385 -0.085302696
00000000: 55b7 b13e 722f 50be 16bd e43e 19ec 9bbe
00000010: 3749 65be 01d7 94be c778 b1be d8a7 903e
00000020: ad5f 233f 2642 a6be 79e7 483c 90ae c13e
00000030: c129 e83e e00e 6fbd 13df d63e baa1 073e
00000040: 74e3 3e3e 9477 9e3c ca98 16be ff87 a43e
00000050: 9be9 44be 4e3c 85be 8ab8 c53e bd03 c93e
00000060: 9213 6fbe 4ff6 b23e a238 c03d 6352 d53d
00000070: afa3 fcbd 5216 fd3e 4270 2abe 2eb3 aebd

encoder.2.weight f4 [64, 32]
0.21601893 -0.051874775 -0.17055291 0.12690613 0.073363304 -0.22994967 0.28986755 -0.050144896
0.060304575 -0.09600419 -0.0049234508 0.18827033 -0.10384927 0.20992453 -0.010615865 -0.032947868
0.21753114 -0.23077065 0.08351322 -0.0446497 -0.096839614 -0.3147384 0.13029812 -0.07317078
0.08155275 -0.1253553 -0.025103275 0.17901735 0.29034188 -0.20755161 0.08755099 0.09073816
-0.06049294 0.067437775 0.043200977 0.117449515 0.1365991 0.15564524 -0.32020387 0.07351648
-0.0018626156 -0.047435675 0.052148726 0.18003666 0.10629644 0.07080989 -0.098137185 0.05266742
0.01671878 0.016951364 0.24862473 0.14506702 0.17439233 -0.05984095 -0.093947716 -0.21225052
0.05695713 0.018666185 0.102144815 0.17425923 0.12214884 0.17772149 -0.24052088 0.20245458
-0.07593741 0.29564494 0.16756739 -0.016592314 0.32504684 -0.12446646 0.12643556 -0.33105195
0.3976056 -0.1836168 0.20702946 0.21131082 -0.2891815 -0.20393407 0.20650731 0.06905135
0.0010716406 -0.20281 0.34458536 0.10614051 -0.27013096 -0.11658907 -0.079471126 0.22348416
0.16232613 -0.075520426 -0.17266655 0.3179809 -0.16430983 -0.026640624 0.09949668 0.108520016
0.13607132 0.4296373 0.02766803 0.01613719 -0.07415106 -0.2237296 -0.044631027 0.3161503
0.121791676 -0.27016875 -0.18232922 0.21402062 -0.15959278 -0.213434 0.2749453 0.0070774658
0.4048737 -0.35254613 -0.15130824 0.21053314 -0.100545526 0.040439405 -0.14479148 -0.13032492
0.08658856 0.12337586 0.02306627 0.19038767 -0.22830574 0.3170844 0.051903483 0.21831813
0.17719032 -0.06241874 0.116939954 0.17239113 -0.07783217 0.06571502 -0.17041476 0.26808256
-0.18681978 0.44370568 -0.08068644 -0.14305206 0.1149928 0.10329501 0.23674753 0.27290294
-0.077265814 -0.025680749 0.13130015 -0.25053936 -0.019861132 0.2842717 0.15109871 0.015285842
0.19473648 -0.15462767 0.20710629 -0.2446336 -0.17469409 -0.20884852 0.04495133 -0.0029936773
-0.28354582 0.28862152 0.0066130725 -0.19118011 0.18595254 -0.255148 0.020776022 0.31136912
-0.22226323 0.36515045 -0.14232183 -0.2935654 -0.19820713 0.1681259 0.04158373 0.26878855
0.011937396 0.060724948 -0.10346297 0.026401665 -0.41591588 0.13631159 0.24358805 -0.16343676
-0.051673885 -0.16942397 0.3236626 -0.11361336 0.097826235 0.24469978 -0.1301306 -0.038933825
-0.019331565 -0.27058217 0.16188103 0.087191574 0.019066658 0.14062877 -0.292487 -0.07407168
0.3485164 -0.13520761 0.1604793 0.08663158 -0.09882615 -0.059955366 0.1716402 0.015194913
-0.011459213 -0.08402475 -0.20601314 0.1216646 0.31158766 -0.02662223 -0.121526815 0.01361811
-0.048748862 0.04411779 -0.13547659 -0.13840562 0.11433249 -0.26328528 0.05026958 -0.10918156
0.123471774 0.16286206 0.1220713 0.18735713 0.17727257 -0.115070865 -0.26048908 -0.05609877
0.06369824 0.10853926 -0.24149178 -0.13962759 -0.2248388 -0.23119482 -0.09544243 0.19055542
-0.092887245 0.16794139 0.04539406 0.20833118 0.07450128 -0.0070389593 0.1344567 0.043657288
-0.0273381 0.13681303 -0.07351059 -0.030025965 -0.112121895 0.34600925 0.26713678 -0.24455991
00000000: 1134 5d3e a57a 54bd 6ca5 2ebe aef3 013e
00000010: 803f 963d ed77 6bbe 8569 943e bc64 4dbd
00000020: ee01 773d d89d c4bd e654 a1bb f0c9 403e
00000030: edae d4bd 75f6 563e 2aee 2dbc 58f4 06bd
00000040: 7cc0 5e3e 244f 6cbe fb08 ab3d 9be2 36bd
00000050: d953 c6bd 6425 a1be df6c 053e 90da 95bd
00000060: 2105 a73d 245d 00be 62a5 cdbc 5350 373e
00000070: b1a7 943e 6988 54be ef4d b33d eed4 b93d
00000080: 72c7 77bd d11c 8a3d 82f3 303d 5f89 f03d
00000090: a2e0 0b3e 7761 1f3e c3f1 a3be cf8f 963d
000000a0: 0223 f4ba e94b 42bd e799 553d 885b 383e
000000b0: f3b1 d93d c704 913d 26fc c8bd cbb9 573d
000000c0: d3f5 883c 96dd 8a3c 7b97 7e3e 738c 143e
000000d0: e793 323e c91b 75bd a967 c0bd 3358 59be
000000e0: e14b 693d d4e9 983c 4d31 d13d 0371 323e
000000f0: 2c29 fa3d 9ffc 353e 1b4b 76be 4150 4f3e
00000100: 1385 9bbd c65e 973e c996 2b3e 9bec 87bc
00000110: 8a6c a63e 45e8 febd 5378 013e a47f a9be
00000120: f692 cb3e 0b06 3cbe 88ff 533e dd61 583e
00000130: 990f 94be 18d4 50be a776 533e cb6a 8d3d
00000140: 4b76 8c3a 6dad 4fbe 7e6d b03e 3260 d93d
00000150: 9b4e 8abe 40c6 eebd c2c1 a2bd 08d9 643e
00000160: d238 263e 74aa 9abd 80cf 30be 64ce a23e
00000170: d640 28be 703d dabc eac4 cb3d be3f de3d
00000180: 4856 0b3e 6cf9 db3e 10a8 e23c 2432 843c
00000190: 83dc 97bd 5f19 65be 06cf 36bd 74de a13e
000001a0: ea6d f93d 8f53 8abe 83b4 3abe 3928 5b3e
000001b0: 4a6c 23be 718e 5abe a1c5 8c3e 16ea e73b
000001c0: 9b4b cf3e ed80 b4be 8cf0 1abe 0096 573e
000001d0: d0ea cdbd caa3 253d 3844 14be e573 05be
000001e0: 5855 b13d 7cac fc3d 79f5 bc3c fcf4 423e
000001f0: fbc8 69be e358 a23e bf98 543d ca8e 5f3e
00000200: 6171 353e cbaa 7fbd 377e ef3d 4d87 303e
00000210: 7966 9fbd 9995 863d 3581 2ebe 1e42 893e
00000220: af4d 3fbe 642d e33e ef3e a5bd 3d7c 12be
00000230: 5881 eb3d 568c d33d f26d 723e efb9 8b3e
00000240: 8a3d 9ebd 6f60 d2bc 8c73 063e b246 80be
00000250: d0b3 a2bc 0f8c 913e 9fb9 1a3e 7871 7a3c
00000260: 0069 473e b756 1ebe ac13 543e 3b81 7abe
00000270: 02e3 32be 63dc 55be e31e 383d 9231 44bb
00000280: eb2c 91be 33c6 933e 79b2 d83b b8c4 43be
00000290: 586a 3e3e c2a2 82be 7a32 aa3c c66b 9f3e
000002a0: f998 63be 00f5 ba3e d0bc 11be 344e 96be
000002b0: cff6 4abe 3229 2c3e b453 2a3d a79e 893e
000002c0: 1195 433c b9ba 783d 65e4 d3bd 4e48 d83c
000002d0: edf2 d4be 4495 0b3e 256f 793e f75b 27be
000002e0: ffa7 53bd 7a7d 2dbe 1bb7 a53e 1fae e8bd
000002f0: 1f59 c83d 9492 7a3e f540 05be 1379 1fbd
00000300: 3b5d 9ebc bf89 8abe 24c4 253e 7f91 b23d
00000310: ae31 9c3c fd00 103e dbc0 95be e5b2 97bd
00000320: be70 b23e dd73 0abe b054 243e e66b b13d
00000330: 5d65 cabd c293 75bd 73c2 2f3e 16f4 783c
00000340: 6cbf 3bbc 2b15 acbd 1cf5 52be 4a2b f93d
00000350: 6b88 9f3e dd16 dabc 0de3 f8bd 7e1e 5f3c
00000360: e3ac 47bd dbb4 343d 60ba 0abe 34ba 0dbe
00000370: 2727 ea3d 54cd 86be 7ae7 4d3d 959a dfbd
00000380: c5de fc3d 50c5 263e 8500 fa3d 8cda 3f3e
00000390: f186 353e 46aa ebbd d35e 85be d3c7 65bd
000003a0: 3974 823d d549 de3d 9f49 77be 89fa 0ebe
000003b0: 243c 66be 56be 6cbe 5277 c3bd f620 433e
000003c0: ab3b bebd d4f8 2b3e 1fef 393d c554 553e
000003d0: 2194 983d 12a7 e6bb 04af 093e fcd1 323d
000003e0: 27f4 dfbc b718 0c3e b88c 96bd 03f9 f5bc
000003f0: 2aa0 e5bd 2028 b13e 27c6 883e ea6d 7abe

encoder.2.bias f4 [64]
-0.004643195 -0.3444491 -0.18879567 0.13796389 -0.44263715 -0.025682682 0.09584827 -0.4081777
0.26295635 0.1265616 0.050344598 -0.3310907 -0.23066044 0.17634486 0.614516 -0.11414858
0.16121285 0.22725317 -0.22337005 0.3124127 0.009223785 -0.34760815 -0.18430683 0.163194
0.0746797 0.48429042 0.44970244 -0.20763408 -0.4053979 -0.28725675 -0.17917229 -0.30605817
0.029818902 -0.45016143 -0.2766895 0.6868239 -0.33970782 0.47527075 0.4132587 0.4349262
-0.13446425 -0.28191003 -0.2514379 0.24628302 -0.2043796 -0.09391862 -0.47619963 0.47123653
-0.3085789 -0.5969927 0.53440356 0.06734145 -0.26028064 -0.04004722 -0.037464116 0.50589436
-0.46151447 -0.21927884 -0.3933628 -0.2456282 -0.43705392 -0.23152408 -0.3476561 -0.018701877
00000000: f125 98bb a25b b0be a753 41be 6846 0d3e
00000010: 56a1 e2be 7d64 d2bc 194c c43d abfc d0be
00000020: 37a2 863e 5d99 013e 2336 4e3d b884 a9be
00000030: 4032 6cbe bf93 343e ec50 1d3f bbc6 e9bd
00000040: fb14 253e 0eb5 683e 1ebb 64be 8ff4 9f3e
00000050: 5c1f 173c b2f9 b1be eeba 3cbe 541c 273e
00000060: acf1 983d eaf4 f73e 663f e63e 079e 54be
00000070: 5090 cfbe 5113 93be f178 37be a8b3 9cbe
00000080: c546 f43c 8f7b e6be 3faa 8dbe b1d3 2f3f
00000090: 2fee adbe b056 f33e a596 d33e a6ae de3e
000000a0: ffb0 09be 8356 90be 78bc 80be 9e31 7c3e
000000b0: e348 51be 6858 c0bd 70d0 f3be ea45 f13e
000000c0: 0efe 9dbe 83d4 18bf acce 083f 50ea 893d
000000d0: 8143 85be 8e08 24bd f973 19bd 4b82 013f
000000e0: a04b ecbe a28a 60be d966 c9be f585 7bbe
000000f0: 88c5 dfbe a614 6dbe fbff b1be ae34 99bc

encoder.4.weight f4 [128, 64]
0.12782949 -0.06465868 -0.018980157 -0.009153117 -0.07996411 -0.15329443 0.021965036 -0.10268355
0.24172565 0.13650957 -0.07375577 0.15702687 -0.07887605 -0.051172946 0.23647857 -0.0041963197
-0.12496704 0.07231853 -0.059072662 0.24071349 -0.089741275 -0.05929104 -0.017128441 -0.103984945
-0.0045347926 0.17264085 0.23186345 0.1010447 -0.16838819 -0.03212149 0.20076044 0.07580932
0.116152056 0.10943607 0.13934135 0.071454786 -0.199373 -0.0022195552 -0.11315459 -0.028006949
-0.19255877 0.11056939 -0.1065128 0.08740756 -0.036877085 0.18166848 -0.08259033 -0.09308321
-0.19306816 -0.30513045 0.05521373 0.11767297 0.16356046 0.15320298 -0.004289289 0.124451965
0.12888177 -0.20185888 -0.067366965 0.0444349 -0.029767787 -0.042093966 0.057139114 0.032197326
0.13222232 0.08835793 -0.041747075 -0.40397 0.35665247 0.22488703 0.026614645 -0.011798132
0.14917652 -0.18275768 0.0828057 -0.05062187 -0.08124605 0.15765546 -0.13397756 -0.07520347
0.089823015 0.061743204 -0.024954133 -0.0010460002 -0.04774839 0.39271212 -0.26553336 -0.13726911
-0.22439821 -0.09633435 -0.29981953 0.0042867735 0.22352548 0.120292455 0.2858404 0.29237726
-0.12799108 0.10850288 -0.36284873 -0.25244138 0.23006116 0.019214554 0.084381364 0.11754607
0.0027147543 -0.071765974 -0.11656086 0.16252238 -0.3051044 -0.23355669 0.32057104 -0.13426913
-0.02923888 0.14123142 0.19714902 -0.15564796 0.08946235 0.15223226 -0.023745973 -0.33478475
-0.15437034 0.075668804 -0.26683047 0.07850121 0.017072262 0.03262114 0.011695854 -0.2618682
0.07179818 0.18165 0.15006408 -0.28540468 -0.25332525 0.088937156 0.00021380777 0.27883804
-0.31421202 0.20351943 -0.05738417 0.17492625 0.04568073 0.032422647 -0.19339672 0.34947863
0.04228188 -0.16070129 0.06143514 0.080232084 -0.014574752 -0.11077861 0.26110357 -0.0127615845
0.10947787 -0.021306558 0.13472973 0.16704656 -0.12795816 -0.033267546 0.28659078 0.16684571
0.039133444 -0.12385716 -0.15030047 0.00017591393 0.29423806 -0.0060300245 0.3255479 0.092331745
-0.10564115 0.015097056 0.096606515 0.04296296 -0.028229939 0.091485985 0.043317143 -0.17253351
0.0012577014 0.06974783 -0.08881283 0.080344774 -0.13058703 -0.1767435 -0.08069675 0.16186275
-0.050099693 -0.05945625 -0.0010484688 0.15628077 -0.027042571 0.0069437153 0.023054466 0.15902966
0.15631811 0.2896842 -0.014702306 -0.35406354 0.051931508 0.08293503 0.12216072 0.11121878
-0.4516891 0.21715243 -0.3450767 0.12422514 0.0062230253 0.038799938 -0.3396354 0.02726375
-0.18165231 -0.30602047 0.045081068 0.01216801 -0.07608205 -0.2794317 0.0826857 0.015146094
0.124971084 -0.16772586 0.28638273 0.12504323 -0.073693514 0.13411118 0.20557876 -0.030458579
0.15456502 0.2876082 -0.06130765 -0.17771098 -0.0047876793 0.20174041 0.12319435 -0.2705032
-0.43188322 -0.23434089 0.43935734 0.05292133 0.028580127 -0.06734497 -0.10877653 -0.20215282
0.026447646 -0.0070887394 -0.12420747 0.13451818 -0.15988994 0.018448737 -0.14125709 0.022423187
-0.20979537 -0.41327316 0.08531464 0.39054498 0.23365562 0.107973255 -0.05700046 -0.24301013
00000000: bce5 023e c56b 84bd 467c 9bbc f5f6 15bc
00000010: 39c4 a3bd 37f9 1cbe 05f0 b33c c14b d2bd
00000020: ee86 773e 2ac9 0b3e 440d 97bd a7cb 203e
00000030: c489 a1bd b99a 51bd 7027 723e 4881 89bb
00000040: b8ee ffbd bd1b 943d 2df6 71bd 997d 763e
00000050: 46ca b7bd 29db 72bd f250 8cbc 0ff6 d4bd
00000060: 9998 94bb c3c8 303e 9d6d 6d3e 86f0 ce3d
00000070: f46d 2cbe d391 03bd 2594 4d3e eb41 9b3d
00000080: 21e1 ed3d 0520 e03d 80af 0e3e e356 923d
00000090: 7028 4cbe f575 11bb 98bd e7bd d46e e5bc
000000a0: 202e 45be 3472 e23d 6223 dabd bc02 b33d
000000b0: 6d0c 17bd 4d07 3a3e 1e25 a9bd 69a2 bebd
000000c0: a9b3 45be 0f3a 9cbe cb27 623d 87fe f03d
000000d0: 657c 273e 3ee1 1c3e 2a8d 8cbb ace0 fe3d
000000e0: 95f9 033e 18b4 4ebe b1f7 89bd 5f01 363d
000000f0: 93db f3bc b96a 2cbd b40a 6a3d 58e1 033d
00000100: 4a65 073e 01f5 b43d fbfe 2abd 28d5 cebe
00000110: 279b b63e c948 663e f506 da3c f44c 41bc
00000120: bbc1 183e d424 3bbe 0996 a93d e158 4fbd
00000130: 5464 a6bd 6f70 213e 6a31 09be 4704 9abd
00000140: 21f5 b73d 71e6 7c3d 9c6c ccbc f119 89ba
00000150: d193 43bd 9011 c93e fdf3 87be 4690 0cbe
00000160: a5c8 65be f24a c5bd f281 99be 1078 8c3b
00000170: dde3 643e e45b f63d ac59 923e 79b2 953e
00000180: 1810 03be c236 de3d 4fc7 b9be ff3f 81be
00000190: 2795 6b3e d767 9d3c 23d0 ac3d febb f03d
000001a0: 05ea 313b 0afa 92bd 76b7 eebd 446c 263e
000001b0: a536 9cbe 7c29 6fbe e321 a43e d97d 09be
000001c0: 6086 efbc f89e 103e 6fe1 493e 2e62 1fbe
000001d0: 0938 b73d c6e2 1b3e ea86 c2bc e868 abbe
000001e0: 4213 1ebe 3ff8 9a3d 019e 88be 3ec5 a03d
000001f0: 21db 8b3c bf9d 053d f89f 3f3c 9713 86be
00000200: ed0a 933d 7502 3a3e 66aa 193e 9020 92be
00000210: d9b3 81be af24 b63d 9631 6039 dcc3 8e3e
00000220: 66e0 a0be 6667 503e aa0b 6bbd de1f 333e
00000230: b81b 3b3d 9ccd 043d ca09 46be ddee b23e
00000240: c42f 2d3d e18e 24be 6aa3 7b3d b850 a43d
00000250: f1ca 6ebc e5df e2bd 5eaf 853e f715 51bc
00000260: ef35 e03d 178b aebc 97f6 093e 410e 2b3e
00000270: 7707 03be 8d43 08bd 07bc 923e 9ad9 2a3e
00000280: 644a 203d d3a8 fdbd 5ee8 19be 8975 3839
00000290: 5fa6 963e 8397 c5bb 37ae a63e 6d18 bd3d
000002a0: 635a d8bd a459 773c a3d9 c53d eef9 2f3d
000002b0: 7942 e7bc 015d bb3d 516d 313d a0ac 30be
000002c0: 75d9 a43a f3d7 8e3d 80e3 b5bd cd8b a43d
000002d0: 9bb8 05be 40fc 34be 5644 a5bd 59bf 253e
000002e0: 5635 4dbd 6688 73bd c66c 89ba 1108 203e
000002f0: 6288 ddbc 1b88 e33b b8dc bc3c acd8 223e
00000300: db11 203e 7d51 943e f1e1 70bc d147 b5be
00000310: 22b6 543d d7d9 a93d 662f fa3d acc6 e33d
00000320: cb43 e7be 355d 5e3e e5ad b0be c069 fe3d
00000330: 85ea cb3b afec 1e3d b1e4 adbe 3a58 df3c
00000340: 1003 3abe b7ae 9cbe eda6 383d 555c 473c
00000350: e8d0 9bbd ac11 8fbe 1f57 a93d 5327 783c
00000360: d7f0 ff3d 54c0 2bbe c2a0 923e 550b 003e
00000370: a0ec 96bd 7154 093e 3d83 523e 4584 f9bc
00000380: 4b46 1e3e 6241 933e bb1d 7bbd def9 35be
00000390: f7e1 9cbb 0a95 4e3e 524d fc3d 657f 8abe
000003a0: cc1f ddbe 0ff7 6fbe 72f3 e03e 09c4 583d
000003b0: df20 ea3c 29ec 89bd 3bc6 debd 2601 4fbe
000003c0: bca8 d83c a848 e8bb 7c60 febd 22bf 093e
000003d0: 30ba 23be ce21 973c b3a5 10be d5b0 b73c
000003e0: 99d4 56be 8a98 d3be 71b9 ae3d 83f5 c73e
000003f0: 6b43 6f3e 1521 dd3d 5079 69bd a6d7 78be

encoder.4.bias f4 [128]
0.27473852 -0.28863308 -0.07882776 -0.049109366 -0.003824312 -0.40396467 0.14746323 -0.2786949
-0.39393392 0.074743986 -0.22406542 -0.28505972 -0.2586298 -0.31031722 -0.20003201 0.123183675
0.081092514 -0.13243663 -0.43678546 0.26694676 -0.10472022 -0.28773674 -0.20717022 -0.24024406
-0.27802822 0.043914113 0.124692366 -0.3448467 0.1293776 -0.30705535 -0.1621775 -0.34995756
-0.2599767 -0.23681137 -0.14499475 0.17451757 -0.032628957 0.10414594 -0.29466218 -0.02057921
-0.2048409 -0.19754992 -0.47978967 -0.2553653 -0.006329791 -0.28327817 -0.37163186 0.008824565
-0.25595188 -0.23065162 -0.018699666 0.05070331 -0.22208022 -0.08665168 -0.20550305 0.074557774
0.028125735 -0.14282322 -0.03670576 -0.19311039 0.14790873 0.4142604 -0.38628554 -0.3929909
-0.029189441 0.24591114 -0.26487026 0.027886363 -0.18795785 -0.17339426 -0.37927586 -0.3189471
-0.24783106 0.03658367 0.013672952 -0.25358263 0.015289925 -0.16461001 -0.23945546 0.31303033
-0.05013671 -0.12546048 -0.32868102 -0.29222307 -0.15228285 -0.1796145 -0.2559447 -0.19000663
-0.36828765 0.51804954 -0.047769528 -0.3010051 -0.25497842 -0.36938387 0.39763346 -0.2491387
-0.26910263 -0.02608793 -0.28621164 -0.4417194 -0.11584221 -0.1858172 0.18207993 -0.18593505
-0.11113215 -0.34365666 0.2121548 -0.36491314 -0.32958895 -0.326906 0.42160282 -0.3939833
-0.32517207 0.5381537 -0.004224892 0.09522282 -0.117169656 -0.02550009 -0.09231791 -0.22840142
-0.17639346 -0.21760137 -0.37125832 0.049748674 0.51966465 0.5505978 -0.24500737 0.4755319
00000000: 87aa 8c3e b7c7 93be 7370 a1bd e726 49bd
00000010: 4fa1 7abb 75d4 cebe 9a00 173e 19b1 8ebe
00000020: b5b1 c9be 6013 993d 6871 65be 59f3 91be
00000030: 206b 84be e6e1 9ebe 31d5 4cbe b947 fc3d
00000040: d513 a63d 789d 07be 58a2 dfbe 3fad 883e
00000050: 8e77 d6bd 3b52 93be 6e24 54be 8a02 76be
00000060: b759 8ebe 49df 333d b65e ff3d bf8f b0be
00000070: 907b 043e 5c36 9dbe dc11 26be a32d b3be
00000080: ab1b 85be ae7e 72be 8179 14be bcb4 323e
00000090: f1a5 05bd 774a d53d f6dd 96be bb95 a8bc
000000a0: d0c1 51be 874a 4abe fea6 f5be 3ebf 82be
000000b0: 236a cfbb d609 91be 8846 bebe e994 103c
000000c0: 200c 83be f02f 6cbe 0b30 99bc 46ae 4f3d
000000d0: ff68 63be 7076 b1bd 646f 52be bfb1 983d
000000e0: f167 e63c 4040 12be c758 16bd bbbe 45be
000000f0: 6375 173e f019 d43e 38c7 c5be 1a36 c9be
00000100: b21e efbc 21d0 7b3e 139d 87be f171 e43c
00000110: 0678 40be 448e 31be 7230 c2be 094d a3be
00000120: 6dc7 7dbe c2d8 153d 8404 603c 95d5 81be
00000130: 9882 7a3c 878f 28be d033 75be 8345 a03e
00000140: 275c 4dbd b678 00be e148 a8be 439e 95be
00000150: 09f0 1bbe ddec 37be 2f0b 83be 1991 42be
00000160: 3390 bcbe e59e 043f fba9 43bd 571d 9abe
00000170: 888c 82be e21f bdbe 9d96 cb3e 371e 7fbe
00000180: d2c7 89be 5bb6 d5bc 558a 92be 0c29 e2be
00000190: ae3e edbd dd46 3ebe 2973 3a3e c265 3ebe
000001a0: 4199 e3bd c4f3 afbe 1c3f 593e e5d5 babe
000001b0: e2bf a8be 3960 a7be 53dc d73e 2eb8 c9be
000001c0: f47c a6be 71c4 093f f670 8abb 2f04 c33d
000001d0: a5f6 efbd 91e5 d0bc 2c11 bdbd 10e2 69be
000001e0: 7da0 34be e5d2 5ebe 9215 bebe 44c5 4b3d
000001f0: be08 053f faf3 0c3f 36e3 7abe eb78 f33e

encoder.6.weight f4 [320, 128]
-0.1265156 0.14126596 0.10195856 0.03281351 -0.14470017 -0.10353629 0.05547861 0.01369261
0.1679277 -0.015253282 -0.030662255 0.17200804 0.052404225 0.06815846 -0.01947719 -0.14168209
0.06984476 0.2900767 0.25600737 -0.19406372 -0.06934832 -0.20435242 -0.11391136 -0.22797857
-0.058358952 -0.1924818 -0.14050108 -0.05466452 0.048976276 0.011878156 0.1714548 -0.11211735
-0.31172988 -0.015320369 0.16113557 -0.07153971 -0.11877098 -0.031667147 0.014436511 0.029392585
-0.15788314 -0.08139255 0.13141032 0.14179851 0.039430913 0.18519105 0.13978705 0.054462332
-0.0304543 0.20341592 0.03494152 0.205144 -0.045189466 -0.076689005 -0.009042446 -0.120446205
-0.21497564 0.06974822 0.056187827 0.10302723 -0.20715284 -0.12389369 0.22442724 -0.0041776975
0.049412243 0.05373787 -0.019064 -0.08915199 0.023550754 -0.04757481 -0.18159743 -0.20499028
0.08933665 0.05554346 0.04931556 0.08028375 -0.04585244 0.09174803 0.04278653 0.062412083
-0.13324574 -0.04146255 0.011266803 0.09523355 -0.091100104 0.027928382 0.033973858 0.0015894828
0.09643411 -0.13184127 -0.12708485 0.04815074 -0.10096683 0.010466568 -0.03777919 -0.030288106
0.15366523 -0.09763888 0.023302477 -0.2072611 -0.044827674 0.08140772 0.02916857 -0.019757185
0.048782878 -0.07485275 0.03220693 -0.04976581 0.04852776 0.1077592 0.10024209 0.25778854
0.0746568 -0.021682452 0.10350028 0.2414893 -0.10247716 -0.040892355 0.048421085 -0.024745086
0.034970816 0.15869349 0.066024154 0.102689944 0.08407981 -0.033397328 -0.20325775 -0.06725082
0.062359437 -0.047708713 0.07457651 0.19586413 -0.107888006 0.17690809 -0.015857989 -0.011078165
-0.09884401 0.32729203 -0.09554623 -0.074316286 -0.01809255 -0.06655134 0.088659264 -0.20094973
0.028372578 0.013487459 0.13637738 0.077992775 -0.20948383 -0.025248153 -0.0887518 -0.00064265984
0.16581134 0.03992969 0.086491264 0.19396873 -0.027773527 -0.05539968 0.09771959 0.014457827
-0.33367968 0.0129208565 -0.04015124 -0.1959362 -0.056172784 -0.223898 -0.039442655 0.054046553
-0.06134555 0.048790142 0.17141166 0.17397928 -0.07274551 0.104118034 0.103015095 -0.042052675
-0.045051318 -0.03994404 -0.014543984 -0.018410414 -0.0668009 0.16968475 0.027350279 0.064886115
0.08885295 -0.1786153 0.052625064 0.106598526 0.025253043 -0.297633 -0.08762399 -0.1836902
-0.087351546 -0.038889177 0.13784097 -0.06464794 0.16704237 -0.29327142 0.028794855 0.1518863
0.048829537 -0.09002945 0.06310485 -0.2000728 -0.027954176 0.03906949 -0.05548593 0.099056914
-0.11573591 -0.0779377 0.07817564 -0.015659219 -0.1970232 0.019408612 -0.054251257 -0.2586393
0.14131677 -0.16336296 -0.036199626 -0.11185437 -0.1930087 -0.04321313 0.056714736 -0.12192179
-0.24338502 0.03934339 0.12850334 -0.22120243 -0.31617644 -0.08585545 -0.036030397 0.07605072
0.1852344 -0.015405673 0.14865637 -0.06523272 -0.24863732 0.049980316 0.21300837 0.119110025
0.106812395 -0.0034375754 -0.008960699 0.014066464 -0.043062292 0.1939267 -0.008939761 -0.08220997
-0.14955068 0.25172663 -0.011542634 0.1302937 0.09508584 0.043716017 -0.0062818676 -0.07275013
00000000: 4e8d 01be 06a8 103e a6cf d03d 7667 063d
00000010: 482c 14be d60a d4bd 8a3d 633d f856 603c
00000020: 3df5 2b3e e7e8 79bc 692f fbbc e022 303e
00000030: d0a5 563d aa96 8b3d a18e 9fbc 1c15 11be
00000040: c50a 8f3d ef84 943e 6613 833e a4b8 46be
00000050: 7e06 8ebd c341 51be 5c4a e9bd 3773 69be
00000060: cc09 6fbd f319 45be 84df 0fbe e7e7 5fbd
00000070: 599b 483d 999c 423c d991 2f3e c89d e5bd
00000080: 0f9b 9fbe 4902 7bbc b900 253e 6983 92bd
00000090: 333e f3bd 69b5 01bd 1e87 6c3c b8c8 f03c
000000a0: 1eac 21be 23b1 a6bd 6d90 063e a133 113e
000000b0: 4f82 213d b9a2 3d3e 5624 0f3e e513 5f3d
000000c0: 4c7b f9bc 434c 503e d71e 0f3d 4511 523e
000000d0: 9718 39bd 200f 9dbd c426 14bc 80ac f6bd
000000e0: 9322 5cbe 28d8 8e3d 3525 663d f1ff d23d
000000f0: e01f 54be fabb fdbd 41d0 653e 11e5 88bb
00000100: 7e64 4a3d 3e1c 5c3d 1b2c 9cbc 5295 b6bd
00000110: 83ed c03c cedd 42bd adf4 39be f9e8 51be
00000120: 22f6 b63d 8a81 633d 1dff 493d cf6b a43d
00000130: c5cf 3bbd 64e6 bb3d ee40 2f3d d0a3 7f3d
00000140: 9271 08be a3d4 29bd 6698 383c cf09 c33d
00000150: b192 babd 10ca e43c 2c28 0b3d 3156 d03a
00000160: 3f7f c53d 6601 07be 8822 02be b639 453d
00000170: b3c7 cebd f87b 2b3c 5abe 1abd c31e f8bc
00000180: 6b5a 1d3e e5f6 c7bd d6e4 be3c 413c 54be
00000190: 399d 37bd 17b9 a63d edf2 ee3c d2d9 a1bc
000001a0: 8ed0 473d 664c 99bd 6aeb 033d 3cd7 4bbd
000001b0: 0bc5 463d dbb0 dc3d ba4b cd3d dcfc 833e
000001c0: aae5 983d 669f b1bc f4f7 d33d f948 773e
000001d0: 8cdf d1bd be7e 27bd 3055 463d 35b6 cabc
000001e0: 8f3d 0f3d 8c80 223e ac37 873d 1b4f d23d
000001f0: 0932 ac3d a3cb 08bd cd22 50be ccba 89bd
00000200: 9c6c 7f3d 366a 43bd 92bb 983d 9b90 483e
00000210: 63f4 dcbd 6527 353e 9de8 81bc 3181 35bc
00000220: ba6e cabd d292 a73e bead c3bd 2333 98bd
00000230: d436 94bc 124c 88bd fd92 b53d c4c5 4dbe
00000240: 9c6d e83c 81fa 5c3c 83a6 0b3e adba 9f3d
00000250: ee82 56be 37d5 cebc 81c3 b5bd 2c78 28ba
00000260: 73ca 293e 518d 233d 5522 b13d bd9f 463e
00000270: 4f85 e3bc c6ea 62bd 3521 c83d 86e0 6c3c
00000280: 10d8 aabe 00b2 533c a075 24bd 80a3 48be
00000290: 6f15 66bd 8445 65be 9f8e 21bd eb5f 5d3d
000002a0: 7945 7bbd 2cd8 473d 8a86 2f3e a027 323e
000002b0: 99fb 94bd d63b d53d 94f9 d23d 6d3f 2cbd
000002c0: bb87 38bd 5d9c 23bd e449 6ebc 70d1 96bc
000002d0: e9ce 88bd d7c1 2d3e b10d e03c 03e3 843d
000002e0: 89f8 b53d eee6 36be 618d 573d 5450 da3d
000002f0: 78df ce3c 5a63 98be 3574 b3bd 4919 3cbe
00000300: 5ee5 b2bd 424a 1fbd 2f26 0d3e 2466 84bd
00000310: 280d 2b3e ac27 96be 30e3 eb3c 1588 1b3e
00000320: 7b01 483d 5c61 b8bd 1e3d 813d e2df 4cbe
00000330: 2800 e5bc 5407 203d 3745 63bd 5ade ca3d
00000340: f306 edbd cd9d 9fbd 8d1a a03d c347 80bc
00000350: 73c0 49be cffe 9e3c 9136 5ebd 5f6c 84be
00000360: 58b5 103e 9f48 27be 0f46 14bd e713 e5bd
00000370: 13a4 45be 4000 31bd b64d 683d 22b2 f9bd
00000380: ec39 79be 8926 213d 6196 033e e482 62be
00000390: e1e1 a1be fbd4 afbd 9c94 13bd 7bc0 9b3d
000003a0: 16ae 3d3e 1368 7cbc 6039 183e bb98 85bd
000003b0: c89a 7ebe 29b8 4c3d de1e 5a3e f5ef f33d
000003c0: 75c0 da3d f248 61bb e5cf 12bc 0777 663c
000003d0: 1662 30bd b994 463e 1378 12bc b35d a8bd
000003e0: d023 19be 50e2 803e 511d 3dbc b66b 053e
000003f0: 5dbc c23d 910f 333d 20d8 cdbb 05fe 94bd

encoder.6.bias f4 [320]
-0.19578053 0.045298874 0.04263267 -0.02068128 0.0003959182 -0.0881256 -0.2886609 -0.3245869
-0.1783078 -0.2441359 -0.45909366 -0.06559067 -0.31739053 -0.268479 -0.17597009 -0.29376197
-0.12672083 -0.3139015 -0.16096695 -0.20086443 0.061553217 -0.024772793 -0.12392696 -0.044718664
-0.15145807 -0.19223513 0.17698154 -0.36434627 -0.18310954 0.2978652 -0.01688289 -0.21436955
-0.25377572 -0.13687158 -0.0873249 -0.24990311 -0.19644941 -0.37544814 0.14006329 -0.12685695
0.06495808 -0.020522892 -0.06737757 -0.12192643 0.12392628 0.13968898 0.18436433 -0.0510768
-0.071134396 -0.15704411 -0.074901946 -0.1089651 -0.12777731 -0.1895578 0.048709553 -0.32108247
-0.0024289691 -0.5392382 -0.028749662 0.18742104 0.009608467 -0.17832027 -0.23018828 -0.005062736
-0.120786294 -0.011189334 -0.036093976 -0.2486203 0.23307769 -0.16937724 0.06914941 -0.27926397
-0.105055094 -0.36592677 -0.10271833 0.27074078 0.24207723 -0.013975965 -0.08458305 -0.08397474
-0.20287426 0.07077177 -0.4031678 -0.22883679 -0.1577009 -0.02003458 -0.002524037 -0.17837541
-0.23844273 -0.10165107 -0.051062066 -0.22868425 -0.13477907 -0.113091595 -0.27602738 -0.28226262
-0.37945256 -0.2033121 -0.077610835 -0.01967911 -0.08305101 -0.024377178 -0.3396859 0.12705317
-0.13347246 0.19041711 -0.19715193 -0.21453664 -0.092245914 -0.3909797 -0.15290713 0.17266186
-0.24532749 -0.07338898 0.12326926 0.009049166 -0.05863345 0.2511464 -0.15679596 -0.23572037
-0.18190773 -0.35444188 -0.25920263 -0.18198875 0.07851285 0.03356949 -0.033526234 0.0016326825
-0.038165305 0.14631577 -0.2467477 0.14018953 -0.08346792 -0.47071132 0.13129817 -0.0953142
-0.20018636 -0.0546712 -0.0013473504 -0.048817836 0.100626044 -0.14081952 0.017525727 -0.20349659
-0.05801009 -0.18254621 -0.63997984 -0.5199596 0.22437365 -0.09689239 -0.0138690295 -0.40674475
-0.0018689197 -0.42934933 -0.4031118 -0.039556652 0.20688593 0.12852815 0.07904308 0.030000487
-0.10129367 -0.21039495 -0.31449938 -0.3249204 -0.6170062 -0.13842963 -0.33274832 -0.1283533
0.28245947 -0.08924764 -0.055166956 0.07192855 0.19673033 0.1842217 0.010457856 -0.26759005
-0.45064756 -0.1870904 -0.28906402 -0.094496235 -0.12941591 -0.056747194 -0.15971658 -0.042914417
-0.39314947 -0.23490271 0.045723207 -0.20687746 -0.0032412393 -0.23372337 -0.10656813 -0.002072893
-0.0460224 -0.03564998 0.15274584 -0.28956595 -0.26101026 -0.11214289 -0.100205496 -0.04525489
0.02320586 -0.28749073 -0.34387532 0.16624361 0.034225013 -0.2430371 0.14169611 0.04005429
-0.29344025 -0.27380055 -0.31271207 -0.019474419 -0.058433097 -0.10514158 -0.15968774 -0.318235
-0.24443798 -0.0062470078 -0.046927072 0.06351208 -0.5003792 -0.3572577 -0.5348957 -0.12854965
0.19603604 -0.19446672 -0.19968252 -0.18316056 0.24621066 -0.20609497 -0.48675928 -0.05179133
-0.15836307 -0.24244647 -0.4066288 -0.23800205 -0.035477642 0.14652953 0.031519867 -0.1284168
0.2250251 0.09316909 -0.39785686 -0.19388814 -0.019235253 -0.37742338 0.12932596 0.05568116
-0.06484001 -0.33404863 -0.1703898 -0.21795067 -0.038726415 -0.37938118 -0.31276283 -0.06873626
00000000: b17a 48be 508b 393d 989f 2e3d ca6b a9bc
00000010: 3e93 cf39 327b b4bd 5dcb 93be 4130 a6be
00000020: 5296 36be c3fe 79be 530e ebbe 6754 86bd
00000030: 0381 a2be 1476 89be 8131 34be f867 96be
00000040: 1bc3 01be b3b7 a0be 85d4 24be 68af 4dbe
00000050: 3a1f 7c3d 50f0 cabc 6bcd fdbd eb2a 37bd
00000060: d317 1bbe 49d9 44be a63a 353e 988b babe
00000070: 1181 3bbe ca81 983e fd4d 8abc b183 5bbe
00000080: e4ee 81be 1028 0cbe 66d7 b2bd 9ae6 7fbe
00000090: 092a 49be bd3a c0be c06c 0f3e cae6 01be
000000a0: be08 853d a01f a8bc 40fd 89bd 90b4 f9bd
000000b0: 10cd fd3d a10a 0f3e 01ca 3c3e e835 51bd
000000c0: e9ae 91bd 2cd0 20be 3166 99bd 1829 dfbd
000000d0: 0ed8 02be 711b 42be ab83 473d ec64 a4be
000000e0: 572f 1fbb 840b 0abf 6984 ebbc 4deb 3f3e
000000f0: d56c 1d3c 9799 36be 7ab6 6bbe 4fe5 a5bb
00000100: ce5e f7bd 7853 37bc 47d7 13bd 5296 7ebe
00000110: ebab 6e3e 3a71 2dbe 359e 8d3d b0fb 8ebe
00000120: 2027 d7bd c15a bbbe fd5d d2bd 899e 8a3e
00000130: 18e3 773e 72fb 64bc e139 adbd f3fa abbd
00000140: 45be 4fbe caf0 903d 036c cebe 3154 6abe
00000150: 587c 21be 8f1f a4bc 506a 25bb 0ba8 36be
00000160: 552a 74be 702e d0bd 7526 51bd 342c 6abe
00000170: 8603 0abe 919c e7bd 7653 8dbe ba84 90be
00000180: 9b47 c2be 0c31 50be 6ef2 9ebd 1636 a1bc
00000190: a616 aabd a6b2 c7bc 4feb adbe 3a1a 023e
000001a0: 01ad 08be b4fc 423e 32e2 49be 7eaf 5bbe
000001b0: 6deb bcbd 7e2e c8be b093 1cbe 45ce 303e
000001c0: 2137 7bbe f64c 96bd 9874 fc3d f442 143c
000001d0: a129 70bd 4396 803e 1f8f 20be ae60 71be
000001e0: 0546 3abe 6879 b5be 35b6 84be 425b 3abe
000001f0: 58cb a03d 2980 093d ce52 09bd bcff d53a
00000200: 3953 1cbd cdd3 153e 6eab 7cbe d88d 0f3e
00000210: 3bf1 aabd 1301 f1be 0773 063e 1734 c3bd
00000220: a7fd 4cbe e9ee 5fbd 9499 b0ba 36f5 47bd
00000230: 0715 ce3d fe32 10be 1d92 8f3c 6961 50be
00000240: fd9b 6dbd 65ed 3abe b8d5 23bf 131c 05bf
00000250: 35c2 653e 846f c6bd ed3a 63bc d940 d0be
00000260: 8af6 f4ba add3 dbbe ab64 cebe 2806 22bd
00000270: e8d9 533e e29c 033e 57e1 a13d 95c3 f53c
00000280: 0e73 cfbd c671 57be 1006 a1be f75b a6be
00000290: 1ef4 1dbf 7fc0 0dbe fd5d aabe 0c6f 03be
000002a0: 879e 903e 77c7 b6bd bff6 61bd 474f 933d
000002b0: ad73 493e 9da4 3c3e 6d57 2b3c 9001 89be
000002c0: 47bb e6be a094 3fbe 3300 94be 3e87 c1bd
000002d0: 9b85 04be bf6f 68bd be8c 23be 07c7 2fbd
000002e0: e34a c9be 568a 70be 4248 3b3d afd7 53be
000002f0: f96a 54bb 2e55 6fbe 6440 dabd 60d9 07bb
00000300: fc81 3cbd b705 12bd 6869 1c3e fd41 94be
00000310: 23a3 85be 2cab e5bd 8a38 cdbd 315d 39bd
00000320: 371a be3c fc31 93be 6d10 b0be c43b 2a3e
00000330: 872f 0c3d b8de 78be c918 113e f80f 243d
00000340: cd3d 96be 962f 8cbe cc1b a0be d188 9fbc
00000350: 8b57 6fbd 7854 d7bd 2f85 23be b3ef a2be
00000360: f34d 7abe b3b3 ccbb 9a36 40bd 9f12 823d
00000370: da18 00bf 7bea b6be edee 08bf 85a2 03be
00000380: acbd 483e 4922 47be 9379 4cbe 718e 3bbe
00000390: a61e 7c3e 8f0a 53be 8338 f9be 2523 54bd
000003a0: ee29 22be e343 78be a631 d0be cfb6 73be
000003b0: 0151 11bd d60b 163e fa1a 013d b27f 03be
000003c0: fb6c 663e 70cf be3d e5b3 cbbe 9d8a 46be
000003d0: 4093 9dbc a33d c1be 066e 043e ee11 643d
000003e0: d7ca 84bd 6c08 abbe aa7a 2ebe 762e 5fbe
000003f0: 979f 1ebd 403e c2be 7322 a0be 99c5 8cbd

decoder.0.weight f4 [128, 320]
0.05047707 0.078078434 -0.033719916 0.05398372 0.08162872 -0.044463348 0.11967138 0.1619251
0.02592526 -0.07746879 0.011833036 -0.062299214 -0.0021685818 0.045411166 -0.0087154275 -0.038970362
0.02492943 -0.0106485225 0.04483515 0.059444338 -0.10078469 0.13980295 0.10481469 -0.0015035411
-0.18450806 0.09537413 0.024827922 0.08241926 0.0087271165 -0.0018355928 -0.22207303 0.05508929
0.0011547448 0.05490127 -0.103817716 -0.017782668 0.024122747 0.07512535 0.017023517 -0.03405582
0.11009105 -0.29166976 0.004705281 -0.032315712 -0.01762171 0.04597069 -0.170147 0.07994974
-0.028002787 -0.11096738 0.11359949 0.10975004 -0.2597375 0.12459702 0.07449878 0.011879577
-0.09144945 0.018974544 -0.011611497 -0.19133237 0.009916398 -0.05854627 0.012674972 -0.07301073
-0.10573217 -0.1027712 0.1794753 -0.0389961 -0.0058040023 0.06777659 -0.4430404 0.034342196
0.06357036 0.18279181 0.08014643 -0.10622299 -0.071594805 -0.07366612 -0.050448544 -0.1933571
0.056368522 0.10309329 0.06653799 0.017882688 0.077673756 0.017248586 -0.12838879 -0.06336078
0.03438947 -0.048453216 0.07690718 -0.00850243 -0.10434046 0.09877854 -0.05241945 0.06530241
0.04934489 0.04589173 -0.008131283 0.11898008 -0.12894964 -0.06975183 0.06646403 -0.07359568
0.02268608 -0.033090852 0.03992127 0.025733974 -0.049103275 0.0853381 -0.01356167 -0.0126483925
0.056948394 -0.059739072 -0.1941652 0.024526402 -0.17475353 -0.000806643 0.050893664 -0.12182724
0.022880847 -0.078610815 0.04531987 0.06968288 -0.03468666 0.029330363 -0.06407285 0.05834139
-0.02452122 -0.07342058 0.06788394 -0.1324317 0.1327789 0.087784626 -0.06691674 -0.12806745
0.033768058 -0.17422855 0.05923698 -0.03116098 -0.032352366 0.13087222 -0.056961272 0.14476028
-0.047742162 -0.039139345 0.16173474 0.16045569 -0.02846523 0.02931026 0.0108189285 0.024695354
0.0042438465 0.028027507 0.13121949 -0.04680752 -0.050636012 -0.05212916 -0.01927403 -0.022200698
0.09155888 0.062225047 0.019952279 -0.118538775 0.18986587 -0.07161497 -0.08405624 0.020658748
0.06366129 0.024126891 0.015230604 0.029517671 -0.069370106 -0.07016394 0.03873539 0.20039894
-0.025939304 0.046521034 0.1072963 -0.05423084 0.08160491 0.034055877 -0.12150242 0.049412254
0.035926037 -0.011565275 -0.009873014 -0.050477266 0.0034670392 0.058847938 -0.0056549055 0.025049414
0.055329237 -0.05937461 0.042515263 0.07201413 0.080929436 -0.08828192 -0.07199683 0.023385841
0.061432607 0.020488821 -0.058207832 0.010276665 0.16381502 0.11899225 -0.10454392 -0.17332338
0.027377402 0.08381458 0.032811295 0.061323375 0.096891865 -0.09147207 0.020694016 -0.03353354
0.03744051 -0.0979956 -0.11760263 -0.045572083 0.046805803 -0.027235182 -0.0637113 -0.08662248
-0.020668171 0.059070308 -0.009681697 -0.0054196287 -0.031426318 0.0041662483 0.089410186 0.034158267
-0.04273098 0.044044156 -0.029174292 0.13150507 -0.058138106 -0.05627807 0.12598085 0.02785797
-0.11659691 -0.0247017 0.07075088 -0.02191356 -0.04478972 0.06057884 0.08305334 -0.031234998
0.13231727 -0.117711596 0.020060997 -0.009037653 0.119999215 0.012363276 -0.07301742 -0.16983473
00000000: 0bc1 4e3d 96e7 9f3d e51d 0abd 081e 5d3d
00000010: f52c a73d 331f 36bd 4516 f53d b2cf 253e
00000020: 3661 d43c f5a7 9ebd 5adf 413c 762d 7fbd
00000030: c41e 0ebb 0f01 3a3d 27cb 0ebc 639f 1fbd
00000040: ce38 cc3c 2477 2ebc 10a5 373d e87b 733d
00000050: 3468 cebd 8128 0f3e 16a9 d63d 7812 c5ba
00000060: aeef 3cbe 8353 c33d ed63 cb3c 6ecb a83d
00000070: 2efc 0e3c 4698 f0ba 1d67 63be 4fa5 613d
00000080: ce5a 973a 27e0 603d 629e d4bd f5ac 91bc
00000090: 119d c53c 52db 993d e774 8b3c 1e7e 0bbd
000000a0: 6b77 e13d bd55 95be c22e 9a3b 7b5d 04bd
000000b0: 685b 90bc c34b 3c3d 043b 2ebe b0bc a33d
000000c0: 1a66 e5bc de42 e3bd d9a6 e83d a1c4 e03d
000000d0: 50fc 84be b92c ff3d d192 983d 8fa2 423c
000000e0: d949 bbbd 8170 9b3c 263e 3ebc a2ec 43be
000000f0: 6378 223c 37ce 6fbd b0aa 4f3c a686 95bd
00000100: 1c8a d8bd b579 d2bd 5fc8 373e 60ba 1fbd
00000110: 802f bebb 74ce 8a3d 31d6 e2be 67aa 0c3d
00000120: 2d31 823d c72d 3b3e d023 a43d 708b d9bd
00000130: 4ca0 92bd 43de 96bd 22a3 4ebd 67ff 45be
00000140: aee2 663d 9322 d33d 1245 883d b77e 923c
00000150: 6b13 9f3d e84c 8d3c 5a78 03be 4cc3 81bd
00000160: f9db 0c3d e176 46bd 8381 9d3d c74d 0bbc
00000170: 73b0 d5bd 674c ca3d c7b5 56bd 45bd 853d
00000180: de1d 4a3d f7f8 3b3d 1339 05bc d4ab f33d
00000190: 600b 04be 0cda 8ebd 4b1e 883d 55b9 96bd
000001a0: 28d8 b93c 468a 07bd 7c84 233d 0ed0 d23c
000001b0: 8420 49bd bec5 ae3d c431 5ebc 343b 4fbc
000001c0: b842 693d f5b0 74bd 3ed3 46be 98eb c83c
000001d0: 97f2 32be e574 53ba e075 503d 8f80 f9bd
000001e0: 9d70 bb3c b5fe a0bd 54a1 393d e6b5 8e3d
000001f0: 9913 0ebd 3b46 f03c a038 83bd 62f7 6e3d
00000200: bae0 c8bc 875d 96bd bc06 8b3d 2d9c 07be
00000210: 31f7 073e 6dc8 b33d a50b 89bd 1d24 03be
00000220: 6050 0a3d f868 32be 7aa2 723d 5045 ffbc
00000230: ea83 04bd 5e03 063e 3950 69bd 0a3c 143e
00000240: 498d 43bd 9450 20bd cb9d 253e 7f4e 243e
00000250: ea2f e9bc 121c f03c e041 313c e94d ca3c
00000260: f70f 8b3b f199 e53c 675e 063e 3eb9 3fbd
00000270: b567 4fbd 6385 55bd 92e4 9dbc 3dde b5bc
00000280: 3983 bb3d b1df 7e3d f672 a33c 75c4 f2bd
00000290: 336c 423e dfaa 92bd ae25 acbd 893c a93c
000002a0: da60 823d c2a5 c53c c989 793c 0bcf f13c
000002b0: ea11 8ebd 1db2 8fbd 00a9 1e3d 6135 4d3e
000002c0: aa7e d4bc d78c 3e3d 2abe db3d 2821 5ebd
000002d0: 7a20 a73d 2d7e 0b3d 43d6 f8bd 8164 4a3d
000002e0: 2e27 133d 477c 3dbc 6cc2 21bc 40c1 4ebd
000002f0: 4437 633b 890a 713d c94c b9bb 6e34 cd3c
00000300: e9a0 623d cb32 73bd 7c24 2e3d 257c 933d
00000310: 55be a53d 27cd b4bd 1373 93bd aa93 bf3c
00000320: c2a0 7b3d 2cd8 a73c 566b 6ebd 755f 283c
00000330: 20bf 273e 35b2 f33d 1f1b d6bd af7b 31be
00000340: 9346 e03c fba6 ab3d 2365 063d 382e 7b3d
00000350: 3e6f c63d b555 bbbd 7f86 a93c 775a 09bd
00000360: 385b 193d ebb1 c8bd a6d9 f0bd cba9 3abd
00000370: 71b7 3f3d 511c dfbc 127b 82bd 2067 b1bd
00000380: 4c50 a9bc b5f3 713d fb9f 1ebc 2497 b1bb
00000390: e2b8 00bd 0685 883b b01c b73d 8ae9 0b3d
000003a0: ae06 2fbd a567 343d edfe eebc 44a9 063e
000003b0: 3922 6ebd d583 66bd 2001 013e 6636 e43c
000003c0: 5cca eebd 385b cabc d6e5 903d 1184 b3bc
000003d0: 6d75 37bd 8521 783d df17 aa3d 8ae0 ffbc
000003e0: 2e7e 073e c712 f1bd f656 a43c aa12 14bc
000003f0: 26c2 f53d 578f 4a3c 288a 95bd 28e9 2dbe

decoder.0.bias f4 [128]
-0.0030921253 0.03129224 -0.0052083833 0.04217142 -0.026165754 0.027152425 0.025305059 -0.027420035
0.0442065 0.026797885 -0.03186185 0.0051176553 0.008544361 -0.036354963 0.12462213 0.04500185
0.03287106 -0.034317307 -0.0009676566 0.06379106 -0.00011933526 -0.018629566 -0.020901658 0.012293398
-0.025864046 -0.04380108 0.035143632 -0.007785863 0.008518186 0.018598799 0.023974199 -0.023875762
-0.024062844 -0.035224155 0.047687802 -0.014405603 -0.041251622 0.04193524 -0.03500447 0.06373853
-0.013933634 -0.00982172 0.028835932 0.009280333 0.066473834 0.040307634 -0.045959484 0.050014164
-0.004713624 -0.008139639 0.018848162 -0.00413478 -0.026708337 0.024437545 -0.00627381 0.011455664
-0.034062296 0.04040376 -0.017790766 -0.0076193213 -0.033383943 0.02227788 0.018656723 -0.022639804
0.011337708 0.006300148 0.0125446115 0.021143382 -0.017356731 0.030654427 0.04141769 0.078221194
-0.02039633 -0.013477087 0.0514056 -0.045511905 0.047818385 -0.00084464275 -0.02173791 -0.011620654
0.0109819565 -0.017687684 -0.0066979467 0.03712174 0.020692851 -0.01765964 -0.034963563 0.024929503
-0.029376468 0.048191898 -0.0005171514 0.020323634 0.02119973 0.02749639 -0.028818151 -0.005614278
-0.036289852 0.033670437 0.0035726782 -0.023413662 -0.00717316 0.016772186 0.08586351 -0.0023139152
0.059961487 0.048250824 -0.03084505 0.037262242 0.04251273 0.11401344 0.024091212 -0.025300123
0.012048712 0.026205834 0.044198323 0.042073447 -0.024915412 -0.009390649 0.015146378 -0.0063788835
0.024619833 -0.028997498 -0.023658486 0.074086584 0.047352374 0.009071576 0.020315543 -0.0035405245
00000000: 41a5 4abb 4b2c 003d 16ab aabb f0bb 2c3d
00000010: 9059 d6bc c36e de3c 8e4c cf3c fb9f e0bc
00000020: e011 353d 3d87 db3c 9281 02bd 01b2 a73b
00000030: a6fd 0b3c f1e8 14bd e339 ff3d dc53 383d
00000040: cea3 063d 4e90 0cbd 56aa 7dba e3a4 823d
00000050: a143 fab8 089d 98bc f439 abbc 406a 493c
00000060: d6e0 d3bc c368 33bd c5f2 0f3d 8d20 ffbb
00000070: dd8f 0b3c 825c 983c 8a65 c43c 1a97 c3bc
00000080: 711f c5bc 3447 10bd 4954 433d 7a05 6cbc
00000090: 76f7 28bd 49c4 2b3d d960 0fbd 5989 823d
000000a0: e649 64bc 48eb 20bc 5539 ec3c 8a0c 183c
000000b0: 6f23 883d 9e19 253d 0340 3cbd a7db 4c3d
000000c0: be74 9abb 1f5c 05bc 7667 9a3c 0c7d 87bb
000000d0: 71cb dabc 3f31 c83c 8894 cdbb 8ab0 3b3c
000000e0: e884 0bbd 6a7e 253d f1bd 91bc 80ab f9bb
000000f0: 9abd 08bd 1a80 b63c fcd5 983c 1c77 b9bc
00000100: cbc1 393c 7971 ce3b ea87 4d3c e334 ad3c
00000110: b42f 8ebc fe1e fb3c 99a5 293d 6f32 a03d
00000120: 3416 a7bc 00cf 5cbc ae8e 523d b16a 3abd
00000130: 36dd 433d 046b 5dba b413 b2bc 8e64 3ebc
00000140: aaed 333c c3e5 90bc 737a dbbb f70c 183d
00000150: 0e84 a93c f3aa 90bc f435 0fbd f538 cc3c
00000160: eba6 f0bc de64 453d 7191 07ba c07d a63c
00000170: 0eab ad3c 1c40 e13c 0b14 ecbc faf7 b7bb
00000180: aba4 14bd 03ea 093d 9823 6a3b 02ce bfbc
00000190: d40c ebbb d365 893c 35d9 af3d 0ea5 17bb
000001a0: 2d9a 753d a8a2 453d c2ae fcbc 4ba0 183d
000001b0: d421 2e3d e17f e93d ef5a c53c 3442 cfbc
000001c0: f667 453c 9ead d63c 4d09 353d 3555 2c3d
000001d0: 681b ccbc 3ddb 19bc 8428 783c f405 d1bb
000001e0: 88af c93c 298c edbc 71cf c1bc b5ba 973d
000001f0: 90f4 413d f3a0 143c c86c a63c 2508 68bb
