Project testing/models/autoencoderL192.pth (torch, 357430 bytes, 16 tensors)

encoder.0.weight f4 [32, 18]
0	0x3c9da43b	0.01924335
1	0xbdc5f84e	-0.09666501
2	0x3e18037a	0.14845076
3	0x3ce7def2	0.02830455
4	0xbed98dfe	-0.42491144
5	0xbd4459a5	-0.047937054
6	0x3d0b2c53	0.033977818
7	0xbe8c0fef	-0.27355906
8	0x3df0df60	0.117613554
9	0x3e978a4f	0.2959771
10	0xbe2b8b40	-0.16752338
11	0xbe53ffca	-0.20703045
12	0xbe1318f8	-0.14364994
13	0xbec8529c	-0.39125526
14	0x3e9b47e8	0.30328298
15	0x3eea70ce	0.45789188
16	0xbcdf07d3	-0.02722541
17	0x3dcbf39f	0.099585764
18	0xbe876182	-0.2644158
19	0x3e4c8c75	0.19975455
20	0x3d39a911	0.04532725
21	0x3daa7ad4	0.08324209
22	0xbe652be9	-0.22380032
23	0xbcc34fe3	-0.023841804
24	0x3e02081f	0.1269841
25	0x3b38b40e	0.0028183493
26	0xbe2fc3f7	-0.17164598
27	0xbdb77e4a	-0.089596346
28	0x3dbc06ce	0.091809854
29	0x3d502dc4	0.050824896
30	0xbf02b801	-0.5106202
31	0xbe96bf5e	-0.29442877
32	0xbe06e6a9	-0.13173927
33	0xbeadd202	-0.33949286
34	0x3e871b78	0.26388144
35	0xbea10c09	-0.31454495
36	0x3eac2c2b	0.33627447
37	0x3e505795	0.2034591
38	0xbe1fde70	-0.15612197
39	0xbe2ba29a	-0.16761246
40	0xbe8401cc	-0.2578262
41	0xbcc02e49	-0.02345957
42	0x3f0d9bbb	0.5531575
43	0x3e30353c	0.17207807
44	0x3e1c61d2	0.1527169
45	0xbea235df	-0.31681725
46	0x3e253b1e	0.16135833
47	0xbd524f11	-0.051344935
48	0x3e93f4ca	0.28897697
49	0xbd2825d5	-0.041051704
50	0x3df7d2a3	0.12100723
51	0x3e33f1f6	0.1757277
52	0x3eb9c6c2	0.36284453
53	0x3dffe3d3	0.12494626
54	0x3e165b9a	0.1468338
55	0x3c32be39	0.01090961
56	0x3cd1eab9	0.02562462
57	0x3e457e46	0.1928645
58	0x3d365f17	0.04452428
59	0xbd1275e5	-0.035756964
60	0x3e669e4b	0.22521321
61	0x3c98796d	0.018612588
62	0x3d17f192	0.037095614
63	0x3daa89dd	0.083270766
64	0xbe10d083	-0.14142041
65	0x3e1a1ef5	0.15050872
66	0x3e8372e5	0.25673595
67	0x3eb5ad0d	0.3548359
68	0x3e8aeacd	0.27132264
69	0x3edf992c	0.43671548
70	0xbe2d05bc	-0.16896719
71	0xbedc3b29	-0.43013886
72	0xbd727e85	-0.05920269
73	0xbe2617b8	-0.16219985
74	0xbd260e10	-0.040540755
75	0xbe7b0a6d	-0.24515696
76	0xbe73d594	-0.23811942
77	0xbd203ef8	-0.03912255
78	0xbf2749c8	-0.65346956
79	0x3e28eb2a	0.16495958
80	0x3dd14cb9	0.10219712
81	0xbdd3362f	-0.10313069
82	0x3e7580d6	0.23974928
83	0xbdc421f2	-0.09576787
84	0xbd95b184	-0.07309249
85	0x3e65f4ba	0.22456637
86	0xbe8c568c	-0.2740978
87	0xbdbac459	-0.091194816
88	0x3eb789ac	0.35847223
89	0x3e143faa	0.14477411
90	0x3f1218a3	0.5706884
91	0xbdc50867	-0.09620743
92	0x3e216e38	0.15764701
93	0x3d876c74	0.06612483
94	0x3e5db20d	0.21649952
95	0x3d5e8f69	0.054335985
96	0x3ee5fc23	0.44918928
97	0x3e91ef52	0.285029
98	0xbe320510	-0.17384744
99	0xbe580b21	-0.21097995
100	0x3ed581bc	0.41700542
101	0x38d9b370	0.00010380789
102	0x3da22cbd	0.079186894
103	0x3e9b5b21	0.30342963
104	0xbda23ff8	-0.07922357
105	0x3e299192	0.16559437
106	0x3e05bfdc	0.1306147
107	0x3e8e0156	0.27735394
108	0x3e316f75	0.17327674
109	0xbe6c9539	-0.23103799
110	0x3ea153e2	0.3150931
111	0x3ebc5266	0.36781615
112	0x3cec5eed	0.028853858
113	0xbda19443	-0.07889607
114	0xbee7ae0e	-0.4524998
115	0xbe83cda1	-0.2574282
116	0xbded679c	-0.115920275
117	0xbee37a8f	-0.44429442
118	0x3da4a7e3	0.08039834
119	0xbe12d71f	-0.14339875
120	0x3f0b6870	0.54456234
121	0xbe9e4cc1	-0.30917934
122	0x3e2a8c91	0.16655184
123	0xbe55de6e	-0.20885631
124	0x3e69456d	0.2278039
125	0x3d639636	0.055563174
126	0x3e96a991	0.29426244
127	0xbf04387a	-0.51648676
128	0xbdf35b0f	-0.118826024
129	0x3cf202f8	0.029542431
130	0x3f10474f	0.5635881
131	0x3d417c01	0.0472374
132	0xbec649d4	-0.387282
133	0xbe25354a	-0.1613361
134	0x3d2c2c0c	0.042034194
135	0xbe44ee7b	-0.19231598
136	0x3e3eabcf	0.18620227
137	0x3e863eb2	0.26219708
138	0xbeb95aad	-0.36201993
139	0xbe41b039	-0.1891488
140	0x3ea60f34	0.32433474
141	0x3e68aa38	0.22721183
142	0x3e08c155	0.13355
143	0x3eaf06a4	0.34184754
144	0xbf08939f	-0.5335025
145	0x3da658d5	0.08122412
146	0xbd93bcc2	-0.07213737
147	0x3e8b0b46	0.27157038
148	0x3e85f0e7	0.26160356
149	0xbbd05613	-0.006357917
150	0x3e65c77f	0.22439383
151	0xbd55a627	-0.05216041
152	0x3d039315	0.03212269
153	0x3e1d52ed	0.15363665
154	0xbf0f3a67	-0.5594849
155	0x3d5094b7	0.050923076
156	0x3ee00909	0.43756893
157	0xbeaeea0c	-0.3416294
158	0xbe646c3f	-0.22306918
159	0x3e8107b0	0.25201178
160	0xbc0e3a1a	-0.008680845
161	0xbe3ec66c	-0.1863038
162	0xbf2523f9	-0.64508015
163	0x3d8d9e55	0.06914965
164	0xbda57a37	-0.08079951
165	0xbea07819	-0.31341627
166	0x3e93d62b	0.28874335
167	0x3cde577c	0.027141325
168	0x3e1d5189	0.15363134
169	0x3ea481a5	0.3213016
170	0x3d341db9	0.04397366
171	0x3e5d8670	0.21633315
172	0xbe50af8b	-0.20379464
173	0x3db49587	0.088175826
174	0x3f143ea8	0.57908106
175	0xbddca6a3	-0.10773971
176	0x3dc1e7c8	0.09468037
177	0xbe5c531e	-0.21516082
178	0x3e5dccda	0.21660176
179	0x3ea23177	0.31678364
180	0x3dc6ba37	0.097034864
181	0x3ed81d3d	0.42209807
182	0xbdd8cc10	-0.10585797
183	0x3ec064cf	0.3757691
184	0xbb3d3ea5	-0.002887645
185	0x3d045b0a	0.032313384
186	0xbee09296	-0.43861836
187	0x3f115b00	0.5677948
188	0x3d8417d3	0.064498566
189	0x3d060d90	0.032727778
190	0xbf13b635	-0.576999
191	0x3cf881d5	0.030335346
192	0xbd1dd36f	-0.038531717
193	0x3edaecf8	0.42758918
194	0x3e0faee1	0.14031555
195	0xbbee45d7	-0.007271509
196	0x3dff4849	0.12464959
197	0x3e307de8	0.1723553
198	0x3e1aebc2	0.15128997
199	0x3e39d20d	0.18146534
200	0xbd11a622	-0.035558827
201	0x3e00d952	0.12582901
202	0xbd217270	-0.039415777
203	0x3c6fc3e1	0.0146341035
204	0x3e122c66	0.14274749
205	0x3d998b60	0.07497287
206	0x3c263650	0.010144785
207	0xbeb99e5c	-0.3625363
208	0xbe7cd2a0	-0.24689722
209	0x3c9a2cac	0.01882013
210	0xbebb5104	-0.36585248
211	0x3e0c06d5	0.13674481
212	0x3e9fc3cf	0.31204078
213	0xbe0834eb	-0.13301437
214	0xbd6ca27e	-0.057772152
215	0x3e1a0ddb	0.15044348
216	0xbe18323f	-0.14862917
217	0xbbe62b9b	-0.007024241
218	0x3c0bb5ff	0.008527278
219	0xb902d5fb	-0.0001247748
220	0x3d113ac1	0.035456423
221	0xbd0d932f	-0.034564193
222	0xbf125dcf	-0.5717439
223	0xbe2a6b22	-0.1664243
224	0x3db3f44c	0.0878683
225	0xbd91582a	-0.07096894
226	0x3e1c4406	0.15260324
227	0xbddf4bae	-0.10903107
228	0x3eb120b1	0.34595254
229	0x3d890e46	0.066921756
230	0x3da99aab	0.08281454
231	0x3e277859	0.16354503
232	0xbe2d3194	-0.16913444
233	0x3e6ca9d7	0.23111664
234	0x3dfab865	0.12242202
235	0x3e870b3e	0.26375765
236	0x3c0ebabc	0.008711513
237	0x3ec96478	0.39334464
238	0xbc9406d5	-0.018069664
239	0xbc55f7fe	-0.013059614
240	0x3d0584c3	0.032597315
241	0xbd940897	-0.07228201
242	0x3e1e5766	0.15463027
243	0x3e1c1456	0.15242133
244	0xbde35141	-0.11099482
245	0xbca28780	-0.019840002
246	0x3e1ea89e	0.1549401
247	0xbe11e49c	-0.14247364
248	0xbec23c19	-0.37936476
249	0xbeed9849	-0.46405247
250	0x3d9eed01	0.07760049
251	0x3e2a6107	0.16638575
252	0xbe104083	-0.1408711
253	0xbd881427	-0.06644469
254	0xbd82dee3	-0.063901685
255	0x3ee6502c	0.4498304

encoder.0.bias f4 [32]
0	0x3e0effda	0.13964787
1	0x3d95a7e9	0.07307417
2	0x3e81d9c0	0.25361443
3	0x3ddb9e28	0.10723525
4	0xbe3d4a83	-0.18485455
5	0xbe08aa79	-0.1334628
6	0x3e975249	0.29554966
7	0xbdb61c76	-0.08892147
8	0x3ce2c2b5	0.027680734
9	0xbc9fc9f9	-0.019505488
10	0x3ebb35f8	0.36564612
11	0xbecf886c	-0.4053377
12	0x3e8bee10	0.27330065
13	0xbde16f91	-0.11007608
14	0x3c375650	0.011190012
15	0xbe29874d	-0.1655552
16	0x3e0275ed	0.12740298
17	0xbdf9f7cd	-0.122054674
18	0xbd9dd528	-0.07706672
19	0x3e290cf6	0.1650885
20	0xbcdf573a	-0.027263273
21	0x3e9f352b	0.3109525
22	0x3e1962b1	0.14979054
23	0x3e5a071a	0.21291772
24	0x3e52e469	0.20594944
25	0x3d8e9563	0.06962087
26	0xbe8c15e4	-0.2736045
27	0x3e0ca60d	0.13735218
28	0xbdf32cc5	-0.118737735
29	0xbe2b6925	-0.16739328
30	0xbe2f9fe6	-0.1715084
31	0x3e6ae218	0.2293781

encoder.2.weight f4 [64, 32]
0	0xbdad91a1	-0.08475042
1	0xbe87859e	-0.2646913
2	0xbe7ec5c0	-0.24880123
3	0x3e19aae8	0.15006602
4	0xbee023c5	-0.4377729
5	0xbd13d67c	-0.03609322
6	0xbcce0e4c	-0.025153302
7	0x3e43351a	0.19063225
8	0x3e6eb32a	0.23310533
9	0xbce24135	-0.027618984
10	0xbd78c6b9	-0.06073639
11	0x3e067de5	0.13133962
12	0x3e35c8f5	0.1775244
13	0x3dc35a03	0.09538653
14	0x3dca2e53	0.09872117
15	0xbe68cf7d	-0.227354
16	0x3d47cfd7	0.048782196
17	0x3de7f9b6	0.113269255
18	0xbe6dad8b	-0.23210733
19	0xbe87d838	-0.2653215
20	0x3e1d08aa	0.15335336
21	0xbc7a9274	-0.015293706
22	0x3ea352bf	0.31899068
23	0xbde6995e	-0.11259721
24	0x3e9ca581	0.3059502
25	0x3b5a2be4	0.003329032
26	0xbd2bc19f	-0.0419327
27	0xbdd4bdb8	-0.103877485
28	0x3e0daeb0	0.13836169
29	0x3e5c1c21	0.21495105
30	0x3e23fa05	0.16013344
31	0xbe9a0c74	-0.30087626
32	0x3dac9e57	0.084286384
33	0xbe842c6d	-0.25815144
34	0x3e98295e	0.2971906
35	0x3ebc905b	0.36828884
36	0xbae2065b	-0.0017244326
37	0xbe1f0873	-0.15530567
38	0xbbee654c	-0.007275259
39	0xbe6eb23c	-0.23310179
40	0xbd9e966f	-0.07743537
41	0xbcad82f2	-0.021180604
42	0x3e06d4c4	0.13167101
43	0xbe2afdf2	-0.16698435
44	0x3d8fe7a4	0.07026604
45	0xbe24bdf8	-0.16088092
46	0xbe79e957	-0.24405418
47	0xbc07b556	-0.00828298
48	0xbe6aa714	-0.22915298
49	0xbe11fb98	-0.14256132
50	0x3d886c5d	0.06661294
51	0x3dadc96a	0.08485682
52	0x3e50b16a	0.20380178
53	0x3e1c91a7	0.15289937
54	0xbcf9a8aa	-0.030475933
55	0x3db74086	0.08947854
56	0x3e5a31a7	0.21308003
57	0x3d5feff0	0.05467218
58	0xbe9c0aac	-0.30476892
59	0xbe94b332	-0.29042965
60	0x3e456716	0.19277605
61	0x3dfc6cde	0.12325452
62	0x3d5a61cb	0.05331592
63	0xbe137b58	-0.1440252
64	0x3d4849e3	0.04889859
65	0x3e00ef74	0.12591344
66	0x3d8c2b96	0.06844251
67	0x3d43b4fc	0.047780022
68	0xbe6ee592	-0.23329762
69	0x3e4f7a46	0.20261487
70	0xbe4ace6d	-0.19805308
71	0x3d8f7e52	0.070065156
72	0x3e44ef4e	0.19231912
73	0x3e80de3e	0.25169557
74	0x3d01c3e1	0.031680945
75	0x3e39a188	0.18128026
76	0xbcc8a26b	-0.02449151
77	0xbe0f4597	-0.1399139
78	0xbda97569	-0.08274347
79	0xbc88800b	-0.016662618
80	0x3e4a530d	0.19758244
81	0xbe01efab	-0.12689082
82	0xbda81360	-0.082068205
83	0x3deb7b72	0.11498155
84	0xbe23312f	-0.15936731
85	0xbe307052	-0.17230347
86	0x3e84f98d	0.25971642
87	0x3cde87c4	0.027164347
88	0x3e0406d3	0.12893228
89	0x3d811857	0.063034706
90	0x3dcfdc93	0.10149493
91	0xbe1178a8	-0.14206183
92	0x3e928ef1	0.2862468
93	0x3dcf1537	0.10111468
94	0xbdb44221	-0.088016756
95	0xbe6b5b17	-0.22983967
96	0xbd604e54	-0.0547622
97	0xbe0b80b0	-0.13623309
98	0x3dd94d1f	0.10610413
99	0x3e92db7f	0.28683087
100	0x3c098e0f	0.008395686
101	0xbd869054	-0.06570497
102	0xbe2efbed	-0.1708829
103	0xbe31797b	-0.17331497
104	0xbd9d1a80	-0.0767107
105	0x3df5be29	0.11999161
106	0x3e043bf1	0.12913491
107	0x3c350c32	0.011050271
108	0xbe88166d	-0.2657961
109	0xbe2a9ce9	-0.16661419
110	0x3e85289c	0.26007545
111	0x3de27d21	0.11059023
112	0x3e954531	0.2915435
113	0xbc157dc6	-0.009124225
114	0xbddc1230	-0.107456565
115	0xbe6a380c	-0.22872943
116	0x3dc3ddbc	0.09563777
117	0xbdcfc800	-0.10145569
118	0x3e95d9cc	0.29267728
119	0x3e833153	0.2562357
120	0x3c3e60e5	0.011619781
121	0xbc96de81	-0.018416645
122	0x3eb4f7b1	0.35345224
123	0x3c7475ba	0.014920646
124	0x3db4e69d	0.088330485
125	0x3e8f90b4	0.28040087
126	0x3df761f0	0.12079227
127	0x3dd0c97e	0.101946816
128	0x3e2c54c8	0.16829216
129	0xbeb7a15e	-0.358653
130	0x3cc0f14e	0.023552563
131	0x3da6b33e	0.081396565
132	0xbe6ce8a6	-0.23135623
133	0xbd54ef7c	-0.051986203
134	0xbdc447af	-0.09583985
135	0x3e4e558b	0.2014982
136	0x3d5072ff	0.05089092
137	0xbe6d909d	-0.23199697
138	0x3cb6d111	0.022316488
139	0x3e2d21c5	0.16907413
140	0x3b8bbf70	0.0042647645
141	0x3d86566d	0.06559453
142	0x3e583ab8	0.2111615
143	0x3cc79411	0.024362596
144	0x3ea8e2e6	0.3298561
145	0xbe6da319	-0.23206748
146	0xbcc87005	-0.024467478
147	0xbe73dd5a	-0.23814908
148	0xbe1f0fc2	-0.15533355
149	0xbb035a83	-0.0020042963
150	0x3d2c1ba3	0.042018544
151	0xbd7c0a56	-0.061533295
152	0xbd3c0cb6	-0.04591056
153	0xbe9ece3e	-0.31016725
154	0xbda39ded	-0.07989106
155	0xbd7cc55e	-0.06171166
156	0x3e7cabed	0.2467496
157	0x3e9c18a8	0.3048756
158	0x3e9c5341	0.30532268
159	0x3e8f4dad	0.2798895
160	0x3ecc1274	0.3985783
161	0xbe00e326	-0.1258665
162	0x3d751ccf	0.059841927
163	0x3d9f32a3	0.0777333
164	0xbe16cceb	-0.14726608
165	0x3e41564c	0.18880576
166	0xbe83e5e3	-0.25761327
167	0x3cbaa2a2	0.022782627
168	0x3df02938	0.11726612
169	0xbe895e60	-0.26829815
170	0xbe2e15d0	-0.17000508
171	0x3e11e4b0	0.14247394
172	0xbe940b73	-0.28914985
173	0xbdea7d3c	-0.11449668
174	0xbe2dcb3a	-0.16972056
175	0x3e877303	0.26454934
176	0xbd706151	-0.05868656
177	0x3df50b9b	0.11965104
178	0x3e3ee95a	0.18643704
179	0xbe43056c	-0.19045037
180	0x3e4d69e6	0.20059928
181	0xbd70c5fc	-0.058782563
182	0xbdd213af	-0.102576606
183	0x3cd505f6	0.026003819
184	0xbc074307	-0.008255727
185	0xbea328a3	-0.3186694
186	0xbe4f7d8c	-0.20262736
187	0x3e1cbe71	0.15307023
188	0x3d18ab0b	0.037272494
189	0x3e983fb7	0.2973611
190	0x3e026ded	0.12737246
191	0x3d8c697d	0.06856058
192	0x3dcb1996	0.099169895
193	0xbe15ab54	-0.14616138
194	0xbea1c8b8	-0.3159845
195	0x3e04794d	0.12936898
196	0x3ddf311f	0.10898041
197	0xbe8a08c3	-0.2695981
198	0x3da9d884	0.0829325
199	0xbe2fcc08	-0.17167675
200	0x3d9935b7	0.074809484
201	0xbc92b2f8	-0.017907605
202	0x3d8a061c	0.067394465
203	0x3da5325a	0.080662444
204	0xbda25cab	-0.07927831
205	0xbda6a494	-0.081368595
206	0x3d938903	0.07203867
207	0x3df52648	0.11970192
208	0xbda24ed6	-0.07925193
209	0xbd54bc65	-0.05193748
210	0x3da25bd3	0.0792767
211	0x3cf4f28e	0.029900815
212	0xbd7b293c	-0.06131862
213	0x3d3d878a	0.04627184
214	0xbe2a5802	-0.16635135
215	0xbd05f475	-0.032703836
216	0x3c746e20	0.014918834
217	0x3e1b7e4c	0.15184897
218	0x3ea42e78	0.32066703
219	0x3ec7fd7d	0.39060584
220	0x3e8a24dc	0.26981246
221	0xbd56ddc1	-0.052457575
222	0x3de708fd	0.11281011
223	0x3e0d6c02	0.13810733
224	0xbe556bd0	-0.20841908
225	0x3eac57fe	0.33660883
226	0xbb13860b	-0.0022510316
227	0x3d365f56	0.044524513
228	0xbd6fe523	-0.05856813
229	0xbe89db54	-0.26925147
230	0x3b0b827f	0.0021287499
231	0xbd8078cc	-0.0627304
232	0x3d6154b4	0.05501242
233	0x3cfc6a14	0.0308123
234	0x3e4bba48	0.1989528
235	0x3ea79a66	0.32734984
236	0xbe9150eb	-0.28382048
237	0xbd132f01	-0.0359335
238	0x3e33b5a4	0.17549759
239	0xbe4efd21	-0.20213749
240	0xbe441bb1	-0.19151188
241	0x3ea8a433	0.32937774
242	0xbdc90e3a	-0.098171666
243	0xbd99fc5e	-0.07518838
244	0xbd929a5b	-0.07158347
245	0x3e2309e7	0.15921746
246	0x3e830126	0.25586814
247	0x3e13a75a	0.14419308
248	0x3e80c921	0.2515345
249	0xbcaee36e	-0.021348681
250	0x3d9c722e	0.076389655
251	0x3e111215	0.14167054
252	0xbe114eba	-0.14190188
253	0x3af3d908	0.0018604109
254	0xbd0524fc	-0.032505974
255	0x3df7bddb	0.12096759

encoder.2.bias f4 [64]
0	0x3e0d8bcc	0.1382286
1	0x3d538451	0.05163986
2	0xbe9c50de	-0.30530447
3	0x3e36ee14	0.17864257
4	0x3ca718c7	0.020397557
5	0x3cb8444e	0.022493508
6	0xbd285925	-0.04110064
7	0x3e0da68c	0.13833064
8	0xbee04e62	-0.438098
9	0xbda4a8db	-0.08040019
10	0xbe31eb7a	-0.17374983
11	0x3e705d51	0.23473097
12	0x3ed95d9a	0.42454225
13	0x3da905b4	0.08253041
14	0xbea83c92	-0.3285871
15	0x3e8b0cac	0.27158105
16	0x3da401cf	0.080081575
17	0xbca7a9a5	-0.020466635
18	0x3ec8d8cf	0.39227912
19	0x3cc60248	0.02417101
20	0xbe25faa6	-0.16208896
21	0x3dd75c09	0.10515601
22	0xbe53ad06	-0.20671472
23	0xbebfcfe0	-0.37463284
24	0x3e129bf6	0.14317307
25	0x3ee8a63d	0.4543933
26	0xbe9a5708	-0.30144525
27	0x3ef1b7ff	0.4721069
28	0x3eb2b081	0.34900287
29	0x3daf656f	0.08564269
30	0xbe29b118	-0.16571462
31	0xbe52499d	-0.20535894
32	0xbcd48c71	-0.025945874
33	0x3e03ba57	0.12864052
34	0xbe9b0ccc	-0.302832
35	0x3e9d0c0e	0.3067326
36	0x3d5f7d74	0.054563
37	0xbe58cdf1	-0.2117231
38	0xbd596b45	-0.053080816
39	0x3d842591	0.06452478
40	0xbc809ebc	-0.01570069
41	0xbede5d7d	-0.434307
42	0xbe51b4d6	-0.2047914
43	0xbe81d1f4	-0.25355494
44	0x3cdc201d	0.026870782
45	0xbe093447	-0.13398848
46	0xbda7a1a8	-0.0818513
47	0xbedd6b7b	-0.43246064
48	0x3dad8dd7	0.084743194
49	0xbeb64eda	-0.35607034
50	0x3efa823a	0.4892748
51	0x3ece6a30	0.4031539
52	0x3ef76a04	0.4832307
53	0xbe60fa03	-0.21970372
54	0xbd10b9a2	-0.035333283
55	0xbe58f7ca	-0.21188274
56	0xbe827bcf	-0.25485083
57	0xbc88f343	-0.016717559
58	0xbe7e6748	-0.24844086
59	0xbea6327d	-0.32460395
60	0xbe7d9358	-0.24763238
61	0xbe176238	-0.14783561
62	0xbe0d7c34	-0.13816911
63	0xbe98143c	-0.29702938

encoder.4.weight f4 [128, 64]
0	0xbcb8b3c4	-0.022546656
1	0x3e0f5f4b	0.14001195
2	0xbe2d3e70	-0.1691835
3	0x3d76b675	0.0602326
4	0xbc903369	-0.01760264
5	0x3e1bf489	0.15230002
6	0xbd90caff	-0.070699684
7	0x3c607a76	0.013701072
8	0xbe200a45	-0.15628918
9	0x3da7b728	0.08189231
10	0xbd4665c6	-0.048436902
11	0xbe181d8f	-0.14855026
12	0xbe34667b	-0.17617218
13	0x3c1e9fc1	0.009681643
14	0x3e4ba28e	0.19886228
15	0xbc5ceb7f	-0.013483881
16	0xbe14a5e0	-0.14516401
17	0xbe49945e	-0.19685504
18	0xbdbb053a	-0.09131856
19	0x3e2b3711	0.16720225
20	0xbdcafee3	-0.09911897
21	0xbe4b91ed	-0.19879885
22	0x3ebff594	0.3749205
23	0x3e29e9c3	0.1659308
24	0x3e89a6af	0.26884982
25	0xbe3e47d7	-0.18582092
26	0x3e28eedd	0.16497369
27	0x3e35d782	0.17757991
28	0x3ca0d766	0.01963396
29	0xbe43cac0	-0.19120312
30	0x3da45dac	0.08025679
31	0xbc50e0b1	-0.012748883
32	0xbea6fab2	-0.3261314
33	0x3c20cef9	0.009814971
34	0xbbadff15	-0.005309949
35	0x3d6ca05c	0.057770118
36	0x3c211a4b	0.009832929
37	0x3dfc0637	0.12305873
38	0xbd9f4bfe	-0.07778166
39	0xbdee0d4a	-0.116236284
40	0x3eb68b81	0.35653308
41	0x3d923932	0.071398154
42	0x3d709f63	0.058745753
43	0x3e6fe7eb	0.23428313
44	0x3e0b93fc	0.1363067
45	0x3d1d0d0c	0.03834252
46	0x3e51580a	0.2044374
47	0xbe403d80	-0.1877346
48	0x3d31d6ef	0.043417867
49	0xbd33d41f	-0.043903466
50	0x3e2b6270	0.1673677
51	0xbe0906a0	-0.13381433
52	0xbd53966c	-0.051657125
53	0x3dda0bec	0.10646805
54	0x3e992950	0.2991433
55	0xbe4d8f25	-0.20074137
56	0xbeb28838	-0.34869552
57	0x3ea92226	0.33033866
58	0xbdcb313e	-0.099215016
59	0xbe89147c	-0.2677344
60	0xbddcd64e	-0.10783063
61	0x3e4d66d6	0.2005876
62	0x3de157b5	0.11003057
63	0x3c4cc4b8	0.012498073
64	0xbc012e6c	-0.007884603
65	0xbda87a46	-0.08226447
66	0x3e50619e	0.20349738
67	0xbe4e3826	-0.20138606
68	0x3e529d43	0.20567803
69	0x3d97ba8b	0.07408627
70	0xbdef72aa	-0.11691792
71	0xbe48b7f2	-0.1960142
72	0x3e354aa6	0.17704257
73	0xbb2a1339	-0.00259514
74	0x3e53afeb	0.20672576
75	0xbd9e452f	-0.077280395
76	0x3db0696d	0.08613858
77	0x3d8bd53e	0.06827782
78	0xbe825ae0	-0.25459957
79	0x3de0aa33	0.10969963
80	0x3e5d3cf1	0.21605279
81	0x3d819b06	0.063283965
82	0x3d699db6	0.05703517
83	0x3d3c2cdf	0.04594123
84	0x3e5e16bb	0.21688358
85	0x3de4c584	0.111704856
86	0x3d952eb7	0.07284301
87	0x3e6188c8	0.22024834
88	0x371fdc38	9.528412e-06
89	0xbc5000c9	-0.0126955
90	0x3d72597a	0.059167363
91	0xbe5755fe	-0.21028897
92	0xbe3f5c9e	-0.18687674
93	0xbd79dd02	-0.061001785
94	0xbdc8f631	-0.09812582
95	0x3e9b10b8	0.30286193
96	0x3e60dda0	0.21959543
97	0x3d5a508f	0.053299483
98	0x3d21e203	0.039522182
99	0x3e78cfcf	0.24298023
100	0xbe116a7c	-0.14200777
101	0x3da505f3	0.08057775
102	0xbd6a6e5b	-0.05723415
103	0x3c3f9d8c	0.011695277
104	0x3c9c80b0	0.019104332
105	0x3bb654b5	0.005564297
106	0xbdf5410f	-0.119752996
107	0x3e4d3cb1	0.20042683
108	0x3e6b3e70	0.22973037
109	0xbd535b76	-0.051600896
110	0xbdb06d53	-0.08614602
111	0x3adfa923	0.0017063956
112	0xbdb51089	-0.088410445
113	0x3de1696b	0.11006435
114	0xbc835fe4	-0.016036935
115	0x3dec33f0	0.11533344
116	0x3de9f342	0.11423351
117	0x3d86311a	0.06552334
118	0x3e57bf91	0.2106917
119	0xbe36635b	-0.17811339
120	0xbe19c797	-0.15017544
121	0xbe8179f4	-0.25288355
122	0x3d968ce9	0.07351095
123	0xbdd2d4ae	-0.10294472
124	0xbdec399e	-0.11534427
125	0xbd799d70	-0.06094116
126	0x3dc4aab1	0.09602869
127	0xbe393b3e	-0.18089005
128	0x3e8f9676	0.2804448
129	0x3da8690a	0.082231596
130	0x3c449798	0.011999033
131	0xbe8823eb	-0.26589903
132	0x3def1d2c	0.11675486
133	0xbe548765	-0.20754774
134	0x3dd3833d	0.10327766
135	0x3e0179bb	0.12644093
136	0xbdf7d291	-0.12100709
137	0xbe170ddf	-0.14751385
138	0xbdc1b367	-0.094580464
139	0x3e42584f	0.18979
140	0xbd71b86d	-0.059013773
141	0x3c9556bf	0.01822984
142	0x3e7c7bf1	0.24656655
143	0x3e1cf361	0.15327217
144	0xbdd56530	-0.104196906
145	0x3de93111	0.11386312
146	0xbe9d6767	-0.30742952
147	0x3e6f46fc	0.23366922
148	0x3cf0d100	0.029396534
149	0xbe3f3502	-0.18672565
150	0x3d41597f	0.04720449
151	0xbda6d5a6	-0.08146219
152	0x3e920f7d	0.28527442
153	0xba1bd39c	-0.0005944313
154	0xbd9d439e	-0.076789126
155	0x3ea20ef1	0.31652024
156	0xbd4737e0	-0.04863727
157	0xbdb89a50	-0.09013808
158	0x3e55c89a	0.20877305
159	0x3e6ccdf8	0.23125446
160	0x3e210881	0.157259
161	0x3d8eba23	0.069690965
162	0x3b254250	0.0025216527
163	0xbe7ae658	-0.24501932
164	0xbd49a7e9	-0.049232397
165	0x3cc2ad15	0.023764173
166	0x3e4df268	0.20112002
167	0x3d14db66	0.036342047
168	0x3d31c195	0.043397505
169	0x3cbf6ea1	0.023368182
170	0xbe0bfeb2	-0.13671377
171	0xbd1fb22d	-0.03898828
172	0x3e342607	0.17592631
173	0xbc352400	-0.011055946
174	0xbdc27ace	-0.094960794
175	0xbd46088c	-0.048347995
176	0xbd386989	-0.04502252
177	0x3d81c2d2	0.06335987
178	0xbe0abe18	-0.13549078
179	0x3d9f3143	0.07773068
180	0xbdb542bd	-0.0885062
181	0xbe5a9658	-0.21346414
182	0x3e6b9bef	0.23008703
183	0xbe39d95f	-0.18149327
184	0x3e165e40	0.14684391
185	0x3e5d9ad7	0.21641098
186	0x3e880cf7	0.2657239
187	0x3d8af097	0.0678417
188	0xbd64baa8	-0.05584207
189	0x3e442e3f	0.19158266
190	0xbd978044	-0.073975116
191	0xbd404e0e	-0.04694944
192	0x3df70bbd	0.12062786
193	0x3e8e8ea8	0.27843213
194	0xbe73fcc2	-0.23826888
195	0x3d5b434a	0.05353097
196	0x3d38a58a	0.045079745
197	0x3d63bab8	0.05559799
198	0xbdfe3ee2	-0.12414338
199	0x3e00c5c3	0.1257544
200	0xbd346116	-0.0440379
201	0xbe0c6f58	-0.1371435
202	0xbd95f082	-0.07321264
203	0x3e9fd5eb	0.31217894
204	0x3d3fb8a2	0.04680694
205	0xbd7f4acb	-0.062327188
206	0x3e2fd33d	0.17170425
207	0xbdcb9d76	-0.09942143
208	0xbd651770	-0.055930555
209	0xbd576c0f	-0.052593287
210	0x3d506824	0.050880566
211	0x3e457fb3	0.19286995
212	0xbd75c4a2	-0.060001977
213	0xbb85c876	-0.0040827347
214	0x3d887645	0.06663183
215	0x3e1e7b7d	0.15476795
216	0xbd7ce683	-0.06174327
217	0xbd8d6855	-0.069046654
218	0xbe2fa83d	-0.17154022
219	0xbdd5b566	-0.1043499
220	0x3ca3fa6c	0.020016871
221	0xbe3fe74f	-0.18740581
222	0x3d0071bf	0.031358477
223	0x3ddc0a40	0.107441425
224	0x3d31c3c4	0.043399587
225	0x3e5862e1	0.2113147
226	0x3c47be4c	0.012191366
227	0x3d788211	0.060670916
228	0x3d70b61e	0.05876743
229	0x3ebff798	0.37493587
230	0x3cbf795e	0.023373302
231	0x3cecbb5c	0.028897934
232	0xbe2e5c3a	-0.17027369
233	0xbe1feb2b	-0.15617053
234	0x3e1c2b95	0.15251
235	0xbe4c4b53	-0.19950609
236	0x3e98f6e6	0.2987587
237	0x3e2e0159	0.16992702
238	0x3d63fdfc	0.05566214
239	0x3d97f33a	0.07419439
240	0xbdbe3aa9	-0.09288532
241	0x3e61d3cd	0.22053452
242	0xbe061afc	-0.13096231
243	0x3dc5c69c	0.09657022
244	0x3e0b8af3	0.13627224
245	0xbeebcd73	-0.46055183
246	0x3e865e51	0.26243833
247	0x3e80390b	0.2504352
248	0xbd60942f	-0.05482882
249	0xbda8e322	-0.08246447
250	0x3d261ed1	0.040556733
251	0xbe6d6364	-0.23182446
252	0x3e856f47	0.2606146
253	0x3e35eb91	0.17765643
254	0xbd14f6ff	-0.036368366
255	0xbe26fbd8	-0.16307008

encoder.4.bias f4 [128]
0	0xbddb75fc	-0.10715863
1	0xbe0df60b	-0.13863389
2	0xbc9f7637	-0.019465549
3	0x3e5ccdad	0.21562834
4	0xbe228613	-0.15871458
5	0xbe503320	-0.20332003
6	0xbe059b67	-0.13047563
7	0x3de5b8ad	0.11216865
8	0x3e8e809e	0.27832502
9	0x3e28d55c	0.1648764
10	0xbe047edc	-0.12939018
11	0xbebc77a1	-0.3681002
12	0xbe4d8c31	-0.2007301
13	0xbe347293	-0.17621832
14	0x3ec93ad9	0.3930271
15	0x3cb3bb33	0.02193985
16	0xbdcc3557	-0.09971111
17	0xbda38ba3	-0.07985618
18	0x3e8910f0	0.26770735
19	0xba6d5874	-0.0009054013
20	0xbe69fc88	-0.2285024
21	0x3e4bc633	0.19899826
22	0xbe27bede	-0.16381404
23	0x3e27771a	0.16354027
24	0xbe9cdfca	-0.30639488
25	0xbe306bb6	-0.17228588
26	0x3ea3f128	0.32019925
27	0xbe58551b	-0.21126215
28	0x3e62e65c	0.22158188
29	0xbcea29c7	-0.028584374
30	0xbd944888	-0.07240397
31	0xbe1e7d21	-0.1547742
32	0xbead3de8	-0.33836293
33	0xbc904b18	-0.017613932
34	0x3e137a06	0.14402017
35	0x3f03c316	0.5146955
36	0xbe525a53	-0.20542268
37	0xbe462bcb	-0.19352643
38	0xbe5bf9b8	-0.21481979
39	0xbe425e31	-0.18981244
40	0x3d8ce12a	0.06878884
41	0xbe28c9d1	-0.16483237
42	0xbe2988e7	-0.1655613
43	0x3edc0e9e	0.42979902
44	0xbeaaea98	-0.33382106
45	0xbe8cae5c	-0.27476776
46	0xbe0c21b2	-0.13684729
47	0xbe815e65	-0.2526733
48	0xbde60259	-0.112309165
49	0xbebd682c	-0.3699354
50	0x3e154bad	0.1457965
51	0x3d877f25	0.06616048
52	0xbdb78222	-0.08960368
53	0x3c6efdd2	0.014586883
54	0xbe11cc84	-0.14238173
55	0x3e85022f	0.25978228
56	0x3f25e579	0.6480327
57	0xbe6b9642	-0.23006538
58	0xbe488caa	-0.19584909
59	0xbe10859e	-0.14113471
60	0xbd31f73c	-0.04344867
61	0xbea2f3cb	-0.31826624
62	0xbead7171	-0.3387561
63	0x3ed75556	0.42057294
64	0xbebff106	-0.37488574
65	0xbe479391	-0.19489886
66	0x3e7c37df	0.24630688
67	0xbe942b49	-0.28939274
68	0xbe4e78cc	-0.20163268
69	0x3cb06c60	0.021536052
70	0x3bf647a8	0.0075158663
71	0xbe431ad4	-0.19053203
72	0xbec03629	-0.3754132
73	0x3e5076f3	0.20357876
74	0xbe73b34b	-0.23798864
75	0xbe57235b	-0.21009581
76	0xbede76c3	-0.43449983
77	0xbd2148a1	-0.039375905
78	0xbe6df63e	-0.23238465
79	0xbeec9e9e	-0.46214765
80	0xbe644844	-0.22293192
81	0xbd6439e8	-0.055719286
82	0x3dc5f92f	0.096666686
83	0xbda94ef7	-0.082670145
84	0x3e8c1cc9	0.2736571
85	0x3f077880	0.52918243
86	0xbe5e8980	-0.2173214
87	0xbe603592	-0.21895435
88	0xbdb5b415	-0.088722385
89	0x3d2431a1	0.040086392
90	0x3cb64df3	0.022253966
91	0xbd7cc109	-0.06170753
92	0xbc9826fe	-0.01857328
93	0xbe4c6682	-0.19960979
94	0xbbf2c4c3	-0.0074087097
95	0xbcd88151	-0.02642885
96	0xbb8a29b8	-0.004216399
97	0xbe9549cd	-0.29157868
98	0xbe9116b8	-0.28337646
99	0x3e86c414	0.2632147
100	0xbdf99073	-0.121857546
101	0x3d805b7b	0.062674485
102	0x3f13b9ac	0.5770519
103	0x3ea48551	0.32132962
104	0x3ec341c7	0.38136122
105	0xbed694cc	-0.41910398
106	0xbe4170a4	-0.18890625
107	0x3ddb49cb	0.10707434
108	0xbe26c436	-0.16285786
109	0xbde9c030	-0.1141361
110	0x3d335ace	0.04378777
111	0xbdfd526c	-0.12369236
112	0x3dc122d0	0.09430468
113	0x3e0e647e	0.13905522
114	0xbd5b1419	-0.053485963
115	0xbe7a04a9	-0.2441584
116	0xbe10e958	-0.14151514
117	0xbe94fa36	-0.29097146
118	0xbdd4472e	-0.10365139
119	0xbeb2e566	-0.34940642
120	0x3ebbf8d4	0.36713278
121	0xbe30d202	-0.17267612
122	0xbe168fd9	-0.14703311
123	0xbeaa93da	-0.33315927
124	0xbe99a949	-0.30011967
125	0xbd3ae609	-0.045629535
126	0x3dd314ce	0.103067026
127	0x3dd6f7fe	0.104965195

encoder.6.weight f4 [256, 128]
0	0x3db0a39e	0.086249575
1	0xbdfd4374	-0.12366381
2	0xbc3df1d8	-0.011593305
3	0x3d926631	0.07148398
4	0x3de83055	0.113373436
5	0xbd595b56	-0.05306562
6	0xbe2fab23	-0.17155127
7	0xbda2a775	-0.07942096
8	0xbe30c6f5	-0.17263396
9	0xbad3dfe2	-0.0016164745
10	0xbdf36f0d	-0.11886416
11	0x3e464f13	0.19366102
12	0xbb3beb40	-0.0028674155
13	0xbce01232	-0.027352426
14	0xbe15166e	-0.14559337
15	0x3e125c17	0.14292942
16	0x3da1fa53	0.07909074
17	0x3e4c5900	0.19955826
18	0xbe475861	-0.19467308
19	0xbd017882	-0.031609066
20	0x3d5537c8	0.05205515
21	0x3d757804	0.05992891
22	0x3c4f838f	0.012665643
23	0xbe354c62	-0.17704919
24	0x3d13ba7f	0.03606653
25	0xbe021da0	-0.12706614
26	0xbe2626a2	-0.16225675
27	0x3d89f37b	0.06735893
28	0xbe23918d	-0.15973492
29	0x3d1ff5d7	0.03905281
30	0x3df48579	0.119395204
31	0x3db3b589	0.087748595
32	0x3e5daaa0	0.2164712
33	0x3e83c08e	0.25732845
34	0x3d258199	0.040406797
35	0xbe776afc	-0.24161905
36	0x3df88781	0.1213522
37	0x3e71005d	0.23535295
38	0x3dc56686	0.096386954
39	0x3d671701	0.056418423
40	0xbcbe405e	-0.023224052
41	0xbe240ab8	-0.16019714
42	0x3e054828	0.13015807
43	0xbab04ea4	-0.0013451171
44	0x3dab4584	0.083628684
45	0x3e142ea3	0.14470915
46	0xbba2c8c6	-0.0049677817
47	0xbd26303a	-0.040573336
48	0x3df238d1	0.11827243
49	0x3e259e69	0.1617371
50	0x3de37f08	0.11108214
51	0x3e7907ff	0.24319457
52	0xbd9ef28e	-0.077611074
53	0xbd9bc112	-0.076051846
54	0xbcafb22b	-0.021447262
55	0xbe09127f	-0.13385962
56	0xbe8ecb31	-0.27889398
57	0x3e241fe6	0.16027793
58	0x3dabc87a	0.08387847
59	0x3dfba0da	0.122865394
60	0xbd8feac9	-0.070272036
61	0x3ca9938c	0.020700239
62	0x3e86f385	0.26357666
63	0xbe4b2c72	-0.19841173
64	0x3e4e8e3c	0.20171446
65	0x3e448be2	0.19193986
66	0xbdaefea4	-0.085446626
67	0x3d33aeec	0.04386799
68	0x3e039e33	0.12853317
69	0xbd360c98	-0.044445604
70	0x3e16c95a	0.14725247
71	0x3e03f089	0.12884726
72	0xbcd2981b	-0.025707295
73	0xbe233011	-0.15936305
74	0x3e9a31e2	0.30116183
75	0x3da7d68b	0.08195218
76	0x3dc4c8ab	0.09608587
77	0x3dda19fa	0.10649486
78	0x3e2a0b3f	0.16605853
79	0x3e8f7d7d	0.28025427
80	0xbd482a19	-0.048868272
81	0x3e433724	0.19064003
82	0x3ccf16aa	0.025279362
83	0xba92b636	-0.0011193219
84	0xbc0610fb	-0.008182759
85	0xbdc444bd	-0.09583423
86	0x3de5e1f4	0.11224738
87	0xbdb02e89	-0.08602626
88	0x3db2c5b0	0.08729112
89	0xbd2c7493	-0.04210336
90	0x3dc14b23	0.09438159
91	0x3d44ea98	0.04807529
92	0xbd73f9ca	-0.05956439
93	0x3ca8b981	0.020596268
94	0xbe100ca4	-0.14067322
95	0x3cd4a6aa	0.025958378
96	0xbe2a670e	-0.16640875
97	0x3d1fbf0e	0.039000563
98	0x3cb299d0	0.02180186
99	0xbdb6e30b	-0.08930024
100	0x3bdb675a	0.00669567
101	0xbdadede2	-0.08492638
102	0xbe223578	-0.15840709
103	0xbe836463	-0.25662526
104	0xbe9911a7	-0.2989628
105	0x3dca13f5	0.09867088
106	0x3ca35d7b	0.019942036
107	0xbd84bcb0	-0.06481302
108	0x3e0c97e1	0.13729812
109	0xbdb622a6	-0.088933274
110	0xbd087d12	-0.0333224
111	0x3e055578	0.13020885
112	0xbe417c7c	-0.18895143
113	0xbd8f6e00	-0.07003403
114	0x3d2b57bd	0.04183172
115	0x3e8fe293	0.2810255
116	0xbbb76ff7	-0.005598064
117	0x3e5a7ebc	0.21337408
118	0xbe55da5f	-0.20884083
119	0x3e441114	0.1914714
120	0xbd66b340	-0.05632329
121	0x3d712b9c	0.05887948
122	0x3dbf6762	0.093458906
123	0xbcbbb3f8	-0.022912964
124	0x3e9d0342	0.30666548
125	0x3dad7f36	0.08471529
126	0x3d85210f	0.06500446
127	0x3d8aa3b6	0.06769507
128	0x3e06c887	0.13162433
129	0x3dbb2c06	0.09139256
130	0xbeb0e7ab	-0.3455175
131	0xbe2e4f14	-0.17022353
132	0xbe50d04f	-0.20391963
133	0xbd8d0d37	-0.06887286
134	0xbd0ad01c	-0.033889875
135	0x3e00304d	0.12518425
136	0xbe2f9925	-0.17148264
137	0xbd8f72e0	-0.070043325
138	0xbd8893b6	-0.066687986
139	0x3e21f7f0	0.15817237
140	0x3dbc5a16	0.0919687
141	0x3e34c630	0.17653728
142	0x3cc336cf	0.023829846
143	0xbdf42dec	-0.119228214
144	0xbd7a8c23	-0.0611688
145	0xbea2d21c	-0.31800926
146	0xbda26376	-0.07929127
147	0x3d2cc5ce	0.04218083
148	0x3dd418d9	0.10356302
149	0x3db8e2da	0.090276435
150	0x3dc51561	0.09623218
151	0xbe166ba7	-0.14689504
152	0xbe4e9a02	-0.20175937
153	0xbc1e8506	-0.00967527
154	0x3d97e54f	0.07416784
155	0xbdb4ac6e	-0.08821951
156	0x3ca56361	0.02018899
157	0x3ca7841b	0.020448735
158	0xbd7340ba	-0.0593879
159	0xbdb9cd54	-0.09072366
160	0x3e290afd	0.16508098
161	0x3c324783	0.010881308
162	0xbd860491	-0.0654384
163	0x3d8e2b5e	0.069418654
164	0xbe0d622a	-0.13806978
165	0xbc14a51f	-0.009072571
166	0x3e28d094	0.16485816
167	0xbcc510ff	-0.024055956
168	0xbd523520	-0.051320195
169	0x3cf5f304	0.030023105
170	0xbc3327ff	-0.010934829
171	0xbe00d7e0	-0.1258235
172	0x3eb3e2a6	0.35133857
173	0x3c402065	0.011726473
174	0x3ccb0f41	0.024787547
175	0x3e3b7ddc	0.1830973
176	0xbd9f6573	-0.07783022
177	0xbd028f94	-0.031875208
178	0xbddc1a47	-0.107471995
179	0x3d974b5a	0.07387419
180	0x3e26ac6b	0.1627671
181	0x3d395522	0.045247205
182	0xbd9e3de5	-0.07726649
183	0xbe030fcf	-0.12798999
184	0xbdd08f97	-0.101836376
185	0x3da0d34f	0.07852804
186	0xbe0af4d8	-0.13569963
187	0x3d2969f1	0.0413608
188	0x3e307469	0.17231907
189	0x3d910eb2	0.07082881
190	0x3dcbc4f5	0.09949676
191	0xbe0dca32	-0.13846663
192	0x3e343be5	0.17600973
193	0x3e1a63e1	0.15077163
194	0xbe300889	-0.17190756
195	0x3e08b267	0.13349305
196	0x3c12120f	0.008915438
197	0x3cfc53da	0.030801702
198	0xbc918aaa	-0.017766315
199	0xbc717df2	-0.0147395
200	0xbc0087af	-0.0078448495
201	0xbdf2e19c	-0.11859438
202	0xbac20c90	-0.0014804769
203	0x3e3d7bc5	0.18504246
204	0x3e11c911	0.14236857
205	0x3e0e9d5d	0.13927217
206	0x3e46dd16	0.19420275
207	0x3d1064c4	0.035252348
208	0xbd330aef	-0.0437116
209	0xbe58fb43	-0.21189599
210	0x3e197b67	0.1498848
211	0x3ca80ee0	0.020514905
212	0xbd1f7c27	-0.03893676
213	0xbe31e900	-0.17374039
214	0xbd10ef07	-0.035384204
215	0xbdab0cf6	-0.083520815
216	0xbe2b3440	-0.1671915
217	0x3df1f380	0.11814022
218	0xbdb4639f	-0.08808064
219	0x3d616ade	0.055033557
220	0x3d7346f5	0.05939384
221	0xbd02d338	-0.031939715
222	0x3d9b7717	0.07591074
223	0xbdf579dd	-0.11986134
224	0xbe0ee9eb	-0.1395642
225	0x3caedd2d	0.0213457
226	0xbd2e1451	-0.042499844
227	0xbe2f9e03	-0.1715012
228	0xbde23f17	-0.1104719
229	0x3c9a064d	0.018801833
230	0xbcee5c13	-0.029096639
231	0xbda94065	-0.082642354
232	0xbe11953c	-0.14217085
233	0x3e2c09a6	0.16800556
234	0x3a64f29e	0.00087336625
235	0xbd5a707a	-0.053329922
236	0xbe2b846a	-0.1674973
237	0x3daa6bc9	0.0832134
238	0x3e1d3cde	0.1535525
239	0xbdeb3542	-0.114847675
240	0xbd941f36	-0.072325155
241	0xbdbacffa	-0.091217
242	0x3e21c1fc	0.15796655
243	0x3c379f86	0.011207467
244	0xbe538709	-0.2065698
245	0x3d40a6fd	0.047034252
246	0x3e18d737	0.14925848
247	0xbc327ab6	-0.010893514
248	0x3e7bf99b	0.24606936
249	0xbcfdcb95	-0.030980865
250	0x3dd5503c	0.10415694
251	0x3e0c8fed	0.13726778
252	0xbd950220	-0.07275796
253	0x3d2c63e4	0.04208745
254	0xbd8e4ce6	-0.06948261
255	0xbc400260	-0.011719316

encoder.6.bias f4 [256]
0	0xbebf7dee	-0.37400764
1	0xbe3614c2	-0.17781356
2	0xbe98414d	-0.2973732
3	0xbe05da55	-0.13071568
4	0x3d5582bf	0.052126642
5	0xbddcef95	-0.10787884
6	0xbdead67d	-0.11466692
7	0x3d0a48da	0.033760883
8	0xbe8c2037	-0.27368328
9	0xbd20e3e4	-0.039279833
10	0xbcc3ba8d	-0.023892665
11	0xbdc413c2	-0.09574081
12	0xbea09185	-0.31361023
13	0xbde355ea	-0.11100371
14	0xbd39012f	-0.045167144
15	0x3a6af4fc	0.0008962897
16	0xbdb60f03	-0.08889582
17	0xbe175711	-0.14779307
18	0xbe1e35ba	-0.15450183
19	0x3c5d4432	0.013505029
20	0x3dd79600	0.10526657
21	0xbe96e642	-0.29472548
22	0xbda8cfda	-0.082427695
23	0xbd4bf970	-0.04979843
24	0xbe7849fd	-0.24246974
25	0xbd90ae2b	-0.0706447
26	0xbdcd963d	-0.10038421
27	0x3de51736	0.11186068
28	0x3d2430b2	0.040085502
29	0xbde11f59	-0.10992307
30	0xbe65e3ea	-0.22450224
31	0xbe6173eb	-0.22016875
32	0xbe861204	-0.2618562
33	0xbd49dc05	-0.049282093
34	0xbcaccc1c	-0.02109342
35	0xbe161d35	-0.14659579
36	0xbd710024	-0.058838025
37	0xbe35867e	-0.17727086
38	0x3e061228	0.13092864
39	0xbe24d1c1	-0.1609564
40	0x3cc93508	0.02456142
41	0xbddaa404	-0.10675815
42	0xbd8cafaa	-0.06869443
43	0xbe42cbf5	-0.19023116
44	0xbef18718	-0.4717338
45	0xbe9e31ec	-0.30897462
46	0x3d16415a	0.036683418
47	0x3ce3daa3	0.027814215
48	0xbd64fabb	-0.055903178
49	0x3e342d12	0.17595318
50	0xbe80323f	-0.25038335
51	0xbe9c7a9d	-0.30562297
52	0x3d108b39	0.035289023
53	0xbbce36f6	-0.006293173
54	0xbddbcf3a	-0.10732885
55	0xbd2ccfc8	-0.042190343
56	0x3e6c17f7	0.23056017
57	0x3dfccc35	0.12343637
58	0x3da3c0dd	0.0799577
59	0xbbf8e16c	-0.0075952318
60	0xbe30f56d	-0.17281123
61	0x3e016ea6	0.12639865
62	0x3da2f352	0.07956566
63	0xbcced6c9	-0.025248902
64	0xbe255091	-0.16144015
65	0xbe8128ae	-0.2522635
66	0x3c581242	0.013187947
67	0xbea1f703	-0.31633767
68	0xbe508c27	-0.20365964
69	0x3cdbf894	0.02685193
70	0xbe011fdb	-0.12609808
71	0xbe83cc65	-0.25741878
72	0xbe192442	-0.14955238
73	0xbde11cfd	-0.10991857
74	0x3c6ecaaa	0.014574686
75	0xbebeb0bf	-0.37244222
76	0xbd90de51	-0.070736535
77	0xbe41e457	-0.18934761
78	0xbdb6f086	-0.08932595
79	0xbe9e741d	-0.30947962
80	0xbda921a2	-0.08258368
81	0xbdedfab2	-0.11620082
82	0xbe2fc3b4	-0.17164499
83	0xbe44d9ad	-0.19223662
84	0x3dcab134	0.0989708
85	0xbdfa2c2c	-0.12215456
86	0x3dfc9216	0.12332551
87	0x3bbe9e67	0.005817223
88	0xbcb2849a	-0.021791745
89	0xbdca0bb8	-0.098655164
90	0x3d749e94	0.059721544
91	0x3d65753b	0.056020003
92	0x3dfe750e	0.1242467
93	0xbca327ac	-0.019916378
94	0x3e7bb643	0.24581246
95	0x3d6e58f5	0.058190305
96	0xbe30ec5e	-0.17277667
97	0xbe80b391	-0.25136998
98	0xbd9fbb80	-0.07799435
99	0xba93cd59	-0.0011276408
100	0xbda7d6d8	-0.08195275
101	0xbdd13ccb	-0.102166735
102	0xbcea7fd9	-0.028625416
103	0xbe4b7b52	-0.19871262
104	0xbd6abffe	-0.057312004
105	0xbcd2c984	-0.025730856
106	0xbe2181ea	-0.15772215
107	0xbe8fe8f7	-0.28107426
108	0x3e088275	0.13331015
109	0xbeaa9b5b	-0.33321652
110	0xbd8bfe39	-0.068355985
111	0x3e2b614f	0.16736339
112	0xbe09c433	-0.1345375
113	0x3e06bcf4	0.13158017
114	0x3da504fc	0.08057591
115	0x3c2a5e85	0.010398512
116	0xbdadd5c4	-0.08488038
117	0x3d3d870e	0.046271376
118	0xbdb249bc	-0.0870547
119	0xbd847458	-0.06467503
120	0x3d928a9d	0.07155345
121	0x3de2b80d	0.11070261
122	0xbe519e43	-0.20470528
123	0xbd800afc	-0.06252095
124	0x3d46bf2b	0.048522156
125	0xbdf8c68d	-0.121472456
126	0xbd09b81b	-0.033622842
127	0xbde943c4	-0.113898784
128	0x3df41d22	0.11919619
129	0xbe2bd01d	-0.16778608
130	0x3cc00059	0.023437666
131	0xbe2653ee	-0.16242954
132	0xbdd5a86c	-0.104325145
133	0x3cd13b9d	0.025541121
134	0xbda0e718	-0.07856578
135	0xbed2aeff	-0.41149136
136	0xbe1e65cc	-0.1546852
137	0xbca18bec	-0.01972004
138	0xbdb91058	-0.090363204
139	0xbe6443b0	-0.22291446
140	0xbd14bbed	-0.036312032
141	0xbe42fe46	-0.1904231
142	0xbd3cc8f8	-0.046090096
143	0x3d1f749a	0.03892956
144	0x3e0be7c1	0.13662626
145	0xbe754bde	-0.23954722
146	0xbd2d5770	-0.042319715
147	0xbd3fbca7	-0.046810772
148	0xbd7598df	-0.059960242
149	0xbd6a640b	-0.057224315
150	0x3e6036bd	0.21895881
151	0x3dc026d4	0.09382406
152	0xbec9ccd4	-0.39414084
153	0x3e07cdd7	0.13262115
154	0xbccf6328	-0.025315836
155	0xbdb0cce2	-0.08632828
156	0xbdcc8f9a	-0.09988327
157	0xbe203109	-0.15643705
158	0xbe8b8e07	-0.27256796
159	0x3e6ca162	0.23108438
160	0xbee77b73	-0.45211372
161	0xbed77c2b	-0.4208692
162	0xbd786e89	-0.06065229
163	0xbd969942	-0.0735345
164	0x3db7a04c	0.08966121
165	0xbc6384aa	-0.01388661
166	0x3dc34280	0.09534168
167	0xbc5c7318	-0.013455175
168	0x3da933ff	0.082618706
169	0xbd23ac85	-0.03995945
170	0xbda6a005	-0.0813599
171	0xbe60911f	-0.2193036
172	0xbd46715a	-0.048447944
173	0xbd92fe55	-0.07177416
174	0x3b7b546f	0.0038349887
175	0x3d5a1afb	0.053248387
176	0xbdd938c7	-0.106065325
177	0xbe427bdc	-0.18992561
178	0xbd8cbb49	-0.06871659
179	0xbe211830	-0.15731883
180	0xbe57598e	-0.21030256
181	0xbc8ab380	-0.016931295
182	0xbd9d679c	-0.076857775
183	0x3e316c5e	0.17326495
184	0x3cad7115	0.021172086
185	0xbd702995	-0.058633406
186	0xbdc9781d	-0.09837363
187	0xbda033be	-0.07822369
188	0xbd4ffd04	-0.050778404
189	0xbe922794	-0.2854582
190	0x3d815633	0.06315269
191	0x3d87b1bc	0.06625697
192	0x3dff1ee9	0.124570675
193	0x3da1a03b	0.0789189
194	0xbe0bc89a	-0.13650742
195	0xbe4be3e9	-0.1991116
196	0x3d6cb2c9	0.05778769
197	0xbe1aac79	-0.15104856
198	0xbdefb0b7	-0.117036276
199	0xbddbe49e	-0.10736965
200	0x3d095d55	0.033536274
201	0xbdf9e320	-0.12201524
202	0xbdbf95f5	-0.09354774
203	0xbda32b0b	-0.07967194
204	0xbd726669	-0.059179697
205	0x3d05a245	0.032625455
206	0x3bed4192	0.0072404826
207	0xbe4657a9	-0.19369377
208	0xbe4d61a6	-0.20056781
209	0xbdf4f92c	-0.11961588
210	0xbe4e89d1	-0.2016976
211	0xbdb4bd03	-0.088251136
212	0x3e8281d5	0.2548968
213	0x3c850602	0.016238216
214	0xbde4b9e6	-0.1116827
215	0xbd8abb0d	-0.06773958
216	0x3eb1f342	0.34755903
217	0x3df3ddd7	0.11907547
218	0xbd8e4255	-0.069462456
219	0x3d53dae8	0.051722437
220	0x3d683172	0.05668778
221	0x3b0897d6	0.0020842454
222	0xbdc15a9b	-0.0944111
223	0xbd8c06bd	-0.06837223
224	0x3d32473e	0.043524973
225	0xbcc7a381	-0.024369957
226	0xbe19d26a	-0.15021673
227	0xbd512a57	-0.05106577
228	0xbc54bac7	-0.012983984
229	0xbdb4210c	-0.08795366
230	0xbdece16b	-0.115664326
231	0xbe4f7d8e	-0.20262739
232	0x3ebac466	0.36477965
233	0x3d3eeeaa	0.046614327
234	0xbe92bce7	-0.28659746
235	0xbe196b67	-0.14982377
236	0xbdd70c39	-0.10500378
237	0xbd47e4ce	-0.04880219
238	0xbd79db8b	-0.061000388
239	0x3ce7caee	0.028295007
240	0xbe231b9e	-0.15928504
241	0xbebaf97c	-0.36518466
242	0xbe9cd7eb	-0.30633482
243	0x3d266752	0.040625878
244	0xbe491593	-0.19637136
245	0xbc2d0e98	-0.010562561
246	0xbe04931b	-0.12946741
247	0xbe4befe7	-0.19915734
248	0xbd759e91	-0.059965674
249	0x3e93752f	0.2880034
250	0xbdcacc6a	-0.0990227
251	0xbd26bf51	-0.040709797
252	0xbe4968a5	-0.19668825
253	0x3e25261b	0.16127817
254	0xbd44d9b2	-0.048059173
255	0xbc808565	-0.015688607

decoder.0.weight f4 [128, 256]
0	0x3e14b846	0.1452342
1	0x3c9b3c83	0.018949753
2	0xbde06d50	-0.1095835
3	0x3de944ec	0.11390099
4	0x3e6016ed	0.21883745
5	0x3cb479e0	0.02203077
6	0xbdeb9d95	-0.11504666
7	0xbeae61e0	-0.34059048
8	0x3cac43e2	0.021028463
9	0x3d873c56	0.06603305
10	0x3c1620e9	0.00916312
11	0xbc99bbce	-0.01876631
12	0x3ddebdab	0.1087602
13	0x3e07482b	0.13211124
14	0x3ccee063	0.02525348
15	0x3deb764e	0.11497174
16	0x3da6ff02	0.08154108
17	0xbd31d92b	-0.04342
18	0xbd0d02f3	-0.03442664
19	0x3d1a2892	0.037636347
20	0x3ce043d2	0.02737609
21	0x3d10aa9c	0.035318956
22	0x3ddc2c65	0.10750655
23	0xbcd0836a	-0.025453288
24	0xbba6481c	-0.005074514
25	0xbd217f25	-0.039427895
26	0xbd985bac	-0.0743936
27	0x3c115e67	0.008872605
28	0x3c465053	0.012104112
29	0xbc9d1777	-0.019176228
30	0x3d4a700e	0.04942327
31	0xbbf65c31	-0.0075183143
32	0x3d1ae525	0.037816186
33	0xbee31efd	-0.4435958
34	0x3d7cd956	0.061730705
35	0x3e0f701a	0.14007607
36	0xbda1d852	-0.07902588
37	0x3dadefa3	0.08492973
38	0xbdd06801	-0.10176087
39	0x3d626eca	0.055281438
40	0xbe5931d5	-0.21210416
41	0xbeffad25	-0.49936786
42	0xbd84ad53	-0.064783715
43	0x3e2935db	0.1652445
44	0x3d06a5d2	0.032872982
45	0xbd508109	-0.050904308
46	0xbd536a76	-0.0516152
47	0x3c804bdd	0.015661174
48	0x3cdcb5eb	0.026942214
49	0xbc269696	-0.010167738
50	0x3d0f02e9	0.034914885
51	0x3dbbfbc9	0.091788836
52	0xbcec6fee	-0.028861966
53	0x3d2ca9c2	0.04215408
54	0x3d958844	0.07301381
55	0xbbca549a	-0.006174636
56	0xbc92f4cf	-0.017939
57	0x3b958408	0.0045628585
58	0xbdcbd7e5	-0.09953288
59	0xbca7863e	-0.020449754
60	0xbe11cb61	-0.14237739
61	0x3d44884d	0.04798155
62	0xbe1f9041	-0.15582372
63	0x3cdf760d	0.02727797
64	0x3d3b1781	0.045676712
65	0x3db925c3	0.090404056
66	0x3d6146fe	0.054999344
67	0x3d1e7c7f	0.038692947
68	0x3d11b955	0.035577137
69	0xbca2451a	-0.01980834
70	0xbbfc3ae4	-0.00769745
71	0x3c871012	0.016487155
72	0x3d3988a5	0.04529633
73	0x3d7edc21	0.06222165
74	0x3e284f0c	0.16436404
75	0x3d8a7524	0.06760624
76	0x3d2e8edf	0.04261672
77	0x3e1477af	0.1449878
78	0x3d6bb020	0.057541013
79	0x3e050ae4	0.12992436
80	0x3dd2b12d	0.102877
81	0xbcfc0e31	-0.030768486
82	0x3d9a4069	0.075318165
83	0xbf07b794	-0.53014493
84	0xbae9fc41	-0.0017851667
85	0xbca1cb50	-0.019750267
86	0x3cd34f6d	0.02579471
87	0xbd82715a	-0.06369276
88	0x3ce9215c	0.02845829
89	0x3e125910	0.14291787
90	0xbe5a5728	-0.2132231
91	0xbe060dfd	-0.13091274
92	0x3ce4b1e0	0.027916849
93	0x3e01a4cd	0.12660523
94	0xbd530d38	-0.05152628
95	0x3c8c21c3	0.017105943
96	0x3c875f4c	0.016524933
97	0x3e2e3ac8	0.17014611
98	0x3d426b66	0.047465704
99	0x3d9fab85	0.07796387
100	0x3dc53e98	0.096310794
101	0x3d64ef89	0.0558925
102	0xbd4c1ce8	-0.049832255
103	0xbe9697d7	-0.2941272
104	0x3e14ea93	0.14542608
105	0x3d840768	0.06446725
106	0xbd9a3d73	-0.07531252
107	0x3d83fb74	0.06444445
108	0xbd4b57c2	-0.04964424
109	0x3deead7c	0.11654183
110	0xbbcdd8e3	-0.0062819584
111	0xbb4eeb8b	-0.00315735
112	0xbd429130	-0.047501743
113	0xbce8cb82	-0.028417353
114	0x3d188781	0.0372386
115	0xbd89a2d0	-0.06720507
116	0x3d96c127	0.0736106
117	0x3c8cd609	0.017191904
118	0xbccf17a7	-0.025279833
119	0xbc5213f0	-0.012822136
120	0xbe2bfeb9	-0.16796388
121	0x3d6579a7	0.05602422
122	0xbcf4782b	-0.029842457
123	0x3d553409	0.052051578
124	0xbd4a4070	-0.04937786
125	0x3d4dc802	0.05023957
126	0xbd65ab07	-0.056071308
127	0x3d0239ac	0.03179328
128	0xbdf19673	-0.11796274
129	0x3dc9a41d	0.09845755
130	0x3d7765d6	0.060399853
131	0x3d500608	0.050787
132	0xbd5582c6	-0.05212667
133	0xbd6543c3	-0.055972826
134	0x3d8c90b4	0.068635374
135	0x3cd23429	0.025659638
136	0xbca68251	-0.020325812
137	0xbd482c11	-0.04887015
138	0xbcd0d253	-0.025490915
139	0x3d9cd8e5	0.07658557
140	0x3cf1fd5e	0.02953976
141	0xbdcd8e6b	-0.1003693
142	0xbb526649	-0.0032104424
143	0x3d8f80fa	0.07007022
144	0xbd5e01b0	-0.054200828
145	0x3c77d034	0.015125323
146	0x3d0b31ca	0.03398303
147	0xbd305707	-0.043051746
148	0x3da49158	0.080355346
149	0x3d139e2a	0.03603951
150	0x3c851e29	0.016249733
151	0xbdd502ed	-0.10400949
152	0x3d8b6d25	0.06807927
153	0xbd92e254	-0.07172075
154	0xbda1b0e3	-0.078950666
155	0x3e023edd	0.12719293
156	0x3ae5ea09	0.0017541061
157	0x3d0a0bb3	0.033702563
158	0x3dd8d519	0.1058752
159	0x3cf15e7f	0.029464005
160	0x3dc803b4	0.09766331
161	0x3d9495ea	0.07255156
162	0xbd5b99c7	-0.05361345
163	0xbd8fddb1	-0.07024706
164	0x3d29cff3	0.04145808
165	0x3d9213be	0.07132672
166	0x3d1a4a9d	0.037668813
167	0x3e2c7df6	0.16844925
168	0xbc1b2c0d	-0.009470952
169	0x3d820373	0.06348314
170	0xbd88278f	-0.0664817
171	0x3d778a42	0.060434587
172	0x3d8ade5d	0.06780694
173	0xbcb69d55	-0.022291819
174	0x3db4a374	0.08820239
175	0x3e1fcd46	0.1560565
176	0xbdf162b3	-0.117864035
177	0xbce22f77	-0.027610524
178	0x3d214102	0.039368637
179	0xbe65852f	-0.22414087
180	0x3dd412c4	0.10355142
181	0x3c780786	0.0151385125
182	0x3d6a87a1	0.057258252
183	0xbe0480e5	-0.12939794
184	0xbe3fe42d	-0.18739386
185	0x3c79c9c7	0.015245861
186	0xbd78bd89	-0.06072763
187	0x3930ba28	0.00016854017
188	0xbe01fb9a	-0.12693635
189	0x3ce4d7d9	0.027934955
190	0xbb835066	-0.004007387
191	0xbc36a3e6	-0.011147475
192	0xbd3c9864	-0.04604377
193	0xbd9171d9	-0.07101793
194	0x3d2ade66	0.041716002
195	0x3cd91b48	0.026502267
196	0xbd305d8e	-0.04305797
197	0x3d9d5d3c	0.07683799
198	0x3de9ee98	0.11422461
199	0xbc60e4d1	-0.013726429
200	0xbc5eb858	-0.013593756
201	0xbd08f994	-0.03344114
202	0xbcebd103	-0.028786188
203	0x3dafaa16	0.08577363
204	0x3d30726b	0.043077867
205	0xbca88dbe	-0.0205754
206	0x3d90b1d3	0.07065167
207	0xbe60652d	-0.21913595
208	0xbdc3cbbe	-0.09560345
209	0x3d2dfdbc	0.042478308
210	0xbd1cccf7	-0.038281407
211	0xbd19853e	-0.037480585
212	0x3d4a12fc	0.04933451
213	0xbc1d05d8	-0.009583913
214	0x3ce5070e	0.027957465
215	0x3db4f5f0	0.08835971
216	0x3c5f1c2d	0.0136175575
217	0xbad6bd99	-0.0016383409
218	0xbd805aac	-0.06267294
219	0xbb5a3eef	-0.0033301672
220	0xbdcb15d0	-0.0991627
221	0x3d8ce892	0.06880297
222	0xbe148629	-0.14504303
223	0x3c731edd	0.014838901
224	0xbb57196b	-0.0032821547
225	0x3d35f424	0.044422284
226	0x3d11bae1	0.035578612
227	0x3da43a13	0.08018889
228	0xbec7fc44	-0.3905965
229	0x3d8f146b	0.06986316
230	0xbf48ff87	-0.78514904
231	0x3dbf1b1d	0.09331343
232	0xbd46faf6	-0.04857918
233	0x3d69bccc	0.057064816
234	0x3e0c3bb6	0.13694653
235	0x3d111f4d	0.03543024
236	0x3dca9b81	0.09892941
237	0xbd4c8b16	-0.04993733
238	0xbedbf14f	-0.4295754
239	0xbeb1f5dc	-0.34757888
240	0xbc4443db	-0.011979069
241	0x3d86f0a5	0.06588868
242	0x3af6c0f7	0.0018825819
243	0x3c18a1c6	0.009315914
244	0x3c47ab18	0.012186788
245	0x3c89f0ab	0.016838392
246	0xbd8997b5	-0.06718389
247	0x3e14b0a1	0.14520504
248	0x3e0a3f79	0.13500775
249	0x3ca0e18f	0.019638805
250	0x3e0fe4fb	0.14052193
251	0x3d026ccd	0.03184204
252	0xbe99763d	-0.2997302
253	0x3d6865f0	0.05673784
254	0x3d6566f1	0.056006376
255	0xbcf0852f	-0.029360382

decoder.0.bias f4 [128]
0	0x3d98cc37	0.07460826
1	0x3d208f19	0.03919897
2	0xbc901dfd	-0.017592425
3	0x3ca46cea	0.020071466
4	0xbce72cff	-0.028219698
5	0x3c1c33ef	0.009533866
6	0x3c84576a	0.016154964
7	0x3d354fa7	0.044265416
8	0x3be05e0d	0.006847149
9	0xbcf392a2	-0.029733006
10	0xbca61c27	-0.020277096
11	0x3bf784a7	0.007553655
12	0x3d806b24	0.062704355
13	0xbc3cbe9c	-0.011520054
14	0x3a9c2334	0.0011912347
15	0xbcd2e536	-0.025744062
16	0xbc6b4646	-0.014360016
17	0xbb081769	-0.0020765907
18	0x3d1d3e27	0.03838935
19	0x3c25b44d	0.010113788
20	0x3d272603	0.040807735
21	0x3c82f545	0.015986094
22	0x3cdb3edf	0.026763378
23	0x3cbb8c5f	0.022894083
24	0x3c0d10f1	0.008609996
25	0x3b581e94	0.003297721
26	0xbccac337	-0.024751289
27	0x3d7c10ea	0.061539568
28	0xbc14b3d7	-0.00907608
29	0x3c34d93a	0.011038119
30	0x3ca70965	0.020390222
31	0xbd0a3482	-0.03374148
32	0xbc3440af	-0.01100175
33	0xbce321c3	-0.02772606
34	0x3beff734	0.00732317
35	0xbc33d356	-0.010975679
36	0x3bef8f3d	0.0073107765
37	0xbc83ab56	-0.01607291
38	0xbccf168f	-0.025279311
39	0xbcc95d63	-0.024580663
40	0x3ce6088c	0.028080247
41	0xbbbf01f0	-0.0058290884
42	0xbd06d6b1	-0.03291959
43	0x3bd4f8b0	0.0064993724
44	0xbd23607d	-0.03988694
45	0x3bfaf852	0.0076589966
46	0xbc855448	-0.01627554
47	0x3cbeb7a2	0.023280922
48	0xbc4ab7f0	-0.012372956
49	0xbcb1837e	-0.021669146
50	0x3cca7224	0.02471263
51	0x3c2a6da6	0.010402119
52	0x3cf384a0	0.029726326
53	0x3bd300b3	0.0064392923
54	0xbcda3252	-0.026635323
55	0x3cccf259	0.025017904
56	0xbc4634bf	-0.012097537
57	0x3da923aa	0.082587555
58	0xbbcfa9b7	-0.0063373703
59	0x3bab6c21	0.005231396
60	0x3c5fb00f	0.0136528155
61	0xbca7028f	-0.020386962
62	0xbd1c995d	-0.038232196
63	0x3cbb9cdc	0.022901945
64	0xbcd1f06f	-0.025627343
65	0xbc2a8b3e	-0.0104091745
66	0x3bcc9ee6	0.006244528
67	0xbc8fc4a1	-0.017549815
68	0x3b6a2084	0.0035724947
69	0x3d150535	0.03638192
70	0x3d963bca	0.073356226
71	0xbd14d693	-0.036337446
72	0xbd25bba4	-0.04046215
73	0x3cec1325	0.028817723
74	0xbcafb42b	-0.021448215
75	0xbcbbd3e3	-0.022928184
76	0x3b0bf772	0.0021357206
77	0xbc052b43	-0.00812799
78	0xbd2754a1	-0.040852193
79	0x3cbb7d7b	0.022886982
80	0x3c6a6d41	0.014308275
81	0xbcfb151b	-0.030649712
82	0xbc59ca43	-0.013292852
83	0xbbc45222	-0.0059912363
84	0x3c5d35dd	0.013501612
85	0x3c9d5ea2	0.019210164
86	0xbd0f84b3	-0.03503866
87	0x3ce83160	0.028343856
88	0xba9da8b6	-0.0012028429
89	0xbbaeb64a	-0.005331789
90	0x3d174ab9	0.036936495
91	0xbce3f2d4	-0.02782575
92	0x3c971154	0.01844088
93	0x3cae3f34	0.021270372
94	0x3d33b707	0.04387572
95	0x3c9a062e	0.018801775
96	0xbc0b92c8	-0.008518882
97	0xb98dc4fc	-0.0002704038
98	0xbcebcb0f	-0.02878335
99	0x3d81ee2e	0.06344257
100	0x3d8cef92	0.06881632
101	0xbca22c39	-0.019796478
102	0x3d54c1cf	0.051942643
103	0xbaff2315	-0.0019465411
104	0xbcc5ba75	-0.024136761
105	0x3d57b57b	0.052663308
106	0xbc9d4baa	-0.019201118
107	0xbabd8857	-0.0014460188
108	0x3c9f3af1	0.019437285
109	0x3c6d5d2b	0.014487545
110	0xbc3a113d	-0.011356649
111	0x3b37f2ef	0.0028068384
112	0xbb42a9d3	-0.0029703274
113	0xbcb81bcc	-0.022474192
114	0xbb81e6cc	-0.0039642807
115	0xbd0450f4	-0.032303765
116	0x3c5d1e4c	0.013495993
117	0x3d82571b	0.0636427
118	0xbcf51233	-0.029915905
119	0xbb135d83	-0.0022486157
120	0xbd090dd4	-0.033460453
121	0x3cea4a74	0.028599955
122	0x3b22d413	0.0024845644
123	0x3cc486a3	0.023989981
124	0x3bbb968c	0.0057247337
125	0x3c4d28c2	0.012521924
126	0xbc0259a9	-0.007955947
127	0xbc3f0024	-0.011657748
