Project testing/models/autoencoderL256.pth (torch, 357430 bytes, 16 tensors)

encoder.0.weight f4 [32, 18]
-0.3860497 0.20681767 -0.012166767 0.053381488 -0.34394008 0.04105897 0.5772081 0.17032404
-0.022322392 0.2464711 0.31843534 -0.09725544 0.43659258 0.31622988 -0.19238079 0.18103893
0.08769287 0.23973879 -0.44828916 -0.21003751 -0.040030446 0.07987275 0.583514 0.012444817
0.042114843 -0.27948204 -0.014534792 0.34633642 -0.045963217 0.023887737 -0.36173326 -0.016067173
-0.15163185 0.32895622 0.07657611 0.21196106 -0.16357566 0.14690155 0.05137723 0.072766595
-0.011770829 0.0026431046 0.04170098 -0.16665605 0.117780074 0.58290386 -0.108618475 -0.010433086
-0.37042403 0.19620895 -0.04006934 -0.13179347 -0.4655263 0.20563428 0.12181202 0.009659014
-0.042516317 -0.30947503 -0.30203527 0.0015323007 -0.053160563 -0.33449402 0.07110368 -0.21106577
0.22267963 -0.005038586 0.3301343 -0.16905144 -0.13259044 -0.112584755 -0.0054504336 0.27942118
-0.072603665 -0.42786884 -0.10525167 0.22270828 -0.49218422 -0.06107167 -0.13069162 -0.4126074
0.07495956 -0.15582792 -0.06432165 -0.09617951 -0.20947944 -0.47331277 -0.23560554 -0.3605182
0.22874926 0.17868432 -0.51171064 -0.11830381 -0.03073643 -0.17414646 0.6285286 0.057644546
0.46320516 -0.30015218 -0.07517444 -0.2060049 0.37266773 -0.05436626 -0.023452986 0.21284187
-0.22082046 -0.4659121 -0.2838835 0.16851127 0.36127988 0.051508848 -0.048687615 0.14175259
0.009855157 0.055611458 0.1397721 -0.008500407 -0.013145635 -0.105517 -0.29607323 0.021197256
-0.37545055 0.20937298 0.40325975 0.5059776 0.26753026 0.11871927 -0.06978594 0.28923103
0.009067126 -0.2292936 -0.49303266 -0.0080021825 0.24319115 0.0648292 -0.087298594 -0.45748937
-0.1302707 -0.030677745 0.16864888 0.27423778 0.29777232 -0.39675748 0.14604956 -0.36194703
0.49125847 -0.28447095 -0.0038862252 0.08656849 0.14298534 0.06747884 0.45220992 -0.34309858
0.07303248 -0.1282131 -0.685244 0.080621116 0.19114944 -0.18222886 -0.29325035 -0.113216236
-0.30665272 0.249619 -0.13913223 -0.019086225 0.11216099 0.57283604 0.24450378 -0.034837473
0.4113953 -0.021088986 -0.11956739 0.07673426 0.1974682 0.024750533 -0.17129695 -0.0105535025
0.26169193 -0.25762 0.17598017 0.21279544 0.35123438 0.06931564 0.06779421 0.09402376
0.09312692 0.011273055 0.3517905 0.48534045 -0.08882347 0.020043826 -0.080086716 -0.03825972
-0.45762056 -0.051974077 -0.098111875 -0.26143643 0.30710438 -0.31356457 -0.16588989 -0.054542303
0.09381799 -0.08814958 -0.3583401 -0.05896216 0.15960431 0.24717046 -0.062271774 0.39774963
-0.029052185 -0.054510605 0.25284907 -0.26370952 0.14716084 0.11887408 -0.5607759 -0.54452777
-0.12479863 -0.042674717 -0.0057651442 -0.05269379 0.093949616 -0.06330357 -0.37611297 -0.18255174
0.10937898 0.3481717 -0.032353867 -0.012998786 0.40152663 0.047717787 -0.29610422 -0.2576304
0.04835204 0.10369102 0.041879974 -0.066100456 0.007866131 0.29353163 0.37233293 0.02172444
-0.17624253 0.060970545 -0.12886713 -0.528226 0.033667047 -0.06860541 0.16540653 0.4269847
-0.25874314 0.14109959 -0.48430383 0.17752945 0.07221139 0.11561284 0.000767507 -0.6272616
00000000: 4ea8 c5be 03c8 533e 1f57 47bc 8ca6 5a3d
00000010: ea18 b0be 732d 283d e9c3 133f 6d69 2e3e
00000020: 73dd b6bc ec62 7c3e f509 a33e dc2d c7bd
00000030: 1089 df3e e2e8 a13e 78ff 44be 4562 393e
00000040: 5298 b33d 167e 753e 2886 e5be 1314 57be
00000050: f7f6 23bd 5394 a33d 2c61 153f 59e5 4b3c
00000060: 9d80 2c3d 4518 8fbe 5623 6ebc 0253 b13e
00000070: ed43 3cbd 37b0 c33c 1a35 b9be 4e9f 83bc
00000080: 6145 1bbe f36c a83e f0d3 9c3d 520c 593e
00000090: 6180 27be 5c6d 163e ee70 523d a706 953d
000000a0: 6fda 40bc f037 2d3b a6ce 2a3d e2a7 2abe
000000b0: ae36 f13d 3039 153f 5d73 debd 89ef 2abc
000000c0: 38a8 bdbe 00eb 483e c01f 24bd def4 06be
000000d0: 7759 eebe cb91 523e 9578 f93d d740 1e3c
000000e0: 9725 2ebd 8373 9ebe 5ea4 9abe 7bd7 c83a
000000f0: e4be 59bd cd42 abbe ce9e 913d a021 58be
00000100: 2106 643e b91a a5bb 5d07 a93e d21b 2dbe
00000110: cac5 07be d692 e6bd 8d99 b2bb 4b10 8f3e
00000120: 3bb1 94bd a011 dbbe 308e d7bd a40d 643e
00000130: 92ff fbbe 4a26 7abd 06d4 05be 4741 d3be
00000140: 6684 993d 5b91 1fbe 12bb 83bd c3f9 c4bd
00000150: c781 56be 0d56 f2be 9442 71be d795 b8be
00000160: 3f3d 6a3e 06f9 363e 78ff 02bf 4549 f2bd
00000170: f7ca fbbc 7353 32be 40e7 203f b01c 6c3d
00000180: 3a29 ed3e 8cad 99be 0ff5 99bd f3f2 52be
00000190: 4ece be3e 28af 5ebd 7a20 c0bc 38f3 593e
000001a0: c21e 62be 088c eebe 2e59 91be 388e 2c3e
000001b0: adf9 b83e f1fa 523d aa6c 47bd 9727 113e
000001c0: 8677 213c d7c8 633d 6b20 0f3e 4b45 0bbc
000001d0: ca60 57bc 4c19 d8bd e996 97be dea5 ad3c
000001e0: 0e3b c0be df65 563e 1078 ce3e bf87 013f
000001f0: baf9 883e 1723 f33d eeeb 8ebd 1716 943e
00000200: 488e 143c f1cb 6abe c76e fcbe 961b 03bc
00000210: 1a07 793e 2cc5 843d 9bc9 b2bd 0c3c eabe
00000220: af65 05be e54f fbbc 4bb2 2c3e e568 8c3e
00000230: 9d75 983e cc23 cbbe 048e 153e 1f51 b9be
00000240: 3b86 fb3e 2da6 91be 0ab0 7ebb d24a b13d
00000250: c06a 123e 5932 8a3d 0f88 e73e 9eaa afbe
00000260: 0e92 953d 4b4a 03be 276c 2fbf af1c a53d
00000270: aebc 433e 349a 3abe e924 96be eadd e7bd
00000280: 9601 9dbe 209c 7f3e ae78 0ebe b75a 9cbc
00000290: a9b4 e53d 62a5 123f 335f 7a3e bdb1 0ebd
000002a0: 68a2 d23e cfc2 acbc bfdf f4bd da26 9d3d
000002b0: 1b35 4a3e a1c1 ca3c 7868 2fbe 99e8 2cbc
000002c0: 7cfc 853e c5e6 83be 2534 343e 0ce7 593e
000002d0: fed4 b33e 5cf5 8d3d b1d7 8a3d 878f c03d
000002e0: 54b9 be3d 9fb2 383c e21d b43e 8b7e f83e
000002f0: 14e9 b5bd f332 a43c 8104 a4bd 39b6 1cbd
00000300: 3e4d eabe c5e2 54bd e1ee c8bd ffda 85be
00000310: c93c 9d3e 898b a0be 0adf 29be c067 5fbd
00000320: a523 c03d c487 b4bd 5b78 b7be 4e82 71bd
00000330: 506f 233e 411a 7d3e b010 7fbd d7a5 cb3e
00000340: d9fe edbc 8346 5fbd 6f75 813e ef04 87be
00000350: 55b1 163e 4174 f33d 028f 0fbf 2c66 0bbf
00000360: 6d96 ffbd afcb 2ebd 89e9 bcbb 72d5 57bd
00000370: a868 c03d 4da5 81bd e191 c0be d8ee 3abe
00000380: 1602 e03d 9043 b23e 7d85 04bd dcf8 54bc
00000390: e694 cd3e ba73 433d f99a 97be 22e8 83be
000003a0: ca0c 463d f55b d43d 568a 2b3d ad5f 87bd
000003b0: f2e0 003c c749 963e 6ca2 be3e 74f7 b13c
000003c0: ec78 34be 40bc 793d bff5 03be d239 07bf
000003d0: 75e6 093d fe80 8cbd 5460 293e bd9d da3e
000003e0: fb79 84be 697c 103e acf6 f7be 48ca 353e
000003f0: 91e3 933d 6dc6 ec3d 8632 493a 3794 20bf

encoder.0.bias f4 [32]
-0.04596735 -0.022446886 0.33960918 -0.23046494 -0.13522905 0.17265522 -0.30735517 0.047275953
0.046383873 -0.05451747 0.46560284 0.29139304 0.058786277 0.34416246 0.44856706 -0.091775104
-0.34032625 -0.19580516 -0.16307679 0.16260555 0.08837861 -0.27455735 -0.24969912 -0.26130605
-0.17692702 0.121034905 0.037234776 0.19387433 0.25053924 0.21648508 -0.14508747 0.07166231
00000000: 4348 3cbd 88e2 b7bc 41e1 ad3e 00ff 6bbe
00000010: 7c79 0abe 88cc 303e a85d 9dbe 6ea4 413d
00000020: 04fd 3d3d b64d 5fbd 7f63 ee3e 7831 953e
00000030: e1c9 703d 1036 b03e 95aa e53e 96f4 bbbd
00000040: 3e3f aebe 2681 48be 9afd 26be 1282 263e
00000050: d8ff b43d c892 8cbe 20b1 7fbe e8c9 85be
00000060: 5b2c 35be 26e1 f73d 7e83 183d fe86 463e
00000070: ae46 803e 44ae 5d3e cf91 14be b0c3 923d

encoder.2.weight f4 [64, 32]
0.3195939 -0.23050025 -0.24694079 0.24809285 -0.21671587 0.18537854 0.31808922 -0.1656376
-0.070852175 -0.054488342 -0.17413037 -0.2324419 0.06081416 -0.09729466 0.00796592 -0.2619617
-0.12965491 -0.1423072 -0.103742726 -0.07384117 0.04253961 0.25275645 0.26474348 0.10426168
-0.039997794 0.11189932 0.26610512 -0.105701886 -0.031439666 -0.106341004 0.08820154 0.19552852
-0.23180966 0.06476643 0.14645037 -0.04175848 -0.04472067 0.04788466 0.18311228 0.21537112
-0.23298377 0.005122054 0.078886114 0.13234891 0.13216092 0.13123143 0.016308548 0.2779351
-0.024817543 0.1324889 -0.24287839 0.30345032 0.14852433 0.1925346 0.21903653 -0.1310401
0.057505704 0.2306194 0.07432376 -0.037256066 -0.15440413 -0.05019926 -0.14399414 -0.27260387
0.051439736 0.14329931 0.28979614 -0.15468718 -0.09735272 -0.08509495 0.032885432 -0.111700796
0.09553645 -0.21423206 0.109361105 0.31081122 0.14865427 -0.08143442 0.24097188 0.23445131
0.11962805 0.08925452 0.030656625 0.0021277089 0.06447832 0.07335157 -0.284838 0.15146898
0.152294 -0.052190147 0.03951754 0.34745586 -0.24096559 -0.18804659 -0.12507911 0.065817624
-0.22467765 0.17966112 0.18646832 0.10857033 -0.2641053 -0.26656502 0.33193815 0.17524692
0.12414542 -0.1260782 -0.015980136 0.13240723 0.22519071 0.25036672 -0.036075257 -0.21853189
0.083476625 -0.1414775 -0.09921255 -0.2579363 0.15387684 -0.066821516 0.14709549 0.18870603
-0.06538131 0.1875886 0.26704422 0.2608755 0.10189193 -0.24569903 -0.14730264 0.06469503
-0.02770643 -0.17922233 -0.1494769 -0.45971528 0.33796394 -0.004908746 0.19704665 -0.20271996
0.012315217 -0.11591047 -0.019827345 -0.047347087 -0.1374349 -0.08251031 -0.021764856 0.32437673
0.030391756 0.060299218 -0.13268943 -0.13402359 0.3246172 -0.2377048 0.043719243 0.19711532
0.2078367 -0.04831312 -0.18214965 0.055510517 -0.10402057 -0.37085342 0.07897206 0.21099246
0.13353977 -0.122337714 0.2406929 -0.15840079 0.118051805 0.11123445 0.0025368915 -0.14946817
0.3390861 0.037617806 0.26888627 0.26815486 0.32970843 -0.027460402 -0.12731178 0.068177775
-0.19721077 -0.14114502 0.30358213 0.18914248 0.26244417 -0.085275404 -0.14223412 -0.108841136
-0.10556544 0.014354583 0.055301175 -0.14845373 -0.09872999 -0.24141072 0.10271246 0.2321336
0.19450177 0.3289451 0.053650316 -0.2658487 0.019325115 0.14408241 0.13114013 -0.18921311
0.0878532 0.29691592 0.030512603 0.2651475 -0.048987586 0.23304921 -0.38862726 -0.13975152
-0.11806179 -0.2417755 -0.19902526 0.11664547 -0.10205925 -0.053317517 -0.054654647 0.2704362
-0.20901042 0.03174454 0.15152268 0.026217336 0.15532142 0.1106047 0.2689782 -0.19046786
-0.27164894 -0.27329808 -0.006782819 0.23266262 0.3016041 0.039515883 0.1901298 0.24036239
0.3356654 -0.13461284 0.19547248 -0.17993431 0.04736042 0.25876817 -0.09378598 0.17662986
-0.08992921 -0.09549357 0.04125079 0.00936805 0.3996356 0.30636734 -0.13498561 -0.123418525
0.17300808 -0.31922415 -0.15979771 0.08237109 -0.14357461 0.0072102435 0.12930243 -0.036787815
00000000: d0a1 a33e 4208 6cbe 0cde 7cbe 0d0c 7e3e
00000010: c4ea 5dbe dfd3 3d3e 97dc a23e e79c 29be
00000020: f21a 91bd 2b2f 5fbd 3b4f 32be 4005 6ebe
00000030: 4518 793d 6c42 c7bd 7d83 023c d81f 86be
00000040: 42c4 04be fbb8 11be 1177 d4bd 0a3a 97bd
00000050: 043e 2e3d 4b69 813e 758c 873e 2687 d53d
00000060: bad4 23bd 782b e53d ee3e 883e 3b7a d8bd
00000070: e1c6 00bd 50c9 d9bd 02a3 b43d a138 483e
00000080: 835f 6dbe 43a4 843d 16f7 153e f10a 2bbd
00000090: 052d 37bd b522 443d c981 3b3e 3f8a 5c3e
000000a0: 4c93 6ebe e7d6 a73b 0b8f a13d 7986 073e
000000b0: 3155 073e 8861 063e 8199 853c 824d 8e3e
000000c0: 294e cbbc 2cab 073e 1db5 78be d75d 9b3e
000000d0: c316 183e ca27 453e 1d4b 603e 602f 06be
000000e0: 1a8b 6b3d 7e27 6c3e 0e37 983d d199 18bd
000000f0: 1e1c 1ebe bd9d 4dbd 3373 13be bc92 8bbe
00000100: 79b2 523d 0ebd 123e 2960 943e 5166 1ebe
00000110: dd60 c7bd 4346 aebd e0b2 063d 63c3 e4bd
00000120: 9da8 c33d a65f 5bbe b7f8 df3d a622 9f3e
00000130: d338 183e 17c7 a6bd 55c1 763e 0114 703e
00000140: 8dff f43d 13cb b63d 9a23 fb3c 0871 0b3b
00000150: 360d 843d 5939 963d 49d6 91be af1a 1b3e
00000160: f5f2 1b3e 56c5 55bd 25dd 213d bce5 b13e
00000170: afbf 76be 498f 40be bd14 00be 64cb 863d
00000180: e611 66be 16f9 373e 8df1 3e3e 1f5a de3d
00000190: cf38 87be 367b 88be ccf3 a93e ee73 333e
000001a0: f43f fe3d a51a 01be c6e8 82bc c395 073e
000001b0: 6598 663e 1130 803e a6c3 13bd d3c6 5fbe
000001c0: cbf5 aa3d 7adf 10be f32f cbbd 3a10 84be
000001d0: e491 1d3e b8d9 88bd 33a0 163e 273c 413e
000001e0: a3e6 85bd 3a17 403e 05ba 883e 7991 853e
000001f0: b7ac d03d 8798 7bbe 81d6 16be d47e 843d
00000200: 98f8 e2bc 0f86 37be 7910 19be cd5f ebbe
00000210: 9c09 ad3e 8cd9 a0bb 99c6 493e d295 4fbe
00000220: c4c5 493c 7862 edbd f56c a2bc 05ef 41bd
00000230: bcbb 0cbe 2afb a8bd 364c b2bc b514 a63e
00000240: 22f8 f83c 50fc 763d bddf 07be 7b3d 09be
00000250: 3a34 a63e e368 73be f312 333d 99d8 493e
00000260: 25d3 543e fae3 45bd 7085 3abe ff5e 633d
00000270: bd08 d5bd 80e0 bdbe 1abc a13d 680e 583e
00000280: a6be 083e 328c fabd 3378 763e d133 22be
00000290: 25c5 f13d e3ce e33d fa41 263b 2f0e 19be
000002a0: b19c ad3e 2115 1a3d 76ab 893e 984b 893e
000002b0: 8bcf a83e a3f4 e0bc 055e 02be caa0 8b3d
000002c0: 9ff1 49be 5288 10be 1e6f 9b3e 91ae 413e
000002d0: 155f 863e dfa4 aebd d2a5 11be 1ae8 debd
000002e0: b232 d8bd 7c2f 6b3c 7c83 623d 4104 18be
000002f0: f332 cabd 5f34 77be e95a d23d 6eb4 6d3e
00000300: 792b 473e 7e6b a83e 6fc0 5b3d 521d 88be
00000310: b44f 9e3c 578a 133e 9949 063e 15c1 41be
00000320: 61ec b33d 5d05 983e 91f5 f93c 6ac1 873e
00000330: 35a7 48bd 74a4 6e3e 27fa c6be 061b 0fbe
00000340: 61ca f1bd ff93 77be 47cd 4bbe d2e3 ee3d
00000350: 7104 d1bd 7863 5abd 8ddd 5fbd 9d76 8a3e
00000360: d406 56be 9006 023d c328 1b3e bdc5 d63c
00000370: 940c 1f3e b884 e23d 83b7 893e 020a 43be
00000380: 9215 8bbe baed 8bbe 6942 debb 1c3f 6e3e
00000390: da6b 9a3e 68db 213d 63b1 423e 8f21 763e
000003a0: 56dc ab3e f3d7 09be f029 483e b340 38be
000003b0: 00fd 413d 437d 843e dd12 c0bd 75de 343e
000003c0: ce2c b8bd 2292 c3bd 97f6 283d 737c 193c
000003d0: 0a9d cc3e 2edc 9c3e ab39 0abe dac2 fcbd
000003e0: 0829 313e 5971 a3be 03a2 23be 2db2 a83d
000003f0: 3905 13be e843 ec3b db67 043e d2ae 16bd

encoder.2.bias f4 [64]
-0.30135176 0.089999236 0.21703106 -0.060768414 0.21936193 0.52220726 -0.12683032 -0.2964876
-0.19160695 -0.082973875 0.48496896 -0.11189236 0.25155258 -0.3860765 0.44999743 0.20408422
-0.2961984 -0.22013882 -0.35945925 -0.088458866 -0.33525103 -0.47220263 0.25410038 0.06780724
-0.013929482 0.05547671 -0.23763445 -0.19261739 0.36746275 0.5281188 -0.1762913 0.09045244
-0.20199187 -0.18669069 0.29424268 -0.28081664 -0.43391234 -0.41756797 0.7002433 -0.28292155
0.076388374 -0.20868725 -0.18826309 -0.23580451 0.29514942 0.525799 0.2077155 0.07162705
0.03567462 0.22710507 -0.3579729 -0.12744142 -0.04021573 -0.45143884 0.06796231 0.26764116
-0.02322377 0.35302386 -0.30793065 0.057364196 -0.21522744 -0.371485 0.36112797 -0.23183537
00000000: c74a 9abe 8551 b83d 643d 5e3e 4de8 78bd
00000010: 6aa0 603e 60af 053f cfdf 01be 39cd 97be
00000020: 9d34 44be 35ee a9bd da4d f83e d227 e5bd
00000030: 80cb 803e d2ab c5be 1066 e63e 74fb 503e
00000040: 51a7 97be 126c 61be 0b0b b8be ec29 b5bd
00000050: 06a6 abbe 8bc4 f1be 7219 823e 86de 8a3d
00000060: 7b38 64bc 8c3b 633d 7256 73be 7e3d 45be
00000070: 1424 bc3e cb32 073f b585 34be 213f b93d
00000080: f5d6 4ebe d82b 3fbe faa6 963e 33c7 8fbe
00000090: c229 debe 78cb d5be 2543 333f 18db 90be
000000a0: 8271 9c3d 1cb2 55be 0ac8 40be bd76 71be
000000b0: d31d 973e c39a 063f 5fb3 543e 34b1 923d
000000c0: 8d1f 123d 3b8e 683e 3948 b7be 0180 02be
000000d0: 40b9 24bd fe22 e7be d32f 8b3d 4308 893e
000000e0: c73f bebc 8bbf b43e 16a9 9dbe b8f6 6a3d
000000f0: 9564 5cbe 4833 bebe c4e5 b83e 4066 6dbe

encoder.4.weight f4 [128, 64]
0.24621293 0.08791002 -0.058002736 -0.13851346 -0.286579 0.07283901 0.18718073 0.122331224
-0.089137025 -0.078127034 0.10806416 -0.12227117 -0.06476775 0.13722622 0.2178394 0.06848613
0.064354844 -0.20049772 -0.09043248 0.053411335 0.036266305 0.08393525 -0.13756049 0.07103472
-0.05989667 0.020474155 -0.17913942 0.099206865 -0.08628313 0.06963389 0.31740588 0.15716274
0.082097426 0.14793843 -0.09697946 0.17976826 -0.20811035 0.16213216 0.121812806 0.2517131
-0.16955598 -0.01898008 0.07501245 -0.24237417 0.29022828 -0.08574397 -0.04189234 0.096147954
-0.08248935 -0.20343679 0.0840168 0.17388447 0.031607833 -0.3304932 0.24213856 0.06988459
0.08834348 -0.15007183 0.031878766 -0.23866479 0.21369468 -0.09273013 0.32273823 0.17757826
-0.102242194 -0.11015471 0.12847194 0.18462119 0.1752705 0.16980793 0.26679975 0.07886579
0.3365217 0.20908783 0.17602569 0.08534263 0.15991451 0.19362894 -0.1727807 -0.29889256
0.083700344 -0.24884105 0.074995376 -0.12760875 0.025064843 -0.091915995 -0.040554676 -0.04829841
-0.1524689 -0.14330375 -0.036691494 0.063496694 0.075295486 -0.24777581 -0.11511956 -0.17105344
0.07753659 -0.06666717 -0.014968789 -0.16955169 -0.049106207 0.25190622 0.37169254 -0.29574218
-0.14691624 0.06019441 0.005253883 -0.13719074 -0.13357708 -0.008634976 0.080132104 -0.06480215
-0.61101663 -0.0023839925 -0.12723623 0.052263454 -0.10316227 0.14235695 0.389595 -0.051477022
0.13133304 0.0039305557 -0.30907252 0.08633758 -0.121240936 -0.31960818 -0.09924329 -0.0096939355
-0.007829966 -0.2646094 0.1134682 0.15287079 0.118231595 0.04760892 0.12475463 0.21041526
-0.03987241 0.15437688 -0.2196556 0.03043116 -0.064997725 0.082157 -0.0955406 -0.21346176
0.22798967 -0.03838237 0.09545621 0.27423647 0.20332925 0.18982367 -0.16020998 -0.11923688
0.09968097 -0.20844789 0.2200854 0.2402628 -0.007801521 -0.25784114 0.0520023 0.022523507
-0.080116875 -0.20834544 0.092385106 0.06376124 0.24330081 0.11763928 -0.04846062 0.20405442
-0.2347995 0.24222854 -0.02739538 -0.16715005 -0.03031542 -0.016342245 0.021691695 -0.21319632
-0.052836403 -0.16722177 0.0452669 -0.12718354 0.14626035 -0.05884513 -0.08188909 -0.050887544
-0.20453805 0.025174858 -0.090869665 -0.040953062 -0.03862687 0.15308324 -0.03326986 -0.154726
-0.06629957 -0.0019218497 -0.101247735 -0.064690985 -0.06483253 -0.069031395 -0.04676125 -0.041486684
0.33468473 0.2751147 -0.18156667 0.062000755 -0.022708105 0.054511655 0.15391466 -0.1156619
-0.105921894 0.30653343 0.08350126 0.053872623 0.066327915 -0.01678944 -0.17862098 0.049980156
0.17863674 -0.06765265 -0.07145018 -0.13036008 0.2777869 -0.11850622 -0.23031723 -0.080739066
-0.2194019 -0.15749091 0.04938544 0.014585211 -0.0678247 -0.15137567 0.1305134 0.071338356
0.004936578 0.13888836 0.10040752 -0.029566968 0.0521094 0.31438386 -0.016425822 -0.026702879
-0.16391243 0.08385256 0.014674709 0.263464 0.12969482 0.04816703 -0.00029048996 0.25763652
-0.15396094 0.023482045 0.1285779 0.034773823 -0.26251224 0.101505905 0.023039445 -0.062095713
00000000: 3e1f 7c3e 2b0a b43d 4794 6dbd 79d6 0dbe
00000010: 7cba 92be 9e2c 953d 4eac 3f3e cb88 fa3d
00000020: 798d b6bd 1101 a0bd be50 dd3d 4f69 fabd
00000030: f4a4 84bd 0885 0c3e 4b11 5f3e 7542 8c3d
00000040: 79cc 833d 464f 4dbe aa34 b9bd d8c5 5a3d
00000050: fa8b 143d 3fe6 ab3d a8dc 0cbe a77a 913d
00000060: 3656 75bd 6ab9 a73c 5370 37be f82c cb3d
00000070: 36b5 b0bd 379c 8e3d 0683 a23e 45ef 203e
00000080: b222 a83d 2c7d 173e 2b9d c6bd 2c15 383e
00000090: e11a 55be f905 263e fe78 f93d 8ae0 803e
000000a0: 15a0 2dbe 1d7c 9bbc 21a0 993d ef30 78be
000000b0: cd98 943e 899a afbd 4d97 2bbd 38e9 c43d
000000c0: 2df0 a8bd bc51 50be 0011 ac3d c50e 323e
000000d0: 3777 013d 6836 a9be 2cf3 773e a71f 8f3d
000000e0: 6ded b43d 6eac 19be 4f93 023d 8b64 74be
000000f0: c7d2 5a3e 4be9 bdbd f23d a53e 13d7 353e
00000100: 5b64 d1bd cb98 e1bd 268e 033e 560d 3d3e
00000110: 1c7a 333e 21e2 2d3e fa99 883e 6384 a13d
00000120: 924c ac3e 1f1b 563e 1440 343e 1ec8 ae3d
00000130: a1c0 233e aa46 463e 6ced 30be 7208 99be
00000140: 166b ab3d 30d0 7ebe 2d97 993d deab 02be
00000150: c954 cd3c 743e bcbd a91c 26bd 8ed4 45bd
00000160: cf20 1cbe 38be 12be d249 16bd 8e0a 823d
00000170: 8534 9a3d f1b8 7dbe cec3 ebbd a228 2fbe
00000180: 81cb 9e3d cc88 88bd a73f 75bc f59e 2dbe
00000190: 9723 49bd daf9 803e 7c4e be3e 856b 97be
000001a0: 3671 16be 6a8e 763d c428 ac3b bb7b 0cbe
000001b0: 6ec8 08be b779 0dbc 4d1c a43d fdb6 84bd
000001c0: 966b 1cbf c23c 1cbb 374a 02be 3412 563d
000001d0: bd46 d3bd 05c6 113e ff78 c73e 92d9 52bd
000001e0: 2b7c 063e e4cb 803b c13e 9ebe c2d1 b03d
000001f0: 2b4d f8bd afa3 a3be 1140 cbbd 50d3 1ebc
00000200: 4249 00bc e27a 87be 0462 e83d 298a 1c3e
00000210: 6823 f23d 9201 433d 5b7f ff3d 1977 573e
00000220: 4151 23bd f914 1e3e 66ed 60be c54a f93c
00000230: 871d 85bd ee41 a83d caaa c3bd b895 5abe
00000240: 2076 693e d536 1dbd 8c7e c33d b968 8c3e
00000250: 8b35 503e 2361 423e 160e 24be 7732 f4bd
00000260: 8925 cc3d 5d73 55be 115e 613e 7407 763e
00000270: e7a3 ffbb c103 84be 5d00 553d 3883 b83c
00000280: 5114 a4bd 8258 55be 6734 bd3d 4195 823d
00000290: d923 793e ddec f03d a57e 46bd a4f3 503e
000002a0: 486f 70be c20a 783e 476c e0bc 6229 2bbe
000002b0: 0b58 f8bc 2ce0 85bc c8b2 b13c 2350 5abe
000002c0: fc6a 58bd 2f3c 2bbe c969 393d 673c 02be
000002d0: 46c5 153e 9707 71bd 78b5 a7bd 756f 50bd
000002e0: 6c72 51be 813b ce3c e019 babd 66be 27bd
000002f0: 3537 1ebd dac1 1c3e fa45 08bd 7e70 1ebe
00000300: 12c8 87bd 93e6 fbba f95a cfbd b57c 84bd
00000310: ebc6 84bd 5560 8dbd b988 3fbd f1ed 29bd
00000320: cc5b ab3e d5db 8c3e 9dec 39be 81f4 7d3d
00000330: 5906 babc 9d47 5f3d ce9b 1d3e 25e0 ecbd
00000340: 94ed d8bd f3f1 9c3e b502 ab3d 8aa9 5c3d
00000350: eed6 873d 028a 89bc 6be8 36be feb7 4c3d
00000360: 8dec 363e 798d 8abd 7954 92bd 1d7d 05be
00000370: 163a 8e3e 64b3 f2bd 48d8 6bbe 865a a5bd
00000380: e4aa 60be 4c45 21be 6348 4a3d cff6 6e3c
00000390: ade7 8abd 3902 1bbe 4ea5 053e d819 923d
000003a0: 05c3 a13b c038 0e3e 75a2 cd3d 6d36 f2bc
000003b0: ab70 553d ecf6 a03e 728f 86bc ffbf dabc
000003c0: a9d8 27be e4ba ab3d 316e 703c c1e4 863e
000003d0: b8ce 043e cb4a 453d e74c 98b9 efe8 833e
000003e0: f0a7 1dbe 6b5d c03c eda9 033e ff6e 0e3d
000003f0: 0168 86be 54e2 cf3d 38bd bc3c 1358 7ebd

encoder.4.bias f4 [128]
0.042704266 0.19953184 -0.34290648 0.33105704 0.14815536 0.008257994 -0.119565874 -0.12631498
-0.24723995 -0.37188455 -0.44943157 0.034051552 0.49196762 -0.26791456 -0.26515904 -0.033229336
-0.03575132 -0.45368645 -0.09217966 -0.49838546 0.16812962 -0.07950568 0.022613281 -0.21559791
-0.4413719 -0.052128885 0.06850016 0.46010873 -0.37412733 -0.17806506 -0.29701647 -0.34545732
0.22871011 -0.09861202 -0.3229082 -0.075451 0.11501065 0.4489291 0.1462198 0.5206072
-0.27451578 -0.006895144 -0.049432553 0.06721695 0.44271484 -0.18522571 -0.18778698 0.19186276
-0.4804304 0.48452368 -0.09606651 -0.16834249 -0.2953899 -0.37589675 -0.15621415 -0.37763953
0.09781472 -0.15061401 0.4940498 -0.15954919 -0.21163355 -0.19755663 0.13096903 0.33859256
0.5832404 0.33022192 0.5586892 -0.26014668 0.055198908 -0.40649533 -0.28020036 -0.14929031
-0.21902713 -0.17147268 -0.34849256 0.17328592 -0.29417372 -0.1589023 -0.16907701 0.09615286
0.50083596 0.22520411 -0.10544717 -0.34612966 0.36450374 0.038339503 -0.3773385 -0.37979397
-0.18135777 -0.19764374 -0.44815013 -0.29432368 0.43498462 0.2852431 -0.686723 -0.2722357
0.16400455 0.25491157 0.11034803 -0.2907457 -0.20761962 -0.31525707 0.12516212 0.011360225
0.054093342 -0.2675839 -0.162569 -0.43676275 -0.12900767 -0.19847466 -0.2038554 0.28045368
0.32750973 -0.023347031 0.03327488 -0.1460594 -0.274013 -0.42714232 -0.26422772 -0.23232938
-0.112336226 -0.111455396 -0.00059801526 -0.41626903 0.26033422 -0.12238426 -0.28739202 -0.21033074
00000000: abea 2e3d 1352 4c3e 7091 afbe 4f80 a93e
00000010: 0ab6 173e 8a4c 073c f4de f4bd b758 01be
00000020: 782c 7dbe a767 bebe e51b e6be a479 0b3d
00000030: 2ee3 fb3e 192c 89be edc2 87be 7c1b 08bd
00000040: fa6f 12bd 9749 e8be b1c8 bcbd 612c ffbe
00000050: 2c2a 2c3e e0d3 a2bd 7d3f b93c b3c5 5cbe
00000060: 7ffb e1be 1985 55bd d049 8c3d 5f93 eb3e
00000070: 9e8d bfbe b056 36be 8b12 98be c8df b0be
00000080: fc32 6a3e 19f5 c9bd 3954 a5be 0e86 9abd
00000090: b48a eb3d 09da e53e a5ba 153e 8346 053f
000000a0: 558d 8cbe a9f0 e1bb ca79 4abd 0aa9 893d
000000b0: 85ab e23e cfab 3dbe 3b4b 40be ac77 443e
000000c0: f9fa f5be 7d13 f83e 85be c4bd f961 2cbe
000000d0: 583d 97be 8a75 c0be 9af6 1fbe f859 c1be
000000e0: 1553 c83d 8f3a 1abe 18f4 fc3e dd60 23be
000000f0: 77b6 58be 494c 4abe bf1c 063e 015c ad3e
00000100: 3e4f 153f d912 a93e 4106 0f3f f231 85be
00000110: 4018 623d 2820 d0be 6c76 8fbe 8fdf 18be
00000120: a648 60be 8996 2fbe 9e6d b2be dd71 313e
00000130: f09d 96be 49b7 22be 8622 2dbe caeb c43d
00000140: c936 003f e89b 663e b0f4 d7bd e837 b1be
00000150: 3ca0 ba3e e209 1d3d 8332 c1be 5b74 c2be
00000160: dab5 39be 1f63 4abe ef73 e5be 98b1 96be
00000170: 4eb6 de3e 620b 923e 14cd 2fbf 7a62 8bbe
00000180: cff0 273e c583 823e 26fe e13d 9fdc 94be
00000190: 3d9a 54be 6069 a1be 802a 003e 3d20 3a3c
000001a0: fb90 5d3d c200 89be 7d78 26be 5e9f dfbe
000001b0: 961a 04be f13c 4bbe 78bf 50be a097 8f3e
000001c0: 5baf a73e 4642 bfbc 3e4b 083d 9890 15be
000001d0: 6f4b 8cbe 66b2 dabe db48 87be c1e7 6dbe
000001e0: 8910 e6bd ba42 e4bd 20c4 1cba 3721 d5be
000001f0: 874a 853e 99a4 fabd 0c25 93be f160 57be

encoder.6.weight f4 [256, 128]
-0.042175062 0.30387563 0.08114876 0.08833022 -0.106870815 0.003037073 -0.13142292 0.12596358
-0.015028039 -0.11330101 0.095033705 0.110158205 0.03237562 0.06244803 -0.3607403 -0.0003438708
-0.1368821 -0.1819486 0.17794137 -0.1701202 0.07295119 0.03322488 0.0004758109 -0.044824973
0.12615938 0.011832308 0.07700071 -0.06445331 -0.048096813 -0.056830272 -0.33814493 -0.19291344
0.08399907 0.004762957 0.09060922 -0.04358052 -0.08474425 0.11682067 0.0477472 0.055081032
-0.08474778 -0.027800832 -0.166316 -0.04910028 -0.092994325 -0.0007505023 0.1415056 0.25695518
-0.23275998 0.09642156 -0.24803235 0.13077329 -0.19197299 0.09054918 -0.051780604 0.047854558
-0.037538026 0.16386934 0.10269427 0.12880951 0.11152207 -0.023634378 -0.07892419 0.09556806
0.09690438 -0.014071332 0.20150201 0.09729173 -0.076356664 -0.01573037 -0.090006575 -0.0122085605
-0.22942887 -0.041507185 0.071772866 0.008085528 -0.13550717 -0.007969446 -0.024548987 0.04303227
-0.018316986 -0.18511222 0.028054623 -0.0018422899 -0.0753769 0.032051537 -0.34919 0.053434405
-0.19079113 0.1055592 0.23483056 -0.021576278 0.0014847782 -0.21539919 -0.31160998 -0.19686797
-0.058918495 0.09585257 0.026590543 0.035494108 0.07955783 0.15614137 0.2791574 -0.03546677
0.039742667 -0.14655964 -0.04656927 0.04593163 -0.16555409 0.074957326 -0.094372846 0.0032833458
0.022289291 -0.18112785 -0.02557009 -0.22881013 -0.14278325 -0.024545098 -0.07546504 0.05033028
-0.08016424 0.056603163 -0.17183502 0.20523547 -0.13597088 -0.09454525 -0.04214097 -0.1515115
0.05377475 0.20153788 -0.18550985 0.020855518 0.18293352 -0.23047985 -0.12053648 0.23635484
-0.24813402 -0.064126365 0.12923656 0.011469134 -0.084399976 0.12290453 -0.14993428 -0.057896186
-0.011979445 0.18285817 0.24636641 0.026021762 0.19601938 0.26177153 0.035751157 -0.12106485
0.041232053 0.10770404 0.042167746 -0.10995953 -0.0046029263 -0.08775322 -0.1512142 -0.04722947
-0.17632651 -0.14511685 -0.19941804 0.013267561 0.08556885 0.04292816 0.005702928 -0.018651787
-0.05195387 0.119309746 -0.06146654 -0.08268929 -0.20400637 -0.07971616 0.04062139 0.15200071
0.0521906 -0.014972688 0.040858842 0.07508845 0.17242223 0.2524838 0.022065183 -0.03291252
0.11749678 0.030950835 -0.09933905 -0.23936945 -0.21035762 -0.15273304 0.05126057 -0.07373152
-0.29721043 -0.14400789 0.009288181 -0.01114241 -0.12624215 -0.016932167 0.017150203 0.0055988706
0.16760513 -0.020302396 -0.07748582 -0.1815155 -0.16056702 -0.20913374 -0.08860533 0.08730484
0.083516166 0.10924134 -0.29592246 -0.07906829 -0.06016928 0.12114862 -0.093527064 0.090135515
0.017385365 -0.10465664 0.47309107 0.091770604 0.12110145 -0.15717746 0.35430327 0.15984452
-0.010731953 -0.1397675 -0.17364617 -0.0656371 -0.18747362 0.27247247 0.09731313 0.019055972
0.17801699 -0.056081694 0.017676726 -0.30777177 -0.07339817 0.23685955 -0.03783243 0.055997044
-0.10459597 -0.09164438 0.047171682 0.038064037 0.06750655 0.1936194 -0.091634445 -0.13619901
-0.028993761 -0.16229197 0.05021942 0.09292057 -0.07528728 -0.07091109 0.15596394 -0.16588256
00000000: c2bf 2cbd 9695 9b3e 5231 a63d 79e6 b43d
00000010: 16df dabd a109 473b bb93 06be 99fc 003e
00000020: 2a38 76bc 5c0a e8bd 08a1 c23d a09a e13d
00000030: 4c9c 043d 81c9 7f3d f4b2 b8be 8f49 b4b9
00000040: d22a 0cbe bc50 3abe 4336 363e fd33 2ebe
00000050: 6f67 953d d016 083d 4276 f939 649a 37bd
00000060: ed2f 013e 4cdc 413c 8cb2 9d3d 1900 84bd
00000070: 2a01 45bd dcc6 68bd 5521 adbe 1a8b 45be
00000080: b407 ac3d 9412 9c3b 5491 b93d 7d81 32bd
00000090: 658e adbd ad3f ef3d 9192 433d a69c 613d
000000a0: 3e90 adbd 92be e3bc be4e 2abe 601d 49bd
000000b0: cf73 bebd 5bbd 44ba d8e6 103e a18f 833e
000000c0: a258 6ebe ab78 c53d 31fc 7dbe 6fe9 053e
000000d0: 9194 44be d971 b93d e617 54bd 2403 443d
000000e0: 79c1 19bd 5dcd 273e 6051 d23d a4e6 033e
000000f0: af65 e43d e29c c1bc 01a3 a1bd 30b9 c33d
00000100: ce75 c63d 728b 66bc 8b56 4e3e e340 c73d
00000110: e260 9cbd fadc 80bc 5e55 b8bd 6a06 48bc
00000120: 67ef 6abe 7003 2abd a7fd 923d 2a79 043c
00000130: 64c2 0abe 4792 02bc f51a c9bc 9b42 303d
00000140: 810d 96bc 0f8e 3dbe cfd2 e53c fe78 f1ba
00000150: 345f 9abd 7948 033d 08c9 b2be 09de 5a3d
00000160: c05e 43be 6c2f d83d 6c77 703e bcc0 b0bc
00000170: e49c c23a 9b91 5cbe 588b 9fbe c297 49be
00000180: 8554 71bd 5a4e c43d 69d4 d93c 4562 113d
00000190: 37ef a23d 86e3 1f3e b8ed 8e3e 9b45 11bd
000001a0: 35c9 223d bb13 16be 6bbf 3ebd ce22 3c3d
000001b0: 0387 29be 3a83 993d 8d46 c1bd 672d 573b
000001c0: 0898 b63c 9479 39be 5e78 d1bc 344d 6abe
000001d0: c635 12be cd12 c9bc 6a8d 9abd 2027 4e3d
000001e0: 262d a4bd b8d8 673d 85f5 2fbe 3f29 523e
000001f0: f33b 0bbe f1a0 c1bd 029c 2cbd d525 1bbe
00000200: ea42 5c3d f25f 4e3e 4bf6 3dbe 31d9 aa3c
00000210: ed52 3b3e e902 6cbe d4db f6bd 0107 723e
00000220: d816 7ebe af54 83bd 9756 043e 09e9 3b3c
00000230: e5d9 acbd 5fb5 fb3d 5f88 19be 8d24 6dbd
00000240: 6f45 44bc 2c3f 3b3e 7a47 7c3e 972b d53c
00000250: 4eb9 483e eb06 863e ce6f 123d d9f0 f7bd
00000260: f1e2 283d f093 dc3d 16b8 2c3d 7632 e1bd
00000270: 25d4 96bb f6b7 b3bd e5d7 1abe b073 41bd
00000280: f08e 34be 8399 14be 3e34 4cbe 2f60 593c
00000290: b93e af3d 70d5 2f3d a1df ba3b a2cb 98bc
000002a0: 95cd 54bd ab58 f43d 57c4 7bbd 0159 a9bd
000002b0: 0ce7 50be 3a42 a3bd 9d62 263d 13a6 1b3e
000002c0: d0c5 553d 0150 75bc 9a5b 273d f9c7 993d
000002d0: 748f 303e 8e45 813e 0bc2 b43c 47cf 06bd
000002e0: 27a2 f03d 9b8c fd3c 4672 cbbd 441d 75be
000002f0: fd67 57be 0d66 1cbe 9af6 513d 8d00 97bd
00000300: f72b 98be ce76 13be 742d 183c a88e 36bc
00000310: 9f45 01be 54b5 8abc 957e 8c3c bb76 b73b
00000320: aea0 2b3e 3651 a6bc e3b0 9ebd 33df 39be
00000330: ae6b 24be 2827 56be b676 b5bd e1cc b23d
00000340: 860a ab3d ecb9 df3d 2683 97be 8eee a1bd
00000350: 1074 76bd c51c f83d 1e8b bfbd f898 b83d
00000360: c16b 8e3c 3856 d6bd fe38 f23e 3af2 bb3d
00000370: 0904 f83d 21f3 20be 3d67 b53e 48ae 233e
00000380: 13d5 2fbc 361f 0fbe 4dd0 31be be6c 86bd
00000390: 16f9 3fbe 8381 8b3e 1b4c c73d 451b 9c3c
000003a0: 164a 363e ebb5 65bd c8ce 903c 4394 9dbe
000003b0: c851 96bd 4f8b 723e 2ef6 1abd 285d 653d
000003c0: 6936 d6bd 0cb0 bbbd 1837 413d 09e9 1b3d
000003d0: e040 8a3d 2a44 463e d7aa bbbd c177 0bbe
000003e0: 5384 edbc de2f 26be e1b2 4d3d 244d be3d
000003f0: 3830 9abd d539 91bd 03b5 1f3e 1edd 29be

encoder.6.bias f4 [256]
0.11021547 -0.106404826 0.4286729 0.25752407 0.10628052 -0.37443274 0.20091227 -0.43021566
-0.35396278 -0.3073816 -0.16942443 0.18394227 -0.047094032 -0.22569971 0.011363025 -0.16466038
-0.25144944 0.15198816 -0.39858735 -0.023799319 -0.057901774 0.12458138 -0.21656916 -0.20305072
-0.18234886 0.13544583 0.077706814 -0.011282793 -0.14770797 -0.10381757 -0.2124166 0.107470214
-0.39616746 0.08398854 -0.29416075 -0.3556212 0.41634652 0.2884362 -0.38263005 -0.10042456
-0.07514785 -0.012283111 0.24659851 -0.03353332 -0.14139602 -0.2508886 0.2864842 0.08453755
-0.25233194 0.066530526 0.057076957 -0.11511704 -0.27314004 -0.24584581 -0.26459384 0.12151411
-0.24669467 0.29510984 -0.11447277 -0.12802286 0.13805357 -0.08968866 -0.1774445 -0.14207901
-0.077055894 -0.09987574 0.2463986 0.04391079 0.33794388 0.0031169758 0.18186925 -0.4518738
-0.123697646 -0.2030613 0.14927165 -0.27528137 0.144155 -0.112785324 0.0011557114 0.20037371
-0.26838985 -0.07057453 -0.09460374 -0.1003962 -0.16305593 -0.100083895 -0.08415267 0.07684138
-0.20270768 -0.30533597 -0.06284976 0.011111067 -0.19799362 -0.4127549 0.12501912 0.062258635
-0.28058517 -0.2942944 -0.10796449 -0.09207194 -0.5227111 -0.004041685 0.31827626 -0.2249297
0.05523503 -0.40299067 -0.00025610006 -0.10339425 0.111392215 0.052040197 -0.14190376 0.23993246
-0.13356617 0.028851092 0.12976554 -0.026441261 -0.12386004 -0.10283899 -0.40159816 -0.0758806
-0.42464852 -0.20959663 -0.029932233 -0.103227995 -0.29523516 0.050096847 -0.26225075 -0.49391848
-0.068999924 0.12088242 0.20012671 -0.09916418 0.22700892 0.1998051 -0.034667715 -0.11787775
-0.17511192 -0.51709473 0.23384646 0.28466353 -0.45118344 -0.20367794 -0.13677958 -0.28348878
0.040105492 0.0076236804 -0.20789911 -0.15661581 0.20000324 -0.2267712 -0.39699066 -0.20672327
-0.022319928 -0.064673565 -0.19882423 0.0017664377 -0.37972727 0.053799484 0.048841726 -0.25768152
-0.3450227 0.018879015 -0.29520443 -0.45939815 -0.14286375 0.0018178998 0.039398894 -0.012261517
-0.31998938 0.12920722 -0.32984957 -0.37961012 0.018388843 0.0018151553 0.060934305 -0.08296021
-0.36668453 0.19302192 -0.083028294 -0.014723972 0.008528564 -0.49135444 0.19037487 -0.0496772
-0.24640566 -0.35930502 0.039374467 0.122691646 0.13339764 -0.19581258 0.352562 0.2371686
-0.16179767 -0.37543318 -0.10251908 0.103175946 -0.09707853 -0.16527323 -0.007962014 0.14876293
-0.5023244 -0.24767013 0.023140827 -0.29458526 -0.3661936 -0.03103725 -0.1679356 0.123371735
-0.19740964 -0.033261225 -0.09584965 -0.17725779 -0.14192168 -0.027788384 -0.23136038 -0.5251125
0.028330516 0.08844966 -0.15625598 -0.13245815 -0.19443268 -0.19109288 -0.18143407 -0.44144547
0.26399538 -0.2746476 0.08917795 -0.06344882 -0.22541592 -0.07787584 0.14121369 -0.040343367
-0.076112255 0.03834703 0.17420004 -0.38464755 -0.3089244 -0.47378275 -0.15667553 -0.08049282
-0.11621356 -0.091759995 -0.3018371 -0.13383219 0.026516194 -0.33608317 0.2082355 -0.4620788
-0.17934762 -0.3481704 -0.26076376 -0.46411 -0.18140237 -0.21967117 0.255137 0.2813328
00000000: a6b8 e13d c6ea d9bd 047b db3e 32da 833e
00000010: 9aa9 d93d a6b5 bfbe f2bb 4d3e 3a45 dcbe
00000020: 9c3a b5be 1f61 9dbe 997d 2dbe 5d5b 3c3e
00000030: ace5 40bd d31d 67be fb2b 3a3c bb9c 28be
00000040: fbbd 80be c9a2 1b3e a413 ccbe caf6 c2bc
00000050: 692a 6dbd 8624 ff3d 4ec4 5dbe 87ec 4fbe
00000060: a9b9 3abe 50b2 0a3e c024 9f3d 77db 38bc
00000070: c240 17be 4e9e d4bd bd83 59be 5819 dc3d
00000080: 76d6 cabe 2f02 ac3d 3d9c 96be fb13 b6be
00000090: 5f2b d53e e9ad 933e 16e8 c3be 64ab cdbd
000000a0: 1ee7 99bd 1a3f 49bc 5284 7c3e 3c5a 09bd
000000b0: 1eca 10be 7874 80be 0fae 923e 0622 ad3d
000000c0: a731 81be 2841 883d 87c9 693d 7cc2 ebbd
000000d0: 03d9 8bbe 01bf 7bbe d878 87be 64dc f83d
000000e0: 879d 7cbe a318 973e b370 eabd 6d18 03be
000000f0: ea5d 0d3e b0ae b7bd 03b4 35be 297d 11be
00000100: 7bcf 9dbd a78b ccbd ea4f 7c3e cddb 333d
00000110: fb06 ad3e 2d46 4c3b ef3b 3a3e 015c e7be
00000120: 3155 fdbd 4def 4fbe abda 183e aef1 8cbe
00000130: 5e9d 133e fefb e6bd 3d7b 973a c42e 4d3e
00000140: 656a 89be 6189 90bd 9bbf c1bd 869c cdbd
00000150: 22f8 26be c9f8 ccbd 3c58 acbd 035f 9d3d
00000160: 9a92 4fbe ff54 9cbe 60b7 80bd 310b 363c
00000170: d7be 4abe 9c54 d3be 0305 003e e902 7f3d
00000180: dca8 8fbe c1ad 96be 7d1c ddbd 3790 bcbd
00000190: 65d0 05bf 1c70 84bb 1bf5 a23e f953 66be
000001a0: 203e 623d cb54 cebe 2b45 86b9 5dc0 d3bd
000001b0: 9a21 e43d 1a28 553d 384f 11be dbb0 753e
000001c0: 92c5 08be 2059 ec3c 42e1 043e 589b d8bc
000001d0: 55aa fdbd 409d d2bd 469e cdbe 4a67 9bbd
000001e0: 886b d9be 80a0 56be 7134 f5bc 3369 d3bd
000001f0: 1029 97be 5a32 4d3d bb45 86be e2e2 fcbe
00000200: d54f 8dbd 3491 f73d 04ee 4c3e 9716 cbbd
00000210: 0775 683e b599 4c3e bcff 0dbd e469 f1bd
00000220: 8a50 33be 5260 04bf 7275 6f3e 6bbf 913e
00000230: 8401 e7be f390 50be f20f 0cbe 7125 91be
00000240: a845 243d 11d0 f93b 81e3 54be e55f 20be
00000250: a6cd 4c3e b636 68be 5c42 cbbe 44af 53be
00000260: 48d8 b6bc 9373 84bd 9498 4bbe d087 e73a
00000270: 9d6b c2be d95c 5c3d 430e 483d d5ee 83be
00000280: d1a6 b0be 2aa8 9a3c 0925 97be 3c36 ebbe
00000290: e04a 12be 9846 ee3a bc60 213d 88e4 48bc
000002a0: a6d5 a3be e64e 043e 0be2 a8be 425c c2be
000002b0: 33a4 963c 81ea ed3a 4096 793d 0be7 a9bd
000002c0: 13be bbbe 8aa7 453e bd0a aabd d13c 71bc
000002d0: 64bb 0b3c cf92 fbbe a1f1 423e 527a 4bbd
000002e0: c451 7cbe d4f6 b7be 1f47 213d c245 fb3d
000002f0: 6499 083e 1883 48be 0283 b43e 53dc 723e
00000300: 4aae 25be c738 c0be 86f5 d1bd e94d d33d
00000310: 1cd1 c6bd 633d 29be 1b73 02bc 4f55 183e
00000320: 5598 00bf 3d9d 7dbe d591 bd3c e1d3 96be
00000330: ba7d bbbe d541 febc 4ff7 2bbe 52aa fc3d
00000340: c125 4abe ec3c 08bd d24c c4bd 1183 35be
00000350: eb53 11be 77a4 e3bc bce9 6cbe c66d 06bf
00000360: 6615 e83c 1825 b53d 9101 20be 1ca3 07be
00000370: 5c19 47be daad 43be dac9 39be 2405 e2be
00000380: 672a 873e 9c9e 8cbe eea2 b63d 74f1 81bd
00000390: 6ed3 66be 5e7d 9fbd 529a 103e 163f 25bd
000003a0: bee0 9bbd c611 1d3d 7f61 323e 86f0 c4be
000003b0: 572b 9ebe a793 f2be 8d6f 20be 6bd9 a4bd
000003c0: 6001 eebd aaec bbbd 648a 9abe 4e0b 09be
000003d0: 7d38 d93c 1813 acbe b03b 553e 9895 ecbe
000003e0: e7a6 37be 6443 b2be d482 85be d39f edbe
000003f0: 8bc1 39be 7bf1 60be 51a1 823e da0a 903e

decoder.0.weight f4 [128, 256]
-0.16769946 0.035432346 -0.004400704 0.02184169 0.13825119 -0.02422031 0.08149099 -0.011398807
0.062415283 -0.06525949 -0.008455109 -0.041122776 0.043954406 -0.019370994 -0.051790174 -0.08714751
-0.12021722 0.13139574 0.04374841 0.029797627 0.06334936 0.043967355 -0.044077244 0.033350423
-0.019289562 -0.09586882 0.035262845 -0.023587834 -0.11961905 0.04221179 -0.087829396 -0.07654644
0.048870943 -0.021468323 -0.019322658 0.0066232397 -0.09540064 -0.032563105 0.04512903 -0.1070577
-0.14650191 -0.12667426 -0.04256583 -0.08877186 0.028155372 0.122330524 -0.066624165 -0.015163708
0.018586233 0.013645103 0.11660762 0.010283967 -0.11720032 0.0016786997 0.0010362318 0.20313708
0.0074591497 0.10780386 -0.060333397 -0.051712714 -0.022453228 -0.055410944 -0.011960085 -0.0040908335
0.060312334 -0.014229002 -0.0023522873 0.0404269 -0.115953736 0.025200618 -0.0025480979 0.06892357
0.051965013 -0.017244998 -0.039093237 0.024515457 0.120512635 0.00019785808 0.08371688 0.10874982
-0.05304781 0.03843312 0.15395468 0.044540327 -0.08508219 -0.043649744 0.015879806 0.040934317
-0.042611472 -0.0654788 0.030009627 -0.24477282 0.071409635 -0.061772846 0.046284027 0.046889585
-0.018188274 0.06359514 0.043120805 0.25957844 -0.09327422 -0.040478963 0.00019553608 -0.10213298
-0.055922862 0.046463408 -0.013223821 -0.011393834 -0.0676851 0.03715751 0.017315036 0.036470305
-0.06923539 -0.004150258 0.02728918 0.06792467 0.0965746 -0.053443998 -0.04134779 -0.042803973
0.00336869 0.098524794 0.020745743 -0.025533315 -0.02572419 -0.0108809285 -0.07741225 -0.07045973
0.001901845 -0.13763174 0.10426578 0.07126347 0.04605267 0.0060642553 0.03925389 -0.0186005
0.038342204 0.034057293 0.020690551 -0.04599009 -0.0008745225 0.07218239 -0.053874407 -0.05703551
-0.0872845 -0.3412361 0.07111149 0.087476894 0.07630266 0.052555952 0.0040844637 0.064418785
0.047726396 -0.022817116 0.0873663 -0.03552734 0.07747807 0.14493369 0.022621987 -0.07004793
-0.11194606 -0.006068544 -0.113630176 0.03498782 0.0855965 0.036704693 -0.02177855 -0.023218641
-0.0535809 -0.0079389205 0.009098053 -0.025738155 -0.06939017 0.07897178 0.07809007 0.010474809
-0.017339323 -0.11882855 -0.039344028 0.14747055 0.040237807 0.02838248 -0.17994554 0.055491213
-0.02467561 -0.1033103 0.050876126 -0.12974522 -0.022730207 -0.024069916 -0.0382902 0.07565717
0.03600213 0.08302124 -0.13498911 0.015505114 -0.12062969 -0.026285825 0.08977465 0.11429071
0.11675428 0.0028313322 -0.009405019 0.06557771 0.026834857 -0.033903606 0.005049379 -0.028477235
0.017496197 -0.0027391603 0.14945592 0.024587097 0.024489472 0.054168887 -0.01488353 -0.017786885
-0.09670597 0.08734059 0.08630466 0.0034935942 -0.07433195 -0.016796293 -0.1250854 0.14237888
-0.054221783 -0.04137068 0.11412466 0.043281354 0.049039364 0.017015412 -0.117729194 -0.00494864
-0.06828672 0.009845314 0.018358728 0.08127152 -0.020993639 0.1269251 0.14524435 -0.23231548
0.014579686 -0.043079868 0.050020818 -0.07788112 -0.0014802676 0.11164451 -0.007110536 0.00750145
-0.07661509 0.05728338 -0.009618173 -0.020792313 -0.20777199 0.053025283 -0.054219346 -0.010726535
00000000: 68b9 2bbe 8221 113d c833 90bb 58ed b23c
00000010: b891 0d3e ac69 c6bc c0e4 a63d 10c2 3abc
00000020: 2ba7 7f3d c4a6 85bd 4c87 0abc 5b70 28bd
00000030: 8909 343d ebaf 9ebc ef21 54bd 657a b2bd
00000040: 7234 f6bd 9b8c 063e 8831 333d 271a f43c
00000050: 4fbd 813d 1d17 343d 578a 34bd 749a 083d
00000060: 2505 9ebc df56 c4bd c66f 103d 463b c1bc
00000070: d5fa f4bd 45e6 2c3d e6df b3bd 61c4 9cbd
00000080: e62c 483d 56de afbc 8d4a 9ebc c307 d93b
00000090: 6961 c3bd e460 05bd 38d9 383d 1141 dbbd
000000a0: 9904 16be e6b6 01be 8259 2ebd 05ce b5bd
000000b0: 18a6 e63c 6d88 fa3d 4072 88bd 3371 78bc
000000c0: 2842 983c b68f 5f3c facf ee3d 157e 283c
000000d0: b906 f0bd d107 dc3a 2bd2 873a 2b03 503e
000000e0: e26b f43b 45c8 dc3d 2720 77bd b6d0 53bd
000000f0: d5ef b7bc 96f6 62bd 3bf4 43bc 660c 86bb
00000100: 110a 773d c320 69bc d528 1abb ad96 253d
00000110: 2779 edbd 8771 ce3c fdfd 26bb cd27 8d3d
00000120: 44d9 543d 6245 8dbc 3b20 20bd a4d4 c83c
00000130: 54cf f63d 2078 4f39 c173 ab3d 3ab8 de3d
00000140: a948 59bd 0c6c 1d3d 4ca6 1d3e eb6f 363d
00000150: 923f aebd 13ca 32bd 5e16 823c beaa 273d
00000160: 5e89 2ebd c019 86bd c0d6 f53c baa5 7abe
00000170: 373f 923d 8605 7dbd 5294 3d3d 4b0f 403d
00000180: 93ff 94bc 2b3e 823d 719f 303d 77e7 843e
00000190: 8e06 bfbd 45cd 25bd d108 4d39 192b d1bd
000001a0: 5f0f 65bd 6a50 3e3d baa8 58bc 34ad 3abc
000001b0: 7c9e 8abd 7932 183d 43d8 8d3c e361 153d
000001c0: 49cb 8dbd e3fe 87bb 8f8d df3c 171c 8b3d
000001d0: e7c8 c53d 18e8 5abd 4d5c 29bd 3853 2fbd
000001e0: 3dc5 5c3b 5ec7 c93d faf2 a93c 3e2b d1bc
000001f0: 89bb d2bc ec45 32bc 508a 9ebd 314d 90bd
00000200: 5447 f93a 56ef 0cbe 4c89 d53d 95f2 913d
00000210: b9a1 3c3d a9b6 c63b b0c8 203d 1360 98bc
00000220: b70c 1d3d a97f 0b3d 3b7f a93c 1b60 3cbd
00000230: 3640 65ba 5cd4 933d 69ab 5cbd 119e 69bd
00000240: 37c2 b2bd 80b6 aebe e7a2 913d 1627 b33d
00000250: 9244 9c3d e944 573d f7d6 853b ffed 833d
00000260: c17c 433d f6ea babc 1aed b23d 1e85 11bd
00000270: d3ac 9e3d 7f69 143e bf51 b93c 4a75 8fbd
00000280: fa43 e5bd a3da c6bb f0b6 e8bd 634f 0f3d
00000290: 384d af3d a957 163d ee68 b2bc 0535 bebc
000002a0: a577 5bbd 3f12 02bc 0010 153c d3d8 d2bc
000002b0: 6f1c 8ebd f5bb a13d b0ed 9f3d 899e 2b3c
000002c0: 320b 8ebc 625c f3bd 3427 21bd 8502 173e
000002d0: 66d0 243d 6082 e83c a543 38be c14a 633d
000002e0: 8124 cabc 5a94 d3bd 7c63 503d eedb 04be
000002f0: b334 babc 462e c5bc 2fd6 1cbd 25f2 9a3d
00000300: f876 133d 0a07 aa3d 963a 0abe 2909 7e3c
00000310: b30c f7bd 5f55 d7bc c6db b73d 3f11 ea3d
00000320: de1c ef3d df8d 393b 8217 1abc 9b4d 863d
00000330: c6d4 db3c 82de 0abd 4375 a53b 1749 e9bc
00000340: 2f54 8f3c 7c83 33bb f90a 193e e16a c93c
00000350: 259e c83c 32e0 5d3d 0dda 73bc cdb5 91bc
00000360: c80d c6bd a0df b23d 7fc0 b03d c9f4 643b
00000370: 593b 98bd 6198 89bc 6316 00be c5cb 113e
00000380: a917 5ebd 4d74 29bd 31ba e93d ca47 313d
00000390: 80dd 483d e863 8b3c 011c f1bd 3328 a2bb
000003a0: e8d9 8bbd 3d4e 213c 0b65 963c af71 a63d
000003b0: dafa abbc a7f8 013e efba 143e 1ce4 6dbe
000003c0: a3df 6e3c 8474 30bd a1e2 4c3d 2380 9fbd
000003d0: 8a05 c2ba e0a5 e43d 80ff e8bb b9ce f53b
000003e0: 5fe8 9cbd faa1 6a3d 8b95 1dbc a454 aabc
000003f0: 2ec2 54be 0a31 593d 1b15 5ebd 59be 2fbc

decoder.0.bias f4 [128]
0.021305349 0.029347172 0.044731114 0.013160179 -0.032665692 -0.0040311213 -0.013386271 0.019129124
0.06051705 0.00037809642 -0.045848563 0.05364263 -0.033232246 0.044742808 0.068287246 0.005271014
0.042935472 -0.025261551 -0.026237123 0.07034571 0.039640643 -0.032030407 -0.01827877 -0.017046465
0.033912238 -0.012380504 0.05396868 -0.032603547 0.02580906 -0.0017490253 0.031249722 -0.043148864
0.005148723 0.0048143035 0.06627921 0.016530147 -0.033502143 -0.047222223 0.044123523 0.03746695
-0.023252252 -0.012712514 0.0026338594 0.007025576 0.03992385 0.026342679 0.109623045 -0.010880286
-0.024469148 0.008468566 0.030783588 0.02756953 0.05135081 -0.011783116 -0.017768325 -0.03127697
0.024192624 0.03768674 -0.023277508 0.0029472238 0.05046983 -0.048337087 0.038170535 0.019513402
0.00605619 -0.00030904298 0.044888806 0.033875473 0.02499318 -0.016280787 -0.045769624 0.037418827
-0.009017589 -0.0025420235 0.09075616 0.041915093 -0.026381873 0.052338865 -0.058879048 0.006520012
-0.025968287 -0.02464283 0.01137002 -0.022337738 0.024129726 -0.010111021 -0.013793249 -0.041598484
-0.011421829 -0.018875811 -0.0029037404 0.07420838 -0.0050563486 0.0047552395 0.012237097 0.016473709
0.04057559 -0.018334765 0.056412164 0.010399003 -0.021808468 -0.035413373 0.08386858 0.0659239
0.025609508 -0.010133491 0.024824092 0.0018559245 -0.0395241 -0.0043796245 -0.0024341615 0.0029440064
-0.026842946 -0.0045856796 0.017585669 0.045836996 0.023217473 0.0011628731 0.025721455 0.017738933
-0.028316027 0.036147982 0.042797245 0.058282554 0.03175711 -0.021819131 -0.023813235 -0.053194277
00000000: 8e88 ae3c 7b69 f03c f937 373d cb9d 573c
00000010: 76cc 05bd 7f17 84bb 1752 5bbc aeb4 9c3c
00000020: bae0 773d 3e3b c639 b4cb 3bbd 60b8 5b3d
00000030: 891e 08bd 3c44 373d 2fda 8b3d 78b8 ac3b
00000040: 1bdd 2f3d 50f1 cebc 3cef d6bc 6911 903d
00000050: 3a5e 223d 5132 03bd 5cbd 95bc 07a5 8bbc
00000060: 8fe7 0a3d 99d7 4abc 430e 5d3d 4c8b 05bd
00000070: 866d d33c 8d3f e5ba 6bff ff3c ddbc 30bd
00000080: 9eb6 a83b 4ec1 9d3b 65bd 873d 3b6a 873c
00000090: 8b39 09bd 176c 41bd deba 343d f276 193d
000000a0: 827b bebc 2648 50bc d49c 2c3b ce36 e63b
000000b0: 3187 233d 9acc d73c 0c82 e03d 3a43 32bc
000000c0: 8673 c8bc bebf 0a3c dd2d fc3c 7fd9 e13c
000000d0: 3a55 523d f80d 41bc e18e 91bc 481c 00bd
000000e0: 9c2f c63c 695d 1a3d 79b0 bebc 3626 413b
000000f0: 74b9 4e3d 1cfd 45bd b558 1c3d 92da 9f3c
00000100: 0173 c63b 0c07 a2b9 53dd 373d 02c1 0a3d
00000110: 7fbe cc3c 495f 85bc ee78 3bbd 7c44 193d
00000120: 82be 13bc 1498 26bb 5ede b93d 29af 2b3d
00000130: cc1e d8bc 4761 563d 282b 71bd d3a5 d53b
00000140: 72bb d4bc c3df c9bc 5249 3a3c a2fd b6bc
00000150: b4ab c53c b2a8 25bc 14fd 61bc 2c63 2abd
00000160: a022 3bbc 72a1 9abc ae4c 3ebb 90fa 973d
00000170: baaf a5bb d7d1 9b3b 1b7e 483c dff3 863c
00000180: 9732 263d ca32 96bc 7110 673d 9460 2a3c
00000190: aca7 b2bc 9d0d 11bd 4ac3 ab3d 1c03 873d
000001a0: 08cb d13c f106 26bc e55b cb3c 7e42 f33a
000001b0: 06e4 21bd f482 8fbb 7486 1fbb 3bf0 403b
000001c0: bde5 dbbc 7843 96bb d20f 903c 93bf 3b3d
000001d0: 9232 be3c 8c6b 983a cdb5 d23c 3d51 913c
000001e0: 03f7 e7bc e80f 143d 2a4c 2f3d b0b9 6e3d
000001f0: be13 023d 09be b2bc f913 c3bc 3ee2 59bd
