Project testing/models/world_modeloldDyn.pth (torch, 692869 bytes, 36 tensors)

gru.weight_ih_l0 f4 [192, 197]
00000000: 0322 8f3d c414 eb3d 619f 543d 8626 93bd
00000010: 3bb7 af3c 0e7f b33d f44c 0c3d 46a9 33bd
00000020: b3be a8bd b785 f23c ad7f b8bd 3e5c b9bd
00000030: 83fc c6bd bc57 e23d c23c 3e3d 8737 613d
00000040: a01a b83c 7f3a b8bd eae2 87bd b37a 5e3d
00000050: 0fd8 9d3d c372 69b9 9941 64bd e2e0 98bd
00000060: 6b7f cbbd fd9e f2bd 1567 f6bc abcf 1fbd
00000070: 6b4a a63d 9579 763c be0c c5bd 4a61 af3d
00000080: 91da 30bd 3712 f3bd bc96 fd3d 8f0a 72bd
00000090: 0cec 04bd c32b 43bd 3f68 f9bc 1e6c e7bd
000000a0: 14c4 bf3d bd3e bdbc e7c5 bd3d 204b 57bd
000000b0: 0d08 98bd 8267 b73d b6c5 453d de7b 693d
000000c0: c140 203d 0664 e6bd 55d4 3c3d b08d 50bc
000000d0: 70d5 023d f423 e4bd ce47 b8bd 2ec8 c4bd
000000e0: cab9 abbd 3dba 57bd 0e41 43bd 2d59 d2bc
000000f0: fe0d 633d 3b87 fa3d 976e adbb 25e7 0ebe
00000100: d17a 133d a934 8bbd 5245 edbc ee5d 2f3d
00000110: 5414 8c3b e548 fa3d 1ac2 ddbd eeed fbbc
00000120: 97c1 8d3d fb82 c4bd c84d f43d 4419 edbd
00000130: 8a74 cbbd dd46 cc3d 63e8 48bd 6f31 fbbc
00000140: 696f c23d 8fe3 87bd 0a86 76bb e619 adbd
00000150: 2400 f0bd c734 55bd ee75 9bbd f308 893c
00000160: c24a 40bc 6ac0 af3c affd f4bd e9fe 83bd
00000170: 7f97 78bd f4ab 08bd 1a16 dbbd e348 71bd
00000180: 5ec6 98bd 725c c93d 195b 05be fda6 fcbd
00000190: 33e6 c8bc 94be 2c3c 5eb9 91bd 22b8 98bd
000001a0: 9110 333d 2a53 b1bb c288 d93d 168f c8bc
000001b0: e960 32bd 4cf9 a83d 2580 81bd bd4e a73d
000001c0: 6443 04bd b528 f2bd 0341 7a3d 9fc3 cabd
000001d0: fcc3 7ebc 92fe 213c 7ee1 4fbd 5200 b1bd
000001e0: 6ad7 32bd d9b3 b43b eead b03d 96ac 4b3d
000001f0: 07c2 c73b a234 8ebb 5ec3 44bd f2ce 7bbd
00000200: 11b6 09bd fec0 f73b 0726 48bd 6360 f73d
00000210: 43e3 003d 4b5f 583d caf9 cebc d63c 2e3d
00000220: e591 ac3d c94b b83c 2656 d4bd 1745 e63c
00000230: aa8b 553b eb0a ba3d cc24 cebd 493a 533d
00000240: b2d2 513d 25b0 c93d 6455 033d ca42 1a3d
00000250: 4232 d1bd 3c9e 9a3d 4270 05bd 21fc 01bd
00000260: da48 3d3d 71d4 92bd 2de0 94bd 2c8c 9d3d
00000270: 175f 41bd e163 9bbd 81d8 45bd b935 943c
00000280: edc9 c83c 435f e8bc 9c82 dcbc f8dd 97bd
00000290: 983a 7c3d b9f6 933c e434 8fbd 3abf c53d
000002a0: d0e7 95bc bf03 ae3c 95cf 143c 768e a23d
000002b0: b76a 5c3d e4fc d9bc 81fd a93d 856c b23d
000002c0: e15e cb3d 0a93 0fbe 8d68 073c b6e9 bb3d
000002d0: c729 763d 92dc 633d 0b4e 55bd c78b f93d
000002e0: 6035 31bd 75d7 363d 21f3 d43c a553 163d
000002f0: 620c ddbd bc6e 983d fb70 a4bd e985 0ebd
00000300: c1c2 81bd 9a5e a5bd 826f 98bd 4d5f 7fbd
00000310: 5465 18bd 3e47 dabd 4467 babd 5a10 643d
00000320: 8cda 7b3d 64a1 47bc cf53 e43d 5b95 25bd
00000330: a5cb a1bd 40f0 743c 31fd 88bc 3e44 2f3d
00000340: db9d bc3d 13fa 923d 625f dc3b 1b73 c13c
00000350: b434 81bd d9fd b1bb 0d6c d5bd 5c12 f1bd
00000360: 1d5e edbd b394 edbd ef61 bcbd 25dc 2f3d
00000370: dbda c03c 7eb3 b3bd 54b5 99bd 9fb0 f8bc
00000380: 3d9d 23bd 9bcd dcbd 3d74 cc3d 552e cbbc
00000390: 80f6 983d 88b1 c3bd bc22 fa3d c240 12bd
000003a0: 39e7 9b3d 6fc9 dfbc 7f31 8dbd 05f4 85bd
000003b0: c917 163c 124a 22bd b2ef a63d e0ff e33c
000003c0: ae66 afbd d99f 4d3d bf63 f3bc afe9 b8bd
000003d0: 59c1 a43d a4f0 c9bd afc8 c23d e4f9 69bd
000003e0: 594c 61bb 36cf 583d 8c2d 0b3d 21b8 e8bd
000003f0: f7fe 74bd 78b5 513d 8df2 51bd 0245 a1bd
0.06988909 0.1147857 0.051909808 -0.07185082 0.021449676 0.08764468 0.034253076 -0.043862604
-0.08239498 0.029604776 -0.09008727 -0.09050797 -0.097161315 0.1105189 0.046444662 0.054984596
0.022473633 -0.08995532 -0.06635077 0.054316234 0.077072255 -0.00022263364 -0.05572662 -0.07464768
-0.099364124 -0.11846731 -0.03007845 -0.039016407 0.08119663 0.015043636 -0.09621571 0.08563478
-0.04317719 -0.118687086 0.12382266 -0.0590921 -0.032451674 -0.047649156 -0.030445216 -0.112999186
0.09363571 -0.023101205 0.092662625 -0.05256188 -0.074234106 0.089552894 0.048284255 0.057002895
0.039124254 -0.11249547 0.046100933 -0.012729093 0.03194183 -0.1113967 -0.08998071 -0.09608494
-0.08385046 -0.052667845 -0.047669463 -0.025677288 0.055433266 0.122328244 -0.0052927244 -0.13955362
0.0360058 -0.067971535 -0.028963719 0.042814188 0.0042748842 0.12220935 -0.108280376 -0.030753102
0.0692169 -0.09595295 0.11928898 -0.11577085 -0.099343374 0.099744536 -0.049049746 -0.03066322
0.09493906 -0.066352 -0.0037616515 -0.08452205 -0.11718777 -0.052052286 -0.07590853 0.0167279
-0.011736574 0.021454055 -0.11962449 -0.06445105 -0.060691353 -0.033367112 -0.10697575 -0.0589074
-0.074597105 0.09832086 -0.13023032 -0.12336538 -0.02452383 0.010543484 -0.07115434 -0.074569955
0.04371697 -0.0054115253 0.106217876 -0.024482291 -0.043549452 0.082506746 -0.0632327 0.08169315
-0.03229083 -0.118241705 0.061097156 -0.09900593 -0.015549656 0.009887354 -0.050752155 -0.08642639
-0.043662466 0.0055146036 0.086269245 0.049725138 0.006096128 -0.0043397704 -0.04803788 -0.061476655
-0.033620898 0.0075608483 -0.04886439 0.12078931 0.031466734 0.052825253 -0.025265593 0.042538486
0.08426265 0.022497075 -0.10367994 0.028109116 0.0032584467 0.09084114 -0.10065612 0.051569257
0.051226325 0.0984805 0.032063857 0.03766135 -0.10214664 0.07549712 -0.03257776 -0.03173459
0.046212055 -0.07169426 -0.07269321 0.07692751 -0.047209825 -0.0758741 -0.048302177 0.018092023
0.024510348 -0.028365737 -0.026917748 -0.07415384 0.061579317 0.018061982 -0.0699251 0.09655614
-0.018299013 0.02124202 0.009082695 0.079373285 0.05381271 -0.026609845 0.08300305 0.08712105
0.09930206 -0.14020935 0.008264673 0.09175436 0.060098436 0.055630274 -0.05207638 0.121848635
-0.043263793 0.04463907 0.02599484 0.036700863 -0.107933775 0.07442996 -0.08029362 -0.034795675
-0.063359745 -0.080746844 -0.074431434 -0.062346745 -0.03720601 -0.106581196 -0.091017276 0.055679657
0.06148772 -0.012184475 0.11148798 -0.04042564 -0.0790017 0.014949858 -0.016722294 0.04278969
0.09209796 0.07176604 0.0067252377 0.023614457 -0.063088804 -0.0054318723 -0.10421 -0.1177108
-0.11590216 -0.11600628 -0.09198367 0.042934556 0.023541858 -0.0877447 -0.07505289 -0.030357657
-0.039944876 -0.10781404 0.09983108 -0.024802366 0.07468891 -0.09555346 0.12213656 -0.03570629
0.076124616 -0.02731773 -0.06894206 -0.06540684 0.009160944 -0.03962142 0.08151187 0.027831972
-0.085645065 0.05020127 -0.029710649 -0.090289466 0.08044691 -0.09860352 0.095109336 -0.05712308
-0.0034377782 0.052931987 0.033978984 -0.11363245 -0.059813466 0.051198453 -0.051256705 -0.0787449

gru.weight_hh_l0 f4 [192, 64]
00000000: 677e 933d df53 edbd 0880 ec38 f175 683d
00000010: cbf9 0cbd 663c b23d 8581 bcbd 1fe1 903c
00000020: 4d82 ef3d e2ec c53d 762b 4abd 15b7 ee3d
00000030: 1b81 c7bd 9219 5e3d 8462 b3bd fa46 a53c
00000040: 03b6 3c3d 18e7 a6bd 0ced cb3d 61d3 7b3d
00000050: 9bd3 9f3c 5ffd aabd e497 2d3c a3dd 073d
00000060: 18d2 473d 0feb 863d 8304 b0bd 4850 083d
00000070: 8863 98bd 3b11 cd3c fcf8 31bb 9cf3 e0bd
00000080: a080 0d3d 7f1c b9bd 1709 023e bdc1 0c3d
00000090: 8714 6b3d 6938 803d cc92 45bd 871b b1bd
000000a0: 68ef 69bd 2f43 063d cb21 afbd 9a2d a8bc
000000b0: 5ea6 9bbd e8b0 ed3c a5d3 ad3d b46d d7bd
000000c0: 0fcd f339 123e a33d 80ec d4bd 8129 ab3d
000000d0: cab9 25bd 3adf b5bd d28d 9c3d cbf9 c0bd
000000e0: 323b f33d c153 6ebd 65e5 b73c acf4 4d3d
000000f0: 6c53 f2bd 5640 94bd e2bb 413d aa81 b3bc
00000100: 3961 f23d 584d 26bd c533 ba3d 0652 c0bd
00000110: 6404 8dbc 95f9 04be c837 033d 3ec6 203d
00000120: 17f8 343d 824a 763d b8e5 01be b5ec d63d
00000130: 28d2 4b3d 31bf a43d ffa0 d2bc 0eff 29bd
00000140: a518 e73d d6b1 bfbd aac8 713d 1938 c5bd
00000150: c505 16bd 6d66 ad3d 6bed 423d 49f7 9f3d
00000160: 4bf3 da3d 6c27 03bd b9bf 5d3d 2656 803c
00000170: 2c4a 1539 f5ef 65bc 9690 2fbd fad7 993d
00000180: 53e0 db3d 06fd c0bc d976 903d 4237 7fbd
00000190: f5f2 693d cafd 623c 1487 f33c e47a 143b
000001a0: 85e4 25bc 8ded c93d 431d 8cbd 513d 45bc
000001b0: 3e02 3a3d 4081 933d 1f39 de3d 0b8e 7e3d
000001c0: bd7f a8bd c443 fabd 1c2a d03c 384c 5cbb
000001d0: 9c05 ae3d 6aae 9bbc 9572 9e3d 0789 b33d
000001e0: 585b 68bd 66f3 b9bd 76d7 9abd 713f a9bc
000001f0: bca4 ce3b 43a5 a83d 0ea0 cabd 609e 80bd
00000200: ac2c fdbc 8c1e d23d 1e87 e0bb 1fa4 673c
00000210: 8ae4 28bc febb 573d ce95 e6bc b3d0 5cbd
00000220: ee3d 9e3d 3897 83bd 0619 033d 0ffb 8ebd
00000230: fe5b 53bb d232 983d 6e98 d6bc 9c00 b1bd
00000240: c963 ac3d b8e6 6bbc 0ca1 d7bc 844e 273d
00000250: 2f11 64bd b0cc bb3d c2c3 a83d 35df 0e3d
00000260: c939 853d 3d3a d8bd 965f 983d 21d2 2b3d
00000270: 3147 23bd bcd0 31bc 3d9e de3d 26dc 00be
00000280: 1c83 8ebd a4e4 0e3e 69b7 90bc a718 8f3c
00000290: 47f7 ac3d 9e19 a63d 68a6 ddbd fbf8 ce3d
000002a0: d635 a4bd 818d 7bbd 8b82 2a3d b6de 82bd
000002b0: e488 c1bd 6721 d2bd a8ed f9bd 8df7 cc3d
000002c0: 682f 9c3d 6587 703c a3a1 403c d7bd 7ebd
000002d0: e385 39bd 6f96 f83b 6d31 d0bd d178 ad3d
000002e0: 290c 443d cbb4 b2bd 97be 893d 5189 053d
000002f0: f476 223d af39 fe3d 5c22 cbbc 8e46 0e3d
00000300: aea4 c7bd 579e aebd 6db0 003d 34d8 edbc
00000310: 1b40 543d 6264 e4bd 71cf c03d 0747 c6bd
00000320: c9f8 3bbd 0d49 95bd 97f8 a3bd ce66 b93d
00000330: 10f9 863d e952 80bd d1e9 203c 1506 62bd
00000340: f9d0 433c 5296 4dbd b7e9 133d 4876 e7bb
00000350: 2e5d c4bd 024c 46bd 29de 2dbd 1e13 ab3d
00000360: 78b6 28bd 6ba5 613c 09c7 80bc e7e2 c2bd
00000370: 4fb8 3b3c 776d 9abd 6afa 0abd 2e75 2cbd
00000380: 7b59 6abc fd1e db3d c0ac fa3d 81b8 7ebd
00000390: 2656 bc3d bfff 933d f36c b8bd f286 e83d
000003a0: f39f d5bc 38b1 dfbc 5da5 c03c 0e1c 773c
000003b0: 29ad 493c 274b 7d3d 678f bf3d fb40 d2bd
000003c0: 910c 10bd 7ed5 e9bd b9c3 a0bd e200 6f3d
000003d0: b5ae 93bb a934 53bd 77be 1cbd 5f37 5abd
000003e0: 149c 84bc fa0c 963d 095b f1bc e78a 34bd
000003f0: e2ea 7dbb 16be efbd ce61 f3bd 2c59 acbd
0.07201844 -0.11588263 0.000112772046 0.056753103 -0.03441791 0.08702926 -0.092043914 0.017685471
0.11694775 0.096643224 -0.049357854 0.11656014 -0.09741422 0.054223605 -0.08759025 0.020175446
0.046072017 -0.081495464 0.099573225 0.061480884 0.019510081 -0.08349108 0.010595296 0.033170354
0.048784345 0.065878026 -0.085946105 0.033279687 -0.07440859 0.02503263 -0.0027156463 -0.10983965
0.034546494 -0.09038638 0.1269878 0.03436445 0.057392623 0.062607594 -0.0482357 -0.086478285
-0.05711308 0.032778915 -0.08551367 -0.020529557 -0.076000914 0.02901502 0.084876336 -0.10518971
0.00046501352 0.07970823 -0.10396671 0.083575256 -0.040460385 -0.08880468 0.076442376 -0.09422644
0.11876525 -0.058185343 0.022448251 0.050282165 -0.11832318 -0.072388336 0.04729832 -0.021912415
0.1183495 -0.040601104 0.090919055 -0.09390645 -0.017214008 -0.12985833 0.03203562 0.03925156
0.04418191 0.06012965 -0.12685287 0.10494367 0.049760967 0.08044279 -0.025711535 -0.041503005
0.112839974 -0.093600914 0.05902926 -0.096298404 -0.036626596 0.08466802 0.0475897 0.07810838
0.10690936 -0.032020018 0.05413792 0.015666079 0.00014237378 -0.014034261 -0.042862497 0.075118974
0.10736146 -0.023558151 0.070539184 -0.062308557 0.057116468 0.013854453 0.029727496 0.0022656256
-0.010125284 0.09859762 -0.06841519 -0.012038545 0.045412295 0.07202387 0.10850739 0.06214718
-0.08227489 -0.122199565 0.025410704 -0.0033614766 0.08497164 -0.019004066 0.077366985 0.0876637
-0.056727737 -0.09079628 -0.07560627 -0.020660134 0.006306259 0.08234646 -0.09893809 -0.06280208
-0.03090509 0.102597326 -0.0068520447 0.014138251 -0.010308394 0.052669518 -0.028147604 -0.05390997
0.07726656 -0.06425327 0.032006286 -0.069814794 -0.0032250877 0.07431568 -0.026195731 -0.08642694
0.0841747 -0.014398269 -0.02632191 0.040846363 -0.05568045 0.091699004 0.08240463 0.034880836
0.06505162 -0.10557983 0.074401066 0.04194844 -0.039862815 -0.010852989 0.10870025 -0.1258398
-0.06958601 0.13954407 -0.017665582 0.01746781 0.08445602 0.08110355 -0.10822755 0.10106083
-0.08018081 -0.061414246 0.0416284 -0.06390135 -0.09449938 -0.10260277 -0.122035325 0.10008154
0.076262295 0.014680718 0.011757287 -0.062192764 -0.0452937 0.0075862925 -0.10165677 0.084703095
0.04786316 -0.0872589 0.06725805 0.03260166 0.039664224 0.12413346 -0.024796657 0.034735255
-0.09748207 -0.08526295 0.031418253 -0.029033758 0.05181895 -0.11151959 0.09414566 -0.09681516
-0.045891557 -0.07289324 -0.08006399 0.090528116 0.06590474 -0.06265814 0.009821371 -0.05518158
0.011951678 -0.050192185 0.03611156 -0.007063661 -0.09588085 -0.04841233 -0.042448197 0.08353256
-0.04118964 0.013772349 -0.015719907 -0.095159344 0.011457517 -0.0754041 -0.03393022 -0.04210394
-0.01430356 0.1069927 0.12239981 -0.062187675 0.09196119 0.07226514 -0.090051554 0.11353864
-0.026077246 -0.027306184 0.023516351 0.015082372 0.012309351 0.06183925 0.09353524 -0.102663
-0.035168234 -0.114176735 -0.07849831 0.05835045 -0.0045069107 -0.051563893 -0.03826758 -0.053275462
-0.016187705 0.07326694 -0.029462354 -0.04407778 -0.0038744737 -0.11706178 -0.11883889 -0.08415446

gru.bias_ih_l0 f4 [192]
00000000: 07c6 ef3c d255 3dbc ba89 acbd bbb7 803d
00000010: 7b57 07be 681b b03d aa4a 94bd dfe0 9e3c
00000020: 3483 4c3d 183b c13d 8e91 0b3d 0294 b33c
00000030: 1964 6f3b a5f3 463d ef1e df3b 0c59 913d
00000040: 3adb 4cbd ed02 fa3d aed0 ea3d 4287 20bb
00000050: 7888 e4bc a2b4 fb3d 4613 9e3d 7d39 9cbd
00000060: f12e c7bd 5023 cd3c ac6d d7bd c786 eb3b
00000070: f1fa 073e ff06 56bd 4fb4 263d eedc 8b3c
00000080: 73e1 d63c 2e5c db3d b4e1 ffbd d09d 953d
00000090: b741 bb3d e86a ea3d 4f8f 0e3d 1187 833d
000000a0: 7622 203d 0a51 4fbd 369a b23d 39c4 4e3d
000000b0: 6fbc d83d be72 643d 51fd e03c 3479 593d
000000c0: e850 d3bc 7b9f 003d 000d cfbd 1b17 493d
000000d0: 71c5 863c 2f0f d03d 359b 1d3d 5722 cc3d
000000e0: 8bd8 a4bd 422e 8a3d df9e edbc cfb3 89bd
000000f0: 81ab 15bc b746 89bc c77a 20bb 4cd9 4abd
00000100: 0250 adbc 6fb7 cb3d ea6d afbd 66b7 a1bd
00000110: 7b35 d73d 4d2c d8bd 450a dcbd 5f98 dbbd
00000120: 1947 b03d 6777 6abd 5f0b 7ebd bc7e 8c3d
00000130: 4940 8dbd ed65 833d 83db e0bd e8ae 54bc
00000140: caf1 c73d 763a e93d b101 903c d413 f4bd
00000150: 9190 be3d ea26 99bd 9de2 393d 7227 f1bc
00000160: 8db0 34bd ebc6 83bd 03aa 3ebd 8ac7 cbbd
00000170: f251 443d 06dc 133d 1525 593d 450c fc3d
00000180: 931c 2dbd 1826 27bc f1f2 e13d f203 a1bd
00000190: 8c56 d53d c14e 09bd 4b52 52bd 089b 253d
000001a0: e025 3f3d 33fc 843c de60 773d 9493 27bd
000001b0: 02fa fb3d 5c08 013d 5abb b4ba 9ced c2bd
000001c0: 43c9 5ebd a264 ffbd f1ed c13b 1187 a0bd
000001d0: fc73 613d baee d8bd 1701 bb3d 311b 9dbd
000001e0: cf38 e2bd d6c7 353d e73e 8ebd e268 c63d
000001f0: 615b 973c 2918 a23d f2e9 3c3d 535f 823d
00000200: 6539 b63d 2e17 6d3d 16c1 3c3d c298 f23d
00000210: 4651 ed3c af3c 9abc 1bd7 103d e760 84bd
00000220: a426 003e 52c6 853d b95c 0dbd 1202 79bc
00000230: 6068 96bd 65b9 c8bd ec1b 05be 45d9 153d
00000240: 7098 40bd d67d c13c 74fa 11bd 72a6 d03d
00000250: bc93 5abd 29c1 173c 1b9b 273d ba84 303c
00000260: 9aad ad3d b81a eb3d 7ab7 01be 077c 9dbd
00000270: 2d3f b93d 0c01 dcbd 8d0c 5abd 4392 043e
00000280: 4beb 983d e465 c5bd 3997 d93d f61a d5ba
00000290: faa4 063d 9b87 98bd f439 dc3d 53aa b43d
000002a0: fa7a ff3d 0b3e 07be 52d6 8f3d 22be d7bc
000002b0: 6901 91bd 6e44 ee3d 1a20 88bc d5ff 36bc
000002c0: cdea bd3b 1084 c53c ae7b 323d 7987 94bd
000002d0: 3347 673d 56ec 2cbd 727d 66bd 4bc8 a53d
000002e0: 7db9 cdbb 7d56 8f3d dcd9 2e3b 75c8 4ebd
000002f0: c8b5 b2bd b864 d53c 0280 ad3d 21ae e5bc
0.029269231 -0.011556106 -0.08424707 0.06285044 -0.13216965 0.08598977 -0.072408035 0.019394336
0.049929813 0.09435099 0.03407436 0.021921162 0.0036528169 0.0485722 0.0068091075 0.070970625
-0.05001376 0.12207589 0.11465584 -0.0024494682 -0.027897105 0.12290312 0.0771852 -0.076281525
-0.0972575 0.025041252 -0.10518965 0.0071876976 0.1327932 -0.052252766 0.0406993 0.01707312
0.02623055 0.10710941 -0.12494221 0.07305491 0.091433935 0.11446172 0.03480464 0.06422246
0.039095365 -0.050614394 0.0872082 0.0504801 0.10582816 0.05577349 0.02746454 0.053094104
-0.025795415 0.031402092 -0.101099014 0.0490943 0.01645157 0.10159146 0.038478095 0.09967487
-0.08049115 0.06747104 -0.02900642 -0.06723749 -0.009135128 -0.016757352 -0.0024487243 -0.049523637
-0.021156315 0.099470966 -0.08565886 -0.078963086 0.105082475 -0.10555325 -0.10744146 -0.10722422
0.08607311 -0.057242777 -0.062022563 0.0686011 -0.06897027 0.06415925 -0.109793685 -0.012981154
0.097629145 0.11388104 0.017578932 -0.119178444 0.093049176 -0.074781254 0.04538213 -0.029437754
-0.044113684 -0.06434425 -0.046548855 -0.099501684 0.04792971 0.036098503 0.05301388 0.12307028
-0.04226358 -0.010201953 0.110326655 -0.07862081 0.10416898 -0.03352237 -0.051348012 0.040431052
0.04666698 0.01623354 0.060395114 -0.040912226 0.123035446 0.031502113 -0.0013788745 -0.09517977
-0.054391157 -0.12470366 0.0059182574 -0.07838262 0.055042252 -0.105924085 0.09131067 -0.07671202
-0.11045992 0.04438003 -0.069455914 0.096879736 0.01847619 0.079147644 0.046121545 0.06365838
0.08897666 0.057883434 0.04608258 0.118455425 0.028969418 -0.018827764 0.03536139 -0.06463795
0.1251474 0.06531967 -0.034512255 -0.0151982475 -0.07344127 -0.09800986 -0.12998933 0.036584157
-0.047020376 0.023619574 -0.03563924 0.10187997 -0.053363547 0.009262362 0.040919404 0.010773832
0.084803775 0.114797056 -0.12667647 -0.07689672 0.09045253 -0.10742387 -0.053234626 0.1294642
0.074667536 -0.09638575 0.106245466 -0.0016258645 0.032872178 -0.0744774 0.10753241 0.08821549
0.12474628 -0.13207261 0.070233 -0.02633578 -0.07080347 0.11634146 -0.01661687 -0.011169394
0.0057958127 0.024110824 0.04357498 -0.07252402 0.056464385 -0.042217575 -0.056271978 0.080948435
-0.0062782154 0.06998918 0.0026680147 -0.05048414 -0.08726078 0.026049003 0.08471681 -0.028037133

gru.bias_hh_l0 f4 [192]
00000000: 7f8a b5bd e056 4a3d 9036 1f3b 66a2 403d
00000010: 6ba1 c63c 852a 75bc 9087 d13d 2a2d babd
00000020: cc94 22bd 149e ccbd b8ae 6bbd daa5 b83c
00000030: 69ae 18bd a453 df3c bd2c 8e3a 083f 19bd
00000040: 36aa 913c 8f55 913d 5f98 0e3e 1330 02bc
00000050: c963 ddbd 8b77 01bc 83e8 87bd 230d 983d
00000060: 8e57 9dbd 17c9 8bbd da49 d2bd 67ae 74bc
00000070: a154 de38 15b3 863d d862 d7bc eec4 923c
00000080: 7c62 703c 4981 21bc 6c40 0ebe b8c7 73bc
00000090: e36e adbd f0c8 7fbd 88a8 55bd 16b6 d9bd
000000a0: 038e 043e 44b3 d3bc 06eb 02be b3a9 46bb
000000b0: 9de7 1e3c 7271 8ebd 00d6 bbbd d470 603d
000000c0: bb0a 9e3d d1e9 1cbd 2f56 4f3d 6624 a13d
000000d0: e218 96bd ced2 9b3d e8e2 8abd cd07 263d
000000e0: d5db a339 32f9 9dbd 6bf3 4a3b 7b0d 11bc
000000f0: 16e9 563d 592d 013c 29f5 9fbc c450 08bd
00000100: f5a5 9ebd 9b58 b1bd fc21 72bc 6d80 a73c
00000110: 23f7 e4bc 6d35 f43c ee24 be3d 516d 013e
00000120: 4e6e 2dbc c7fd 063e 372f babd 1c53 fabd
00000130: 9b61 acbd 2731 68bc 4bc3 023d b4ad 96bc
00000140: d1e1 463d 6eb9 963d 6ccd fb3c fe2b bf3c
00000150: 852b cfbd acf1 0a3e cd20 15bd bb16 9dbd
00000160: 2097 a43d 8434 cfbd f0fc 6a3c 34b8 e0bc
00000170: 7783 ad3c 601f 15bd fc60 e33d f600 773c
00000180: 1410 bd3c 06e0 b5bd 5baf a93d a782 06be
00000190: f9b9 7f3d c165 d6bd 0cd3 593d 4d67 87bc
000001a0: 09d1 823d 6cc1 1cba 7a83 bc3d af80 7fbc
000001b0: a03d 92bd 3030 e8bd f8c3 a7bc 5b92 e4bc
000001c0: 7fa5 8b3c 170c ee3d 9eae 293d b30e 92bd
000001d0: 7e25 a9bd 0c26 40b8 279d a43d 719e 8b3d
000001e0: fc9c dabd 7a64 223d 5d7e 99bd c804 103d
000001f0: 84bf f53d 6993 ac3d f2c3 cd3d 6304 49bb
00000200: ec0a a83d 879a 97bd 2097 9bbc bff7 b03d
00000210: 740b 603d 097d 99bd 06af 36bd 9a6c 513d
00000220: 00ef cabd 709a f4bd b306 91bd 9875 fcbd
00000230: 2a4f ee3d 2853 a8bd 9fac 39bd 4d58 363d
00000240: c1f3 1f3c 9635 1cbd d1a4 aebd 770a 66bd
00000250: 4353 9f3d be86 963d 7f44 84bd b63a 073e
00000260: 94e9 d4bb ce2c b43d 9250 f6bd 073f d53c
00000270: 461b 073e 62d5 94bd b6b1 c6bd 86cb 6bbd
00000280: 1f23 cc3d e89c 0abe f44b 833d 6f73 9cbd
00000290: a108 9b3d 714c d4bd c5d1 79bd f292 7e3d
000002a0: f863 0f3d ced4 83bd 7322 42bd 5e6e 4ebd
000002b0: 4b4a b1bc eddc dcbd 11bb 013e 8fd4 f63c
000002c0: b7ad 773d ef47 7ebd 6186 373d c455 053e
000002d0: c666 a7bd 07e8 5fbd 3d8b 9e3d a184 bcbd
000002e0: 4328 073d ee11 fd3d e1af e63d da13 d2bd
000002f0: 47ab 82bd 3cd2 2bbd 8b6c 8bbd 1942 afbd
-0.08864307 0.049399257 0.0024293996 0.047029875 0.024246892 -0.014963751 0.102309346 -0.090906456
-0.039692685 -0.099910885 -0.05753967 0.022540022 -0.037275705 0.027261563 0.0010847073 -0.037413627
0.017781358 0.07096397 0.13925312 -0.007946032 -0.10810048 -0.007902036 -0.06636145 0.07424381
-0.07682715 -0.06825464 -0.10267992 -0.014934159 0.00010601548 0.06577126 -0.02629225 0.017916169
0.014671918 -0.009857484 -0.13891762 -0.01487916 -0.084684156 -0.06244749 -0.052162677 -0.10630433
0.12944798 -0.025842316 -0.12784967 -0.003031355 0.009698776 -0.06955232 -0.09171677 0.0547951
0.077168904 -0.038308922 0.0506193 0.078682706 -0.07328965 0.07608567 -0.0678156 0.040534783
0.0003125357 -0.07713546 0.0030967842 -0.008853312 0.05246838 0.007884347 -0.019526081 -0.03328015
-0.077464975 -0.08659478 -0.01477861 0.02044698 -0.027949875 0.029810632 0.092843875 0.12639357
-0.010585381 0.13182746 -0.09091037 -0.12222883 -0.08417054 -0.014171875 0.031924527 -0.018393375
0.0485552 0.07359587 0.030737601 0.023336407 -0.101157226 0.13568753 -0.036408234 -0.07670351
0.08036637 -0.101174384 0.014342532 -0.027431585 0.021180851 -0.036406875 0.11102483 0.015075913
0.023078956 -0.0888062 0.082853995 -0.13135777 0.062433217 -0.10468627 0.053179786 -0.01652875
0.063875265 -0.000597975 0.09204765 -0.015594645 -0.0714066 -0.11337316 -0.020479187 -0.027901819
0.017046688 0.116234 0.041426294 -0.0713171 -0.08259104 -4.58118e-05 0.08037787 0.0681733
-0.10674474 0.039646603 -0.07494805 0.03516081 0.11999419 0.08426554 0.10047139 -0.003067278
0.08205208 -0.074025206 -0.01899296 0.08641004 0.054698423 -0.07494552 -0.04460051 0.05112896
-0.09908867 -0.11943519 -0.07081356 -0.12327117 0.11636193 -0.08218986 -0.04533064 0.044517804
0.009762705 -0.03813704 -0.0852753 -0.056162324 0.07779553 0.07349919 -0.06458377 0.1320599
-0.0064975712 0.08797608 -0.12027086 0.02603103 0.13193998 -0.07267262 -0.097018644 -0.057567142
0.09967636 -0.13536417 0.06410971 -0.07639205 0.07570005 -0.103661425 -0.060991067 0.062151857
0.035007447 -0.06437074 -0.047396135 -0.050398223 -0.021641871 -0.10784326 0.12669016 0.030130653
0.0604684 -0.06208032 0.044805888 0.13020998 -0.08173899 -0.054664638 0.07741401 -0.092049845
0.03299738 0.123569354 0.11264015 -0.10257693 -0.06380325 -0.041948542 -0.06807812 -0.08557529

gru.weight_ih_l1 f4 [192, 64]
00000000: b503 5b3d 6291 cabd b242 21bc 8435 e7bd
00000010: 3cba e5ba d63f 123d 3751 ca3a bbe5 65bd
00000020: f0a3 3ebd b82e 92bd d6ad 8c3d 2e46 1bbd
00000030: c994 ec3d b97f bd3c 9988 43bd 0e88 babd
00000040: a946 69bc 960a 32bd f2af 91bd 71ff 96bd
00000050: 588a 083d ae04 1c3d 3e6a 29bd a654 9e3d
00000060: c9c4 893c 5c74 f8bd aff8 60bd 7900 0abd
00000070: 0855 ef3d 9fc8 4bbd ca8b de3b ce25 bd3d
00000080: 95c6 453b 6536 f73c 3a5f c8bd 23eb 31bb
00000090: a090 ddbc 05ff a2bd ecf5 393d 4497 833c
000000a0: 4d9c d7bd 29ec cebd 687a db3d 4510 0dbd
000000b0: 0cb8 0abd 477f 253d ed09 873d 7a19 d23d
000000c0: 6344 8fbd 7cad 47bd f46a c03d 8989 36bc
000000d0: 2c48 aabc 3c0c 8bbd ec74 ee3a a69d 8abd
000000e0: 0f73 b73c 2487 dabd 07af 8d3c 75a8 24bd
000000f0: 547e 073e 8d9a eebd 1eea f4bc 7905 54bd
00000100: 16fa 4e3d 7551 d43d a0ee 56bc 170c 8bbd
00000110: 92fc ecbd 482b 21bb 961e cf3c 5561 cf3d
00000120: 023e d23d ea59 b03d 2bf4 95bc 572a 943d
00000130: 4450 b93c ff33 223c 6497 e53c f968 84bd
00000140: efe2 ddbc bdc4 543d 7fee b9bd da8c babd
00000150: 85b2 b2ba 2578 8f3d 43bf 553d 79c8 a3bd
00000160: 7aa2 d1bd 8009 363d 1933 26bd e073 0b3d
00000170: b4d0 0d3d b938 a2bd c4e5 debb 83a6 86bd
00000180: 4549 d8bd 174a 343d d659 bbbd 14ca 763d
00000190: a4d4 503d 730a 40bb 0bfc 66bd a2ad d0bd
000001a0: dd70 2a3d c9e3 143c a146 ad3d acc7 89bd
000001b0: ebe7 0d3e 77b0 76bd 45f2 f0bd 7e10 353d
000001c0: 5494 e0bc 28d6 ba3d e485 a03d 9ea8 793d
000001d0: 80ec 0a3e 3c34 e93d 7058 e03d 433e 19ba
000001e0: e253 d7bd 07c0 98bc 712e a03d fcc8 d23d
000001f0: f6e8 53bd c792 76ba c590 f83d bdc5 d1bd
00000200: bded ab3d 544e d4bd d944 00bd 37a9 babd
00000210: 7949 4d3d 8e66 6bbc 4b95 543d 0d92 b1bd
00000220: 1704 bfbd 2b94 723d 59c9 703d 82c5 c3bc
00000230: de0b d23d 3508 063e ed5e 82bd 4ce7 983d
00000240: 74ea 6ebd 63b5 773c 8b58 6d3d f1b2 e33b
00000250: 98dc 17bd 5b0f 50bc fb9a d03d ef1a eb3d
00000260: 1717 01be 0152 ca3d 5722 01bd df77 07be
00000270: 9ad5 a7bd 4651 03bd 2f97 d43a 3de3 41bd
00000280: 806d 14bd 0129 983d d98f 09bd 6831 cfbd
00000290: d5d3 3bbd 8bd0 e0bd 0054 563c 256c d53c
000002a0: cdbe 103d bf7a 05be 3465 b43c e699 8dbd
000002b0: 65f7 cc3d 73c5 913d dbc1 3c3d 7bf3 65bd
000002c0: 41d9 97bc 6be8 fd3d 921e 003c d851 0d3c
000002d0: 75f9 cabd 2c87 03bc a373 0f3e a7ea 4fbd
000002e0: 4319 e83d 0bb9 293d 86a9 03bd ab80 e33d
000002f0: 8195 5a3d 2d23 553d c611 d8bd 9c16 013e
00000300: 1727 243d 627a 9abb c3a4 c43d 111d c9bd
00000310: 31c1 b33c f1ee c1bd 5e0b fc3d 3261 28bc
00000320: 9cf8 033e 2696 00be 4517 823d 40ec 903d
00000330: 28ce c03d 5cc9 fa3d 8c8a dcbd 39d8 c5bd
00000340: 6d5c 7dbd 6d24 bdbd 1087 cb3d 5b01 803d
00000350: b114 eebc a85a 603c 94b4 83bc d9b4 e13d
00000360: 6925 e83c 73bf 98bd 3e84 a33d 8bcf 213d
00000370: 1294 10bd a7df e53d 98dd 323c abbd a33d
00000380: 6b03 fb3d b013 a93d fbb7 e3bb abb8 e53d
00000390: e345 e7bd 849b 9b3d c7d3 c63d 6c6c a03d
000003a0: d42e c5bc 7b8e cabd 50f4 3bbd 25e4 f73d
000003b0: 0b92 613d 4e68 353d 3bc8 b23d 5f16 a1bd
000003c0: 35e8 053d 348b babd b98e debb c406 c5bd
000003d0: f660 593c 0c0d bfbc 613b 5abd 060f a9bc
000003e0: 97c1 fb3d 4ad4 243d e8ff 28bd 0d33 a13c
000003f0: 6051 d83c 2e00 5abd eb18 05be 13cd 6bbc
0.053470332 -0.09891011 -0.009842562 -0.11289504 -0.0017526816 0.03570541 0.0015435581 -0.05612729
-0.04654306 -0.07137817 0.06869094 -0.037908725 0.11551816 0.023132192 -0.04773769 -0.091079816
-0.014238038 -0.043467127 -0.07113637 -0.0737294 0.03333506 0.0380904 -0.041361086 0.07730989
0.016817467 -0.12131569 -0.054924663 -0.033691857 0.1168614 -0.049751874 0.0067915665 0.09235726
0.0030178179 0.030177305 -0.09783788 -0.002714821 -0.027046502 -0.07958797 0.045400545 0.01606334
-0.10527859 -0.10103638 0.107167065 -0.034439344 -0.033866927 0.040404584 0.0659369 0.102587655
-0.069954656 -0.048749432 0.093954 -0.011141189 -0.020786367 -0.06789443 0.0018192804 -0.0676835
0.022393731 -0.10670307 0.017295374 -0.040199716 0.13231784 -0.11650572 -0.029896792 -0.05176303
0.05053147 0.10367099 -0.013118416 -0.06789415 -0.115716115 -0.0024592448 0.02528314 0.101259865
0.10265733 0.086109 -0.018304905 0.07234638 0.022621281 0.009900092 0.02802629 -0.064653344
-0.02708575 0.051945437 -0.09078693 -0.091088966 -0.0013633525 0.070053376 0.052184355 -0.079972215
-0.10236068 0.044442654 -0.040576074 0.034046054 0.034622863 -0.07920975 -0.0068022925 -0.06574728
-0.1056085 0.04401597 -0.09147994 0.06025131 0.05098404 -0.0029303103 -0.05639271 -0.10189368
0.04161154 0.009087511 0.08460737 -0.067275375 0.13858001 -0.060226884 -0.11764959 0.04420518
-0.027414478 0.09122878 0.078380376 0.06095182 0.1356678 0.11386916 0.10954368 -0.00058457645
-0.10514046 -0.018646253 0.07821358 0.10292241 -0.05173584 -0.0009406027 0.121369876 -0.10242794
0.08394954 -0.103665024 -0.03131566 -0.091143064 0.050118897 -0.014367713 0.05190019 -0.08670435
-0.09326952 0.059223335 0.05878577 -0.02389789 0.1025617 0.13089068 -0.06365762 0.074659914
-0.05832906 0.01511893 0.05794577 0.0069488217 -0.03707561 -0.0126989735 0.1018581 0.114797466
-0.12606464 0.09878922 -0.03152689 -0.13229321 -0.08195038 -0.03205993 0.0016219373 -0.047335852
-0.03623724 0.07429696 -0.03358445 -0.10116845 -0.045856316 -0.109772764 0.013081551 0.026052544
0.03533821 -0.13035105 0.022020914 -0.069141194 0.10008124 0.071177386 0.046083312 -0.056140404
-0.018536212 0.12397846 0.0078197885 0.00862547 -0.099108614 -0.008027833 0.14008956 -0.05076089
0.11332943 0.041436236 -0.032144092 0.11108526 0.053365234 0.0520355 -0.10550265 0.12606281
0.04007634 -0.004714296 0.09601738 -0.09819997 0.021942707 -0.094694026 0.123068556 -0.010277079
0.12887806 -0.12557277 0.063520946 0.07076311 0.09414321 0.122454375 -0.10768613 -0.09660382
-0.061855722 -0.09235463 0.099378705 0.062502585 -0.0290626 0.013693489 -0.016077317 0.11020822
0.028338151 -0.07458391 0.079842076 0.03950457 -0.03529746 0.11224299 0.01091709 0.07995161
0.12256511 0.08255708 -0.0069494224 0.11216863 -0.11292627 0.075980216 0.09708362 0.0783318
-0.024070181 -0.09890457 -0.04588729 0.12104062 0.055070918 0.044288926 0.08729597 -0.07865595
0.032692153 -0.09108582 -0.006791916 -0.09620431 0.013267746 -0.02332165 -0.053279284 -0.020637047
0.12292784 0.040241517 -0.041259676 0.019677663 0.02640599 -0.053222828 -0.12997787 -0.014392155

gru.weight_hh_l1 f4 [192, 64]
00000000: 4e4f f53d 20cb 223c 18b7 ee3d a478 a3bc
00000010: a8ea a13d 2a22 c73c 05d9 2f3c f0e8 e43c
00000020: 09f8 8fbd ebc9 ef3d 4f98 a0bc f873 55bd
00000030: dfe8 00bd 6893 143d f915 843b d97d c6bd
00000040: 59f5 0f3d e2bf 88bc f2b1 c23d 9e31 e83b
00000050: da49 783d 64f1 ac3b 254f 4c3d 51b0 37bc
00000060: fc7b 7bbd 50e4 813c 60a3 9b3b d512 9fbd
00000070: 80e4 ac3d 83b3 a8bd 34e5 8a3d b2ae b6bd
00000080: 5eae b4bd cf55 83bc 00d5 3c3c 6c36 bebc
00000090: b2c4 57bd a342 e2bd 974b 76bc 0603 d3bd
000000a0: 822a a2bd 0c1f 103e 67d4 903c 32e9 e63d
000000b0: 3940 a4bd 0729 f23d 2cb8 b4bc 7489 6b3d
000000c0: e93e df3c 0ef7 b7bc 9a1c 65bc 6dc0 d9bb
000000d0: f7ef a13d 29e7 67bd 39b7 ca3b 9df9 35bc
000000e0: a347 b33d d428 e73d b359 fcbd 392d 8f3c
000000f0: 9327 83bd c537 36bc 2b4e 84bd a918 1b3c
00000100: 4a62 edbd d8ea dabd caf2 30bd e583 65ba
00000110: ad98 acbd 083b fdbd 3bae b6bd cbdd 4b3d
00000120: 7285 133d 38f1 cfba 0fd3 753d 914a 8f3c
00000130: 74d9 9e3b 898e d0bc 8fe6 813d f40a dfbd
00000140: 5334 47bc f11c c83d 53ef 4abc dcd2 053e
00000150: c2f6 fdbd 158a fb3c 73dc 5cbd 4cbf 5d3c
00000160: e403 5ebd f9a9 253d f6a6 073d c0fb 8e3c
00000170: 8bf2 3abd 3182 df3d e94a 863d 9131 0e3e
00000180: 5a62 ce3c 1295 e2bc ed63 233d 6cb3 923d
00000190: dd6a d7bc 5f50 aebd f084 d03d 5e6c df3b
000001a0: 7b24 ac3c 96f5 db3c b701 c8bd a849 dfbc
000001b0: d0c0 efbd 5bbb 9abd 2c85 c8bd a898 aa3c
000001c0: fe9a e33b 9bb6 a13d e80e e63d f1d0 a2bd
000001d0: 4a17 3dbd b707 b73c ee87 423d d812 4a3c
000001e0: 2da8 b43d b4de ee3d d5e3 8cbd cc3e 003e
000001f0: 29b2 44bd 7bb6 ac3b 1d68 88bd faaf 8fbd
00000200: cb23 8c3b 9656 9a3d 0c8b 04bc 5a9b 24bd
00000210: 8788 0f3e 0147 11bd b570 92bd 2b09 01be
00000220: 3417 6cba 32a5 c8bd 080c c9bd 2539 83bd
00000230: 78c4 853c 15c6 083d ee0f cdbd e4b6 77bd
00000240: 055d 8c3d 74e5 043b 4832 6d3d 5fdb ddbd
00000250: 6970 d43d ddec f6bd 7a36 85bd b724 7dbd
00000260: 5037 85bd e3fe 44bc f64b f03d 6637 49bd
00000270: 77b9 05be 76c0 3c3d a717 d3bc 6177 c2bc
00000280: a68c 9b3d ccab ca3d da15 63bd 17c1 c83d
00000290: 7237 c5bd 4363 b13d 6eba 9dbd cc1e 44bd
000002a0: 3013 cd3d 1489 603d 3af4 e73d 93f1 063d
000002b0: 0c96 a2bd 674b 023e 87eb 97bd 1a33 cabb
000002c0: 7000 e23c 9ff5 b63d fa04 c9bd 8b18 eabd
000002d0: f7ea 013c 75a7 bbbd 350b f8bc c172 073e
000002e0: e169 b0bd 821e b73d be25 943c 0862 a0bd
000002f0: ae85 ea3d 5aeb cc3d 55fc acbd 16c6 4f3b
00000300: f16a ecbd 22ef a4bd 4823 b6bd 60f0 cdbd
00000310: 8dbb a03c 8431 6d3b 1a25 e5bd 2913 1f3d
00000320: 8c10 0fbd 4f9b c9bd 8a79 833d 1d6d 3fbc
00000330: a334 0d3d 1cb2 c53c 21c2 933c d0cb 8bbc
00000340: fb82 2c3d 02ea 04bb a1bd fc3d 964b b8bc
00000350: 7df1 b9bd c26d 533d 67d2 fcbc c827 9e3d
00000360: 6754 8c3c 6eaf f2bd 9a29 4ebd 763d 283c
00000370: 780a 7fbd ca7c 993d 4b45 303d f5c1 6b3d
00000380: 6895 b2bd a869 08be 1c52 4cbd 5d2b e73d
00000390: 36fa dcbd 7cad acbd 17a1 233d 81ab 513b
000003a0: 6bc6 67bc 7fed 87bc c33a 883d 1adf 783c
000003b0: c57a a6bd 745e 353c 8aef f53c a2e2 023e
000003c0: 6b6f e4bd 3b90 63bb 6c19 e63d 8ee4 a5bc
000003d0: f1b8 953d fdaa a63d 2192 eabd 799c 083d
000003e0: 2a1a ea3d 8f2d 21bd 46be bcbc 85c3 f63d
000003f0: abf3 a13c b3db ec3b 77a8 f93d f911 b63d
0.11978017 0.009936124 0.11656016 -0.019954987 0.07906085 0.024308283 0.010732894 0.027943105
-0.07029731 0.11708435 -0.019603876 -0.05211255 -0.031472083 0.03627339 0.0040309397 -0.09691972
0.03514609 -0.01669306 0.095065966 0.007085993 0.060617305 0.0052777994 0.049880166 -0.011211471
-0.061397538 0.015855938 0.0047497004 -0.07767264 0.084420204 -0.08237364 0.06781998 -0.08920039
-0.088223204 -0.016032128 0.0115253925 -0.02321931 -0.052677818 -0.11047866 -0.01503267 -0.10303311
-0.07918264 0.14074343 0.017679406 0.11274947 -0.08020062 0.118242316 -0.022060476 0.057504132
0.027251678 -0.022456672 -0.01398387 -0.0066452534 0.07907098 -0.056616936 0.0061863926 -0.011106876
0.08753898 0.11287084 -0.12321796 0.017477619 -0.064040326 -0.011121695 -0.06460222 0.009466329
-0.11591013 -0.10689324 -0.04320029 -0.00087553106 -0.08427558 -0.12364775 -0.089199506 0.049772065
0.036015935 -0.0015864735 0.060015734 0.01749161 0.0048477 -0.025458591 0.06342804 -0.10890761
-0.012158471 0.09771145 -0.012386161 0.13068718 -0.12400581 0.030705491 -0.053921174 0.013534378
-0.05420293 0.0404453 0.03311821 0.017454028 -0.045641463 0.10913504 0.06557257 0.13886096
0.025193382 -0.027658973 0.03989022 0.07163128 -0.026296074 -0.08511423 0.10181606 0.0068183383
0.021013489 0.026850503 -0.09765952 -0.027256802 -0.11706698 -0.075552665 -0.097910255 0.020824745
0.0069459667 0.07896157 0.11233312 -0.07950009 -0.04616479 0.022342546 0.047492914 0.012333594
0.088211395 0.11663571 -0.06879393 0.12523955 -0.04802147 0.005270777 -0.06660483 -0.07015987
0.004276728 0.07536046 -0.008089792 -0.040187217 0.14016925 -0.035468105 -0.071504034 -0.12601154
-0.0009006143 -0.097971335 -0.09816748 -0.06407384 0.016329035 0.03339203 -0.10012804 -0.060477152
0.068536796 0.0020278366 0.05790928 -0.10832857 0.10373003 -0.12056897 -0.06504531 -0.061802592
-0.06504691 -0.01202366 0.117332384 -0.049125098 -0.1305903 0.046081983 -0.025768114 -0.023738565
0.07595186 0.09896049 -0.05544076 0.09802454 -0.09629716 0.08661511 -0.07701574 -0.047880933
0.10013425 0.054818228 0.113258794 0.032945227 -0.079387754 0.12724076 -0.0741797 -0.0061706426
0.0275881 0.08933567 -0.09815402 -0.114304624 0.007929555 -0.09162799 -0.030278781 0.13227369
-0.08613945 0.08941366 0.018084403 -0.07831198 0.114512786 0.10005827 -0.08446566 0.0031703762
-0.11543835 -0.080534235 -0.08893448 -0.100556135 0.019620681 0.0036192844 -0.11188717 0.038836632
-0.03492789 -0.09844076 0.06419666 -0.0116837295 0.034474026 0.02413278 0.018036904 -0.017064959
0.0421171 -0.002028108 0.12340856 -0.02249698 -0.09079263 0.051618345 -0.030862046 0.077224314
0.01713009 -0.11849867 -0.050332643 0.01026856 -0.062265843 0.07494505 0.043034833 0.05755802
-0.08719903 -0.13321555 -0.049882993 0.11287568 -0.107899114 -0.08431527 0.03994855 0.0031993093
-0.014146428 -0.01659274 0.06651833 0.01518991 -0.08128885 0.011069883 0.030021448 0.12781766
-0.11154064 -0.003472342 0.112353176 -0.020250585 0.073106654 0.08138082 -0.11453653 0.03335235
0.11430772 -0.03935009 -0.023039948 0.12049011 0.01976951 0.0072283386 0.12190335 0.08890147

gru.bias_ih_l1 f4 [192]
00000000: 7dd7 413d d58d a0bd 4c93 57bd d0bc dd3c
00000010: 8b2f e6bc 54e0 963d 00db 0cbd a461 02bd
00000020: a95f ed3c a921 2e3d b62b 8a3c dd5e 7bbd
00000030: 71d3 3fbd e4fb f0bd a12d 213c e0c9 bd3c
00000040: 0e97 f23c e5cd e8bc 94ad 903d c92a ad3d
00000050: bf23 1dbd 19ad d9bb a3b5 463d d289 07be
00000060: 4289 7dbd 827b cfbd bb57 d0bd e07f 8fbd
00000070: 44e6 0ebe 3f8e a03c 35ae f8bd de70 d53c
00000080: 3506 ae3d 661d edbd 6f84 d43d d58d 14bd
00000090: fd5d adbc 5a66 f93b 4de8 b43c 0055 f13c
000000a0: 2a98 3a3d c624 2eba 51b4 f43c 1943 0cbd
000000b0: 80b8 d33c c66e 953d cce4 233d 186c 263b
000000c0: 7ae8 d8bd 7a7d e2bd 8163 d3bd 569e 403d
000000d0: 0bbf 603d 9ccb ef3b eb67 c73b ce2a e03d
000000e0: 903b a5bd b6a4 01be 681f f4bb f380 d5bd
000000f0: 9d2d 653c 5337 5bbd d3e6 8bbb 2764 acbd
00000100: cb60 8fbd 67e0 1b3c dcbf 783b 2167 683d
00000110: e992 a23b 1d78 463d fa44 32bd 60a3 a83d
00000120: de5d 62bd 7737 873c d9d1 6cbd 5d5f eb3b
00000130: 35e7 bb3d 8dde 67bd 8aa2 c63d 91d2 a6bd
00000140: ac47 cb3d dddc 1b3d 657e e8bd 993a 983d
00000150: d3a9 a9bd b986 133d c3eb fdbc 0b7a b53d
00000160: 2b01 053c 4ad9 893c 300b 2a3d 12ef 9e3d
00000170: 0f2a e13d 67a4 ea3d 71eb 9c3d 2353 b53d
00000180: 1feb 1ebd b9ee 0c3d a042 a43d a8f9 91bd
00000190: 8d5c ff3d d7a0 83bc 8525 ee3d 883e cebd
000001a0: 044a ce3d 6672 61bd c64e 91bc a39a 1a3d
000001b0: 81dd e63d 94a8 3a3b 6b70 8abd 8f1d e1bd
000001c0: 910f 673d 03f6 133c 341f 933d 8200 bdbb
000001d0: e24b c4bc 729e 443b c219 3fbd 6ebf 3c3c
000001e0: f5bf 29bd 3046 c6bd 22f6 2b3d 2066 0bbe
000001f0: 64c6 35bd d090 6c3d 01b4 243d 60aa 513b
00000200: 60f5 dbbd 2814 60bd 92df 88bc 915c 003d
00000210: 7577 3abd 2979 5d3d c289 ad3d 5f9c a1bc
00000220: c96e 75bd 26fd c2bd f2f4 90bd 5ee7 e3bb
00000230: e090 c53d 1ea0 aa3d c30c 983d 1557 d0bd
00000240: dbec e33c 2225 6fbc 8203 fe3c b95c c03c
00000250: 2b45 0fbe 5509 d03c 28c2 e9bd 3fbe bb3d
00000260: fa9c 053e 0989 523d c2f9 b63d a00e ef3d
00000270: 7c05 843a bbbd b2bd 04e8 bcbc 9d74 3bbd
00000280: 8e19 b9bc 7e09 883c d95c 06bd d962 3ebd
00000290: 89e7 603b 2017 923c b860 8a3d 3380 b4bd
000002a0: 5165 97bc 6699 923b 6ea7 013e ede0 883d
000002b0: 7440 a7bd 824b 80bd 785c d13d 6a7b ee3d
000002c0: 4bc3 77bb bcf6 fd3c 83ed 14bb f344 ea3d
000002d0: 9548 d63b cf78 d9bd 6f3c 3e3d 939c b83d
000002e0: c8c9 1e3b 775a e6bd 2b55 e83d 314d e53d
000002f0: a7e9 cfbc 978d b23d 9d3e c23d 7200 a53d
0.047324646 -0.07839552 -0.052630708 0.027067572 -0.028098842 0.07367006 -0.034388542 -0.0318314
0.028976278 0.04251257 0.016866546 -0.061369766 -0.046832506 -0.11766794 0.009837539 0.02316755
0.029613044 -0.02841849 0.070643574 0.08455426 -0.03836417 -0.0066429493 0.048513066 -0.13236168
-0.061898477 -0.10130979 -0.10172983 -0.07006812 -0.13955027 0.019599078 -0.12142602 0.026054796
0.08497278 -0.11577873 0.10376822 -0.036268074 -0.021162981 0.007611078 0.022083426 0.029459476
0.04555527 -0.0006643053 0.029871138 -0.034243677 0.025844812 0.07296519 0.04001312 0.0025394019
-0.105912164 -0.11059089 -0.10321713 0.047026 0.054869693 0.0073179733 0.006085386 0.10945664
-0.08068001 -0.12660488 -0.007450033 -0.10424986 0.013987926 -0.05351956 -0.0042694598 -0.0841754
-0.07000884 0.009513951 0.0037956154 0.056738976 0.0049613607 0.048454393 -0.043522812 0.08234286
-0.0552653 0.01650594 -0.057817314 0.007182999 0.091749586 -0.056608725 0.096989706 -0.08145631
0.0992578 0.03805243 -0.11352233 0.074330516 -0.082843445 0.036017153 -0.030996209 0.088611685
0.008117954 0.016827244 0.041514575 0.07760443 0.1099435 0.114571385 0.076620944 0.08853748
-0.038798448 0.03440735 0.0802052 -0.07127696 0.124688245 -0.016067905 0.1162825 -0.10070521
0.10072711 -0.05504074 -0.017737757 0.03774513 0.11272717 0.0028481828 -0.06759723 -0.10991966
0.05641133 0.009030822 0.07183686 -0.005767883 -0.023961965 0.0030001667 -0.046655424 0.01152025
-0.04144283 -0.09681356 0.041982777 -0.13613176 -0.044378653 0.05775529 0.040210728 0.003199242
-0.10740161 -0.054706722 -0.01670817 0.03133828 -0.04552408 0.054070625 0.08473541 -0.019727884
-0.059920106 -0.095209405 -0.070779696 -0.0069550714 0.09646773 0.08331321 0.07424309 -0.101728596
0.027822902 -0.0145962555 0.031007532 0.023481714 -0.13991229 0.025395075 -0.114139855 0.09167146
0.13048163 0.05140022 0.08934356 0.11672711 0.0010072435 -0.087275945 -0.023059852 -0.045765508
-0.022595193 0.016606089 -0.03280339 -0.046480987 0.0034317693 0.017833292 0.06756729 -0.088135146
-0.018480929 0.004473853 0.12661526 0.06683526 -0.0816659 -0.06264402 0.10222715 0.11644633
-0.0037805613 0.031001441 -0.0022724576 0.11438932 0.006539414 -0.106187455 0.046444353 0.09014239
0.0024229158 -0.112477235 0.113443695 0.11196364 -0.025379969 0.08718412 0.09484599 0.080567256

gru.bias_hh_l1 f4 [192]
00000000: 9bf2 a1bc 2083 42bd 74af 643c 0f46 b63d
00000010: d2c6 4d3d dd8d 9abd 3a0c 4a3d 20f2 47bd
00000020: cb29 5ebd b28d d0bd 88cf df3b d6ed c43d
00000030: 3cc7 02be 2e06 f2bc 48f0 f0bd e98a 83bd
00000040: daaa dd3d 074a aa3d a35f 30bc 7809 b63c
00000050: 714a d53d 3b1d 553d d8e2 613d 02cc 6cbd
00000060: e45a da3d b42d cfbd 4a28 023e 98de 84bc
00000070: 4d5c 92bd ed30 56bc 3b47 cebd 6c2f 96bc
00000080: 360c 893d 68ee ed3d 1d01 efbd 202f 9c3d
00000090: f496 1cbd f526 babc 5842 69bd d5cc 07bd
000000a0: 0a8b 97bd 470e b53d 96a9 dc3d 4580 983d
000000b0: cde0 2f3d 94aa c13d eb6d 99bd d6a6 0d3b
000000c0: e2be c73b 644c c33d 268b d3bd decd d2bd
000000d0: d59f 7d3d 18b1 d9bd d9a9 54bd 4916 aabc
000000e0: 0179 7e3d 74f6 c03d 7ddf c03d 7c9f 89bd
000000f0: 23bd fc3c 4f62 6bbd b78e 31bd a5fd 90bd
00000100: 9a49 9abb 1a3c c63d 6753 c13d 5d03 eabd
00000110: e40f 773d 75ae 163d 1ecd 6c3c 0768 133d
00000120: c26f a33d 203e ca3b 245c d4bd ad9a cb3c
00000130: d881 e8bd 5c40 063e a045 1fbd 97eb 013c
00000140: 0640 913d 7751 26bd b932 003d 152b 1abd
00000150: ec8a 9ebd c475 ac3b 1295 babc f84e 43bd
00000160: 3d49 91bd 13c9 013d 6537 a7bd 0768 093c
00000170: 3af5 03bd e8ec b73d 8541 bb3d 1a1b b23c
00000180: c214 01bb c24e 853a fea7 d43d 6061 d13c
00000190: 8976 893d 2c4f ea3d 5179 2b3b b587 85bd
000001a0: 8eac 40bd d574 84bd 3ff7 69bd 2c8a e63d
000001b0: e8fc 8ebd cdde c9bd 3221 d93d e5cf b23d
000001c0: 1044 b63d efe5 093d 4790 c3bd 8b8f 2bbd
000001d0: 362a ce3c f2d1 a6bd e694 ebbd b221 01bd
000001e0: e7fc 213d 2538 09bd 45dd d2bd e3f7 063d
000001f0: d33d ae3d e1db e9bd 95e2 243d 4f04 a53d
00000200: 90e4 053e 48ce 973d 04a0 b03d 4620 b03c
00000210: acb6 803d e00f b73d a3a8 913d 6d6a 6c3d
00000220: 0267 e63d 7a56 acbd 8140 b9bd 5157 a7bd
00000230: 774c e03d 960b 9c3a 0f3a e83c 6692 ddbd
00000240: f0f9 92bd 2dab 74bc 4883 853d 16c4 cf3c
00000250: e63e cabd 7b0c 61bc b11d d43d 4b82 16bc
00000260: 13f2 023e df59 d63d 0999 aeb8 eedd 3b3d
00000270: 88f7 0ebc c2f4 053e 1d5e 883d 9857 4d3c
00000280: 9ff6 5a3d 623d 363d af2c 8a3d 0bb5 213d
00000290: a6ed bbbd dfe0 97bd 8a26 5e3d 3341 d43d
000002a0: cc82 f33c 7957 4b3c c979 563d 0377 543d
000002b0: 191f 093b d850 02bd d527 843d 54c2 803d
000002c0: 5644 cbbc b04d c4bb 6d53 d93d 1df1 cabd
000002d0: 2f91 153c a9ac 923d 1e68 00bd 5b45 a33d
000002e0: 3a31 34bb 3575 8bbd 8612 12bc 6e00 7e3d
000002f0: 514b 853d 264f 1ebd d09f 993d 4414 5c3d
-0.019769004 -0.04748833 0.013957847 0.08900081 0.050238438 -0.075465895 0.049328066 -0.048814893
-0.054239076 -0.10183276 0.0068301596 0.09615676 -0.12771314 -0.029543962 -0.1176458 -0.064229794
0.10823603 0.08314901 -0.010764989 0.022221312 0.10414589 0.05202983 0.055147976 -0.057811745
0.10661867 -0.10116139 0.12710682 -0.016219422 -0.07146511 -0.013073188 -0.1007218 -0.01833316
0.06691782 0.11617738 -0.11670134 0.07626176 -0.038229898 -0.022723654 -0.056948036 -0.033154327
-0.073995665 0.08840614 0.107745335 0.074463405 0.042938996 0.09456363 -0.07491668 0.0021614335
0.006095753 0.09536055 -0.10329275 -0.10293172 0.061920006 -0.10629481 -0.05191979 -0.02076258
0.062127117 0.09422007 0.09417627 -0.06719872 0.030851906 -0.0574668 -0.043348994 -0.07079629
-0.004708481 0.09679432 0.09439736 -0.11426423 0.06031789 0.03678747 0.014453201 0.03598788
0.079803005 0.0061719567 -0.10369137 0.024854029 -0.11352891 0.13110489 -0.03888476 0.007929704
0.070922896 -0.040605035 0.031298373 -0.037638742 -0.07741341 0.005263062 -0.02277616 -0.047682732
-0.07094047 0.0316859 -0.081648625 0.008386618 -0.03221629 0.08980733 0.09143356 0.021741439
-0.001969621 0.0010170566 0.103836045 0.025559127 0.06712062 0.11440882 0.002616484 -0.06520025
-0.04703956 -0.064675964 -0.057120558 0.11256823 -0.06981832 -0.09856949 0.10602035 0.08731059
0.08899701 0.033666547 -0.09549003 -0.04188494 0.025166612 -0.08145513 -0.115030095 -0.031526275
0.039547827 -0.03350081 -0.1029611 0.032951247 0.08507886 -0.11418892 0.040255148 0.080574624
0.13075471 0.07412392 0.086242706 0.021499764 0.06284842 0.08938575 0.07112243 0.057718683
0.11250116 -0.084149316 -0.09045506 -0.08170951 0.109520845 0.0011905308 0.028347997 -0.10818939
-0.07176578 -0.01493339 0.065191805 0.025362056 -0.09875278 -0.013735886 0.10357226 -0.009186338
0.12787656 0.1046636 -8.3254716e-05 0.045865946 -0.008726008 0.13081649 0.06658576 0.012533091
0.053457852 0.044492133 0.06746804 0.039479297 -0.09176187 -0.07415938 0.054235972 0.10363998
0.029725455 0.012410992 0.052362237 0.05187131 0.0020923077 -0.03181538 0.0645291 0.06287065
-0.024812859 -0.0059907064 0.10611615 -0.0990927 0.009128853 0.071618386 -0.031349294 0.07972213
-0.0027495162 -0.06809465 -0.008915549 0.06201213 0.06508506 -0.0386497 0.07501185 0.053730264
